models/kalman_model/model.pth (torch, 88229 bytes, 9 tensors)

lstm_layer.weight_ih_l0 f4 [164, 1]
0	0x3d8030bd	0.06259296
1	0x3d97468a	0.07386501
2	0x3e706b20	0.23478365
3	0xbd8088b4	-0.06276074
4	0xbd51134d	-0.051043797
5	0x3e493c72	0.19651964
6	0xbe163928	-0.14670241
7	0x3e05c2b7	0.13062559
8	0xbcf3890a	-0.029728431
9	0x3e2455e0	0.16048384
10	0x3e3273c3	0.17426972
11	0xbe23e4fe	-0.16005322
12	0x3e875efb	0.26439652
13	0x3d76d78f	0.060264166
14	0xbcb61d5a	-0.022230793
15	0x3dddd5ff	0.10831832
16	0xbda517e9	-0.08061201
17	0x3e22e657	0.1590818
18	0x3e0bf5c2	0.13667968
19	0x3d8cf17c	0.06881997
20	0x3e4aec95	0.19816811
21	0x3e35122f	0.17682718
22	0x3e39572b	0.18099658
23	0x3e01dc10	0.12681603
24	0x3e1c1565	0.15242536
25	0x3dd987c4	0.10621598
26	0x3c9d8dfc	0.019232742
27	0x3e1cb187	0.15302096
28	0x3e6bb072	0.23016527
29	0x3e0b9861	0.13632347
30	0xbcfc6048	-0.03080763
31	0x3d91c679	0.07117934
32	0x3e4eb35b	0.20185606
33	0xbb909464	-0.004412221
34	0xbc82021b	-0.015870145
35	0x3e302bfe	0.17204282
36	0x3df76886	0.12080483
37	0x3db22f8d	0.08700476
38	0x3e52a48b	0.2057058
39	0x3d75f44d	0.060047437
40	0x3e3f8eb9	0.18706788
41	0x3e4609f4	0.19339734
42	0xbd8ccbc3	-0.06874802
43	0xbd5f4b64	-0.054515257
44	0x3e6e3c5b	0.23265211
45	0xbcdaf592	-0.026728425
46	0x3e1dd1d8	0.1541208
47	0xbde1994e	-0.11015569
48	0x3e85e181	0.26148608
49	0x3d435efd	0.04769801
50	0x3dd8be13	0.10583129
51	0xbcec0402	-0.028810505
52	0x3e1bb910	0.15207314
53	0x3e4e5faf	0.20153688
54	0xbcd30ec2	-0.025763873
55	0x3e2f6a7e	0.17130467
56	0x3e1cf3a5	0.15327318
57	0xbd0c84ec	-0.03430645
58	0xbbb19a8d	-0.005420035
59	0x3e54c564	0.20778424
60	0x3dac3f42	0.08410503
61	0x3d932fbe	0.071868405
62	0x3d60a6b0	0.054846466
63	0x3e84f83d	0.2597064
64	0xbdd75bb5	-0.105155386
65	0xbc7620bc	-0.015022453
66	0x3e2c15d7	0.16805206
67	0xbd3d5140	-0.046220064
68	0x3e7265f7	0.23671709
69	0x3e562359	0.20911922
70	0x3d9cc0fa	0.07653995
71	0xbd1966ae	-0.03745144
72	0x3bb1349b	0.0054078824
73	0x3dfc8a84	0.12331107
74	0x3d402357	0.046908703
75	0x3d651432	0.055927463
76	0x3e4fbacd	0.20286103
77	0x3d1e2d7d	0.0386176
78	0xbc9ffba4	-0.019529171
79	0x3d620bb0	0.055186927
80	0x3d889675	0.066693224
81	0x3d7e2013	0.062042307
82	0xbdbe7d91	-0.09301294
83	0x3d51a417	0.05118188
84	0x3e175a0a	0.14780441
85	0x3d90f1b5	0.07077352
86	0x3b4bdff8	0.0031108838
87	0x3ddc92ce	0.10770188
88	0x3df6013e	0.12011956
89	0xbe6fc8d3	-0.23416452
90	0xbd6dc301	-0.0580473
91	0x3e13c801	0.14431764
92	0x3d9f01e2	0.07764031
93	0x3e49127a	0.19635954
94	0xbdbbf73c	-0.091780156
95	0x3e78ed8b	0.24309365
96	0x3de34edc	0.110990256
97	0x3e63b41b	0.22236674
98	0x3b08d7fd	0.0020880692
99	0x3e50fc42	0.20408729
100	0xbd3ad015	-0.0456086
101	0xbcfb15ac	-0.030649982
102	0x3e7222c1	0.2364607
103	0x3cf3f1e4	0.029778428
104	0x3e066429	0.13124146
105	0x3d146a07	0.036233928
106	0x3e1345ba	0.14382067
107	0x3e55dbc7	0.2088462
108	0x3cd675d6	0.026179235
109	0x3e60cb58	0.2195257
110	0xbe50d11f	-0.20392273
111	0x3e2fc810	0.17166162
112	0x3e6705ea	0.2256085
113	0x3e4a6c5a	0.19767895
114	0x3e1801aa	0.14844385
115	0x3de73009	0.11288459
116	0x3d7b4889	0.06134847
117	0xbe49670e	-0.19668218
118	0x3d2ea8e5	0.04264154
119	0xbe0b2dbd	-0.13591667
120	0x3e34632e	0.17615959
121	0x3e440462	0.19142297
122	0xbd369831	-0.044578735
123	0xbd2ac25c	-0.04168926
124	0x3e2e7982	0.17038539
125	0x3d8db624	0.06919506
126	0x3bd38295	0.0064547756
127	0x3db34c0e	0.08754741
128	0x3cd19483	0.025583511
129	0xbda9ce44	-0.08291295
130	0x3db681b0	0.08911455
131	0x3e043eca	0.12914577
132	0x3e58c18f	0.21167587
133	0x3e5bcce7	0.21464883
134	0x3d5ccd07	0.053906467
135	0x3e8a3c1f	0.26998994
136	0xbd2e63e1	-0.04257572
137	0xbcd44f4c	-0.025916718
138	0x3e22d1b5	0.1590031
139	0x3d15a6a7	0.036535885
140	0x3e505324	0.20344216
141	0xbc8b7f67	-0.017028524
142	0x3ca5980a	0.0202141
143	0x3e232e71	0.15935685
144	0xbd008f68	-0.031386763
145	0xbbc481ac	-0.0059969034
146	0x3d4a5248	0.049394876
147	0x3e0482ea	0.12940565
148	0x3e8c0766	0.27349395
149	0x3e2c6287	0.1683446
150	0x3be54314	0.0069965217
151	0x3e3d9b87	0.1851636
152	0x3d9789ce	0.07399331
153	0x3e50f3c8	0.20405495
154	0x3e80ab43	0.25130662
155	0x3e83dbb9	0.25753573
156	0xbd76f597	-0.060292806
157	0x3de3e8bf	0.11128377
158	0x3e84aa6a	0.25911266
159	0xbc8d59b9	-0.017254697
160	0xbd5a0e2c	-0.05323617
161	0x3da84513	0.082163
162	0x3c86cd93	0.016455447
163	0x3d8e3a35	0.06944696

lstm_layer.weight_hh_l0 f4 [164, 41]
0	0xbd839485	-0.06424812
1	0xbdf51ace	-0.11968003
2	0x3da6d0e0	0.081453085
3	0xbdbbe85a	-0.09175177
4	0xbe0950b6	-0.13409695
5	0x38d1f6de	0.00010011879
6	0x3da61bcc	0.081107706
7	0xbdbd8c28	-0.09255248
8	0xbdfea0c5	-0.12433008
9	0x3e548498	0.20753706
10	0x3dbcbf1d	0.092161395
11	0x3e0ba2e3	0.13636355
12	0xbe45494b	-0.1926624
13	0x3e2d1f56	0.16906485
14	0x3d2a05d4	0.041509464
15	0x3e4a0094	0.19726783
16	0x3d51fe2e	0.051267795
17	0x3d58eeee	0.052962236
18	0x3e01b953	0.12668352
19	0x3da9c539	0.0828957
20	0x3e8d671b	0.27617726
21	0xbd780846	-0.060554765
22	0x3d9bf584	0.07615188
23	0xbe280844	-0.16409403
24	0x3e35a4b5	0.17738612
25	0xbccb1c38	-0.02479373
26	0xbe0c3d11	-0.1369517
27	0xbd321af7	-0.043482747
28	0x3d9faedf	0.07797026
29	0xbcc2b8ac	-0.023769699
30	0xbd575e4e	-0.05258017
31	0xbd9e99d1	-0.07744182
32	0x3d14c0ee	0.036316805
33	0xbd72388f	-0.05913597
34	0x3e08fe80	0.13378334
35	0x3c039f86	0.008033639
36	0xbd2a942a	-0.041645207
37	0xbe16f86f	-0.14743207
38	0x3e6afd2f	0.22948144
39	0x3d1aee2a	0.037824787
40	0xbd9f8778	-0.077895105
41	0x3d772919	0.06034193
42	0xbd6cae13	-0.057783198
43	0x3e069293	0.13141851
44	0xbe1b35ab	-0.15157191
45	0xbc3c5023	-0.011493715
46	0xbdb8578e	-0.09001075
47	0xbdc6a333	-0.096990965
48	0x3dfad3ec	0.12247452
49	0x3cb25a64	0.021771617
50	0xbd286fb1	-0.041122142
51	0xbcb01f0f	-0.021499185
52	0x3df0073d	0.117201306
53	0xbde39588	-0.11112505
54	0x3d28aabe	0.041178457
55	0x3dbe0107	0.0927754
56	0x3e06cc0c	0.13163775
57	0x3e323d98	0.17406309
58	0x3e366577	0.17812143
59	0x3de8e031	0.11370886
60	0x3e219999	0.15781249
61	0x3d271eda	0.040800907
62	0x3ca0a874	0.019611575
63	0x3bf6a85b	0.0075273938
64	0x3c873ec4	0.016509421
65	0x3e0132a8	0.1261698
66	0x3cd3701b	0.025810292
67	0xbd53bbe2	-0.05169285
68	0xbbae6a37	-0.0053227204
69	0x3dccef87	0.10006624
70	0x3e0cb0ba	0.13739291
71	0xbcdd49f2	-0.027012799
72	0xbc9e6ca6	-0.019338917
73	0xbc6aa755	-0.014322122
74	0x3c814763	0.01578111
75	0x3df0407d	0.1173105
76	0xbdc8b0ed	-0.09799371
77	0x3daae19b	0.08343812
78	0xbd0c8006	-0.03430178
79	0x3df133e0	0.117774725
80	0x3c969478	0.018381342
81	0xbd9aaeb6	-0.07552855
82	0xbe203fbe	-0.15649316
83	0x3d946460	0.072457075
84	0xbcb9002f	-0.022583095
85	0x3e01f899	0.12692489
86	0x3bbd99dc	0.0057861637
87	0x3bfecb7a	0.007775721
88	0x3ce27f51	0.0276486
89	0xbd80d071	-0.06289757
90	0xbe05e773	-0.13076572
91	0xbc99935c	-0.018747024
92	0xbc41cde4	-0.011828873
93	0x3e348b40	0.17631245
94	0xbdda99a2	-0.106738344
95	0xbdd79ac4	-0.10527566
96	0xbd476d0b	-0.048687976
97	0x3dc076fe	0.09397696
98	0x3c717727	0.014737881
99	0x3e379a0b	0.17929856
100	0x3db764d8	0.08954781
101	0xbe10a3ea	-0.14125028
102	0x3e58079b	0.21096651
103	0x3e0fba4a	0.14035907
104	0x3e0ac366	0.13551101
105	0x3da7bdfa	0.08190532
106	0x3badb345	0.0053009116
107	0x3d3858b5	0.045006473
108	0x3e0ab00c	0.13543719
109	0x3e5ab3b9	0.21357621
110	0xbe3ebebc	-0.18627447
111	0x3dc4332b	0.09580072
112	0x3df14b3d	0.11781929
113	0x3dd42077	0.10357755
114	0x3e111997	0.14169918
115	0xbcb41844	-0.021984227
116	0x3e03ac54	0.12858707
117	0xbe3c3b0c	-0.183819
118	0xbde08973	-0.10963716
119	0xbe2932b0	-0.16523242
120	0xb9edbdf9	-0.00045345703
121	0xbdde209a	-0.10846062
122	0x3d24ae28	0.04020515
123	0x3de53656	0.111920044
124	0x3d856941	0.06514216
125	0xbc3dcdd8	-0.0115847215
126	0x3db41b0d	0.08794222
127	0xbe04fc50	-0.12986875
128	0xbba9e052	-0.005184212
129	0x3da61403	0.08109286
130	0xbe5bcb4b	-0.21464269
131	0x3dc977a7	0.09837275
132	0x3e4114e0	0.1885562
133	0x3dafc85b	0.08583137
134	0x3da11ff3	0.07867422
135	0xbd8b302a	-0.06796296
136	0x3e27e86a	0.16397253
137	0x3dbfb74a	0.093611315
138	0xbc8e007f	-0.01733422
139	0x3dad990f	0.08476459
140	0xbcc719b0	-0.024304241
141	0x3d577d1e	0.052609555
142	0x3d79f219	0.061021898
143	0x3e42d5d5	0.19026883
144	0x3e07eda6	0.1327425
145	0x3e21f494	0.15815955
146	0x3d9d7a88	0.076893866
147	0x3d7a3aab	0.061091106
148	0x3c23704b	0.009975503
149	0xbdf4b55a	-0.119486526
150	0x3e53e4cd	0.2069275
151	0xbe0176ad	-0.12642927
152	0x3e4d00e2	0.20019868
153	0x3db3abf4	0.08773032
154	0x3c5429f2	0.012949454
155	0x3e18c334	0.14918214
156	0x3db5200e	0.088440046
157	0x3db211a7	0.08694773
158	0xbc3da26e	-0.011574371
159	0xbcdb1001	-0.02674103
160	0xbe1f2819	-0.1554264
161	0x3e1c5c48	0.15269578
162	0x3d595c78	0.0530667
163	0xbd027cd2	-0.03185732
164	0x3d06d486	0.032917522
165	0xbdce3a47	-0.10069709
166	0x3e2599a6	0.16171893
167	0xbdd9e3e6	-0.10639171
168	0xbc5dd1a6	-0.013538754
169	0xbcf2f3d7	-0.029657288
170	0x3c82db31	0.01597366
171	0x3c84d3d7	0.016214294
172	0xbccac03a	-0.024749864
173	0x3d5de9f4	0.054178193
174	0x3e0b13f9	0.13581838
175	0xbd46879a	-0.048469163
176	0x3d741ab9	0.059595797
177	0xbd319051	-0.04335052
178	0x3ced5ebb	0.028975835
179	0x3def1486	0.116738364
180	0x3dc818e2	0.09770371
181	0xbcfb2f54	-0.030662216
182	0x3d9544dc	0.072885245
183	0x3d8e0604	0.06934741
184	0x3e86c81e	0.26324552
185	0xbcf81e7c	-0.030287974
186	0xbc9fbac0	-0.019498229
187	0x3d0962b7	0.033541407
188	0xbdcad83a	-0.09904523
189	0xbdeb789c	-0.11497614
190	0x3d41259e	0.047155015
191	0xbdb9f62d	-0.090801574
192	0x3c347599	0.011014366
193	0x3d5d5848	0.05403927
194	0x3de19777	0.11015218
195	0x3e281d60	0.16417456
196	0xbd005649	-0.031332288
197	0x3e1285ab	0.14308803
198	0xbd053a0f	-0.032526072
199	0xbdf43dc8	-0.11925846
200	0xbddd3b18	-0.10802287
201	0xbdedae6a	-0.116055325
202	0xbd0de5a4	-0.03464283
203	0x3c543d08	0.012954004
204	0xbe059f68	-0.1304909
205	0xbc94805c	-0.018127613
206	0xbdd51a38	-0.104053915
207	0xbd8cb927	-0.068712525
208	0x3e132e3b	0.14373104
209	0xbdd96780	-0.10615444
210	0x3e02368a	0.12716118
211	0xbd759ce5	-0.05996408
212	0x3cb3ddb1	0.021956297
213	0xbe2cc0e2	-0.16870454
214	0xbd5ab3ef	-0.053394254
215	0x3dbf305b	0.09335395
216	0x3e0ca3e3	0.13734393
217	0xbe46a251	-0.19397856
218	0x3c9b8ab1	0.018987032
219	0x3e27fc4c	0.16404837
220	0x3e482f00	0.19549179
221	0x3c6a6da8	0.014308371
222	0x3d73cc17	0.059520807
223	0xbd8ca6e1	-0.06867767
224	0xbdd93ae7	-0.10606938
225	0x3e9ae26d	0.30250874
226	0x3b896f3b	0.004194168
227	0x3c0e99c6	0.008703655
228	0xbc7aedc0	-0.015315473
229	0x3df3ac89	0.11898143
230	0xbcdd9bc4	-0.027051814
231	0xbdd5bcce	-0.10436402
232	0x3e5c39fe	0.21506497
233	0x3d6647e9	0.056220923
234	0x3e80825b	0.25099453
235	0xbdbeea0f	-0.09321987
236	0x3c4ce8d6	0.012506684
237	0x3e1fe432	0.15614393
238	0x3e38f8e9	0.18063702
239	0x3dd3e7b1	0.10346926
240	0xbe3fecf6	-0.18742737
241	0x3bd3fbaf	0.006469212
242	0x3d9eb993	0.07750239
243	0x3e86dca1	0.26340201
244	0xbb477486	-0.0030434444
245	0x3d203ab3	0.03911848
246	0xbdb4c8de	-0.08827375
247	0x3d3abf4b	0.045592587
248	0xbdbfadaa	-0.09359296
249	0x3e01a155	0.126592
250	0xbe36b399	-0.17841949
251	0xbb4af519	-0.0030968843
252	0x3d878f63	0.06619146
253	0xbcc8faaa	-0.024533588
254	0xbdb2528e	-0.08707152
255	0xbe120e24	-0.14263207

lstm_layer.bias_ih_l0 f4 [164]
0	0x3dfb4b0c	0.122701734
1	0xbe23b7f7	-0.15988146
2	0x3daaaa60	0.08333278
3	0x3d669dde	0.056302898
4	0x3dcc594e	0.09977971
5	0x3e25edc2	0.16203979
6	0xbd39ce3f	-0.045362707
7	0x3da45fbd	0.08026073
8	0x3e2bdd7d	0.1678371
9	0x3db03b2d	0.08605037
10	0xbe03ba2d	-0.12863989
11	0x3dad032e	0.08447872
12	0x3bca4693	0.006172964
13	0x3d83eb05	0.06441311
14	0x3db56363	0.08856847
15	0x3d9dad63	0.076990865
16	0x3b9b1409	0.004732613
17	0xbbbf4799	-0.0058373925
18	0xbc6e8065	-0.014556979
19	0x3e22fe00	0.15917206
20	0x3e48d617	0.19612919
21	0xbdeb2e85	-0.11483482
22	0x3d821679	0.063519426
23	0xbcf11394	-0.02942828
24	0xbd6a4535	-0.057194907
25	0x3a76fca6	0.0009421803
26	0x3bd3b215	0.006460438
27	0x3e6df350	0.23237348
28	0xbda82c77	-0.08211606
29	0x3e136c86	0.14396867
30	0xbdddcfc7	-0.10830646
31	0x3cd1e8cd	0.025623703
32	0x3e065055	0.13116582
33	0xbd9f59e1	-0.07780815
34	0xbd92fce6	-0.07177143
35	0x3c0d63ad	0.008629722
36	0x3d6f513e	0.058427088
37	0xbe1165e8	-0.1419903
38	0x3d1b93ba	0.03798268
39	0x3de9c63b	0.114147626
40	0x3d92fb38	0.071768224
41	0xbb94b45c	-0.004538102
42	0x3d6e4ef0	0.05818075
43	0x3e27a787	0.163725
44	0x3d1d29f3	0.038370084
45	0x3d6eef87	0.0583339
46	0xbcaaf1fd	-0.020867342
47	0x3de8e6ca	0.113721445
48	0xbd44eba8	-0.0480763
49	0xbb8f5ddb	-0.004375202
50	0xbc7d04fa	-0.015443081
51	0x3dc8801d	0.09790061
52	0x3c52c6a4	0.012864742
53	0xbb141399	-0.002259469
54	0x3e1a5253	0.15070467
55	0xbddb2889	-0.10701091
56	0x3be7f2ac	0.0070784893
57	0x3d129f2a	0.035796322
58	0x3dabca61	0.0838821
59	0x3c6d945c	0.014500704
60	0xbc3ebb20	-0.011641294
61	0x3e0e0389	0.13868536
62	0x3d08ac47	0.03336742
63	0x3d4e868d	0.050421286
64	0xbd05b4d4	-0.032643154
65	0xbd2a6461	-0.041599635
66	0x3dc96897	0.09834402
67	0xbde56ecf	-0.11202776
68	0x3e2609ce	0.16214678
69	0xbcee0ea3	-0.029059714
70	0x3e914399	0.28371885
71	0x3e01b583	0.12666897
72	0x3cf3a492	0.02974156
73	0x3cc96f20	0.024589121
74	0xbe202b40	-0.15641499
75	0xbd47f812	-0.048820563
76	0x3cec9c19	0.028883027
77	0xbe2b35a8	-0.16719687
78	0xbcf27685	-0.02959753
79	0x3d427a52	0.047479935
80	0x3d5321ca	0.051545896
81	0xbc9e7830	-0.01934442
82	0xbd5ca02f	-0.0538637
83	0x3b118d7b	0.0022209573
84	0xbba0994c	-0.004901087
85	0xbc8006ba	-0.015628207
86	0x3c9bd100	0.019020557
87	0x3e1e1ed3	0.15441446
88	0xbd45cef3	-0.048293065
89	0x3dd632ac	0.10458884
90	0xbc7f4e65	-0.015582656
91	0x3dbe802b	0.0930179
92	0x3e2609cb	0.16214673
93	0xbe078355	-0.13233693
94	0xbdafa241	-0.08575869
95	0x3dec57a0	0.11540151
96	0x3d04375c	0.032279357
97	0xbdc63372	-0.09677781
98	0x3c2311c6	0.009952968
99	0x3d1615b4	0.03664179
100	0xbe02cc19	-0.1277317
101	0x3d673553	0.05644734
102	0x3dc3dd2e	0.09563671
103	0xbdaa79ac	-0.08323988
104	0x3d7637ed	0.06011193
105	0xbe1149a7	-0.14188252
106	0x3e037f19	0.12841453
107	0xbcc26910	-0.023731738
108	0xbdee062e	-0.116222724
109	0xbdb1c957	-0.08680981
110	0xbe2da4bf	-0.16957377
111	0xbdac8488	-0.08423716
112	0x3de33d48	0.11095673
113	0xbd295c7f	-0.041347977
114	0xbe03d125	-0.12872751
115	0xbcb7373e	-0.022365209
116	0xbdcad677	-0.09904187
117	0xbe0c107f	-0.13678168
118	0xbddd9ffe	-0.10821532
119	0x3e2d0226	0.16895351
120	0x3cc37e26	0.023863863
121	0x3e1e1694	0.154383
122	0xbdaed1b3	-0.08536091
123	0xbdb4167e	-0.087933525
124	0xbda0b5c2	-0.078471676
125	0xbced0f8d	-0.02893808
126	0x3db6f1cc	0.08932838
127	0x3d84bdc5	0.06481508
128	0xbdc4e388	-0.09613711
129	0x3e2860d3	0.16443186
130	0xbdbc8f48	-0.09207016
131	0xbda80d85	-0.08205704
132	0x3e2024d6	0.15639052
133	0x3d5a1227	0.053239968
134	0x3e2eb967	0.17062913
135	0xbca1fb6c	-0.019773208
136	0xbcb60643	-0.022219783
137	0x3d9d3a37	0.07677119
138	0x3ded3854	0.11583009
139	0xbe3ae9ca	-0.18253246
140	0xbdf51bdf	-0.119682066
141	0xbce518f4	-0.027966
142	0x3c943523	0.018091744
143	0x3ea5ca20	0.32380772
144	0xbd5b560f	-0.05354887
145	0x3de7560a	0.112957075
146	0xbdc3e8b1	-0.09565867
147	0xbdf897fb	-0.12138363
148	0xbca93446	-0.020654809
149	0xbca5d098	-0.020241067
150	0x3e1bc708	0.15212643
151	0x3e4057fb	0.18783562
152	0x3d321b44	0.043483034
153	0x3bc83de8	0.0061108954
154	0xbc9de2cd	-0.019273186
155	0x3ab92c46	0.0014127574
156	0x3c815472	0.015787337
157	0xbc51366c	-0.012769323
158	0xbc387fa3	-0.0112609
159	0xbc478144	-0.012176815
160	0xbd042abf	-0.03226733
161	0x3deb9b64	0.11504248
162	0xbcbf7929	-0.023373203
163	0x3d8da644	0.06916478

lstm_layer.bias_hh_l0 f4 [164]
0	0x3e27edcf	0.1639931
1	0x3c71be4d	0.014754844
2	0xbe00bded	-0.12572451
3	0x3db9b2ab	0.09067281
4	0xbcdf1f77	-0.027236683
5	0xbcca7838	-0.024715528
6	0x3d84abf7	0.06478112
7	0x3e4aa181	0.19788171
8	0xbd414893	-0.047188353
9	0x3e186140	0.14880848
10	0x3d2c5a68	0.042078406
11	0x3dac7bb1	0.0842203
12	0x3dbeb80b	0.09312447
13	0x3d657018	0.056015104
14	0xbc16e0a5	-0.009208833
15	0xbdbb6a3a	-0.091511205
16	0xbe2a5ca6	-0.16636905
17	0xbda87d5d	-0.08227036
18	0xbd067015	-0.032821734
19	0x3c210601	0.009828092
20	0x3e1fee6f	0.15618299
21	0xbbabde0a	-0.005244975
22	0xbc5af3f9	-0.013363832
23	0xbb81e35d	-0.0039638714
24	0x3df8a262	0.12140347
25	0x3e03fce8	0.12889445
26	0x3e045c3a	0.12925807
27	0x3e1799d0	0.14804769
28	0xbd3e57e7	-0.04647055
29	0x3d1112de	0.035418384
30	0xbdffa1af	-0.124820106
31	0x3dd2e0b6	0.102967665
32	0xbc51f833	-0.012815523
33	0xbcb87dab	-0.02252086
34	0x3d358c62	0.044323333
35	0xbdb8cdc8	-0.09023625
36	0xbc23e683	-0.010003689
37	0xbdeea414	-0.11652389
38	0x3e7b2ce0	0.24528837
39	0x3cc0f58c	0.023554586
40	0x3d85fa72	0.06541909
41	0x3e2a758d	0.16646405
42	0xbd026587	-0.031835105
43	0x3d8662e2	0.06561829
44	0x3d287bcb	0.041133683
45	0xbde05d76	-0.10955326
46	0x3dcd34db	0.10019847
47	0x3e41a650	0.189111
48	0x3dfe6919	0.124223895
49	0x3de32d79	0.110926576
50	0x3e561d71	0.20909669
51	0x3e096d99	0.13420714
52	0x3e1a2649	0.15053667
53	0xbdc84164	-0.09778097
54	0xbaa3fb4a	-0.0012510803
55	0x3e2ae3a6	0.16688403
56	0x3e2c1443	0.16804604
57	0xbdcc155e	-0.09965013
58	0x3e2d3d4f	0.16917919
59	0xbb97edb7	-0.004636492
60	0xbcaf5981	-0.021404983
61	0x3e1af085	0.15130813
62	0x3d7df20c	0.061998412
63	0xbbe6635d	-0.007030888
64	0xbdc59a08	-0.0964852
65	0x3dd63555	0.10459391
66	0xbbe12595	-0.006870935
67	0xbe36c6a6	-0.17849216
68	0xbd7514f8	-0.05983445
69	0x3e3b6ed9	0.18304004
70	0x3d73960d	0.05946927
71	0x3d2bcac2	0.04194141
72	0xbd1fc18c	-0.03900294
73	0xbd11197d	-0.0354247
74	0x3cc3558a	0.0238445
75	0x3d94c27e	0.07263659
76	0x3dbf0081	0.09326268
77	0x3dbc02c6	0.091802165
78	0xbc25ee2d	-0.010127586
79	0x3d175fef	0.036956724
80	0xbd220de2	-0.03956402
81	0x3df6fcf5	0.120599665
82	0xbe272312	-0.16321972
83	0x3db5e0c2	0.0888076
84	0x3d034f12	0.03205783
85	0x3e1d4ace	0.15360567
86	0xbe062a42	-0.13102058
87	0x3e0264f4	0.12733823
88	0xbd6cbaa1	-0.05779517
89	0xbe291122	-0.16510442
90	0xbd8c521c	-0.068515986
91	0xbd8120ef	-0.0630511
92	0xbca6d8ff	-0.020367144
93	0x3ca5d4d7	0.020243092
94	0x3ca53a4a	0.020169396
95	0x3d15f854	0.036613777
96	0x3e0bafd2	0.13641289
97	0x3dc89513	0.09794059
98	0xbdaacfee	-0.08340441
99	0xbca09fb1	-0.019607397
100	0x3d26ea69	0.040750895
101	0xbe0c39e6	-0.13693962
102	0xbe340d62	-0.1758323
103	0xbd94ebe0	-0.07271552
104	0x3c737b13	0.014860886
105	0xbcf3b9d3	-0.029751694
106	0x3d48e41d	0.04904567
107	0x3d31ff65	0.043456454
108	0xbdf96159	-0.12176771
109	0x3d89140b	0.06693276
110	0x3d9deb0a	0.07710846
111	0xbcbbead2	-0.02293912
112	0x3d79b193	0.060960364
113	0x3daf5be4	0.085624486
114	0x3e0f23b7	0.13978468
115	0x3d35efdb	0.044418197
116	0xbe15d3b3	-0.14631538
117	0x3dede8b2	0.11616649
118	0x3d3f3d3b	0.046689253
119	0xbd61a17b	-0.05508564
120	0xbda22679	-0.07917494
121	0xbdbc28ad	-0.09187446
122	0xbda66c99	-0.08126182
123	0x3e1f2fe4	0.15545613
124	0x3dc7159c	0.097209185
125	0x3da49a9c	0.08037302
126	0x3d8d769c	0.069073886
127	0x3deff431	0.11716498
128	0xbd4bb19f	-0.04972994
129	0x3e2c85d4	0.16847926
130	0x3cd26327	0.025682045
131	0xbde974ca	-0.11399229
132	0x3dc01a9d	0.09380076
133	0x3d9aa890	0.07551682
134	0x3e38bedb	0.18041556
135	0xbdc4017c	-0.095705956
136	0xbd37f981	-0.04491568
137	0xbd87443d	-0.06604812
138	0x3e4f40db	0.20239584
139	0xbdacab78	-0.084311426
140	0x3e36fe9c	0.17870563
141	0xbdbaba52	-0.09117569
142	0xbd2259e1	-0.039636496
143	0x3e5b999e	0.21445319
144	0x3cc3da5b	0.023907831
145	0x3e07251d	0.13197751
146	0xbd9ca02e	-0.07647739
147	0xbe05e600	-0.1307602
148	0xbd6f5eff	-0.058440205
149	0xbe253904	-0.16135031
150	0x3e1a15a2	0.15047315
151	0x3d8d79e3	0.06908014
152	0x3e127c1a	0.14305153
153	0x3de29ac1	0.11064673
154	0x3e0afbbb	0.1357259
155	0x3dd09a75	0.1018571
156	0x3dd0d0c8	0.10196072
157	0xbda3ee55	-0.080044426
158	0x3d4d70a0	0.050156236
159	0xbd10c303	-0.035342228
160	0x3d27b6c0	0.04094577
161	0x3e2a2602	0.16616061
162	0x3d87f9fa	0.06639476
163	0x3e2fb242	0.17157844

lstm_layer.weight_ih_l1 f4 [164, 41]
0	0x3bb89ee7	0.005634177
1	0xbdf1f5aa	-0.11814435
2	0xbd290f42	-0.041274317
3	0xbd1b04bf	-0.037846323
4	0x3b32e302	0.0027295952
5	0xbd022c8b	-0.03178076
6	0xbde3aab5	-0.11116544
7	0xbd3730ee	-0.044724397
8	0xbe0dc0f7	-0.13843141
9	0x3df13edc	0.117795676
10	0xbd667ea0	-0.056273103
11	0x3c6b43d8	0.014359437
12	0xbe0b61c6	-0.13611516
13	0x3d9b3de3	0.07580163
14	0x3dcc159e	0.09965061
15	0xbc1377ef	-0.009000762
16	0xbdfec89c	-0.12440607
17	0xbdaeba4c	-0.08531627
18	0xbdbf5fe6	-0.09344463
19	0xbe084ee0	-0.13311338
20	0x3e868701	0.26274875
21	0x3c68d23f	0.014210283
22	0x3d14dc45	0.036342878
23	0x3d9bc585	0.07606033
24	0xbc900944	-0.017582543
25	0x3e1fe662	0.15615228
26	0xbd928240	-0.071537495
27	0x3dd546c4	0.10413888
28	0xbd92e061	-0.07171703
29	0x3e186c45	0.14885052
30	0x3d8d9473	0.0691308
31	0xbcff1f08	-0.031142727
32	0x3d1ffb4f	0.039058026
33	0xbdb45f88	-0.08807284
34	0x3cc36b78	0.023854956
35	0xbe03d7cd	-0.1287529
36	0xbc15698e	-0.0091194045
37	0xbe0090d5	-0.12555249
38	0x3df3e752	0.11909355
39	0xbde2e7e8	-0.11079389
40	0x3ccd697c	0.025074713
41	0x3db69df5	0.08916847
42	0x3dfa1734	0.12211457
43	0x3d8bb025	0.06820706
44	0xbe07de11	-0.13268305
45	0x3d3ac6a3	0.04559959
46	0x3d0c2eb1	0.034224216
47	0x3e0c5c32	0.13707045
48	0xbd1fbdf9	-0.03899953
49	0x3dce5bed	0.10076127
50	0x3d1f73c9	0.03892878
51	0x3dc6e1c4	0.0971103
52	0x3dcc73e2	0.099830404
53	0xbe2bf74f	-0.1679356
54	0x3de61827	0.112350754
55	0xbd57536a	-0.052569784
56	0x3b80ba30	0.0039284453
57	0x3db84d82	0.089991584
58	0x3dcbf20f	0.099582784
59	0x3ccb0be8	0.02478595
60	0x3e088b1f	0.1333432
61	0x3e34ac29	0.17643799
62	0x3d1793e5	0.037006278
63	0x3dbada66	0.091236874
64	0xbd684d40	-0.056714296
65	0x3de0098d	0.10939322
66	0xbdd55012	-0.10415663
67	0x3dc2d6e9	0.09513647
68	0x3c73a235	0.014870216
69	0xbe2595b9	-0.16170396
70	0x3dfdeb11	0.12398351
71	0xbdbc1efd	-0.09185598
72	0x3e052862	0.13003686
73	0x3df77fba	0.12084909
74	0x3d37462e	0.044744663
75	0xbd9fb03b	-0.07797285
76	0xbe0d06f3	-0.13772182
77	0x3e0e9965	0.13925703
78	0xbdbe3f26	-0.09289388
79	0xbd982fe0	-0.074310064
80	0xbd464aa9	-0.048411045
81	0x3db2572b	0.08708032
82	0xbe2d54ed	-0.16926928
83	0x3d981623	0.07426097
84	0x3da9d580	0.08292675
85	0x3e10d52c	0.14143819
86	0xbceda39b	-0.029008677
87	0x3ddcadb4	0.10775319
88	0x3c7dbdf0	0.015487179
89	0xbe375ecc	-0.17907256
90	0x3df2689d	0.1183636
91	0xbbe8c4b7	-0.0071035284
92	0xbdc57291	-0.096409924
93	0x3c62a934	0.0138342865
94	0xbc33bee9	-0.0109708095
95	0x3de6421d	0.11243079
96	0xbdc31f5e	-0.09527467
97	0xbd073096	-0.03300532
98	0x3d5426e9	0.05179492
99	0x3e133e47	0.14379226
100	0xbdcbd78f	-0.09953224
101	0xbdd6075b	-0.10450622
102	0x3e8b508d	0.27209893
103	0x3d866c61	0.065636404
104	0x3d5a6c7f	0.053326126
105	0xbd87301d	-0.06600974
106	0x3d06f303	0.032946598
107	0x3e107c70	0.14109969
108	0x3e1249e2	0.14285997
109	0x3dbbc90f	0.09169208
110	0xbc9e29a5	-0.019306967
111	0x3e0264d3	0.12733774
112	0x3d3f6c24	0.04673399
113	0x3e23d480	0.15999031
114	0xbd1210c8	-0.035660535
115	0xbde42e77	-0.11141675
116	0x3c56798d	0.013090503
117	0xbd189402	-0.037250526
118	0xbde3147e	-0.11087893
119	0x3dda0257	0.106449775
120	0x3d43c89a	0.04779873
121	0xbce220b8	-0.027603492
122	0x3b58442e	0.0032999623
123	0xbde7f2ff	-0.11325645
124	0xbdacef79	-0.08444113
125	0xbd4458d5	-0.04793628
126	0x3ca52b23	0.02016217
127	0xbd43fc10	-0.047847807
128	0x3e4d005d	0.2001967
129	0xbda85768	-0.082197964
130	0xbe5b009d	-0.21386953
131	0x3d3bf345	0.045886297
132	0x3e3c0d04	0.1836434
133	0xbdd0f211	-0.102024205
134	0x3db40202	0.087894455
135	0xbd7ad25e	-0.061235778
136	0x3e419e8c	0.18908137
137	0x3d98e310	0.07465184
138	0x3e16bd0b	0.14720552
139	0xbdedc5ae	-0.1160997
140	0x3da7c4d3	0.08191838
141	0xbe335a03	-0.17514805
142	0xbcb713ca	-0.022348303
143	0x3dd41966	0.10356407
144	0xbe0a13cd	-0.13484116
145	0x3d7558de	0.059899203
146	0x3dad6cba	0.084680036
147	0x3d8077be	0.06272839
148	0xba94f709	-0.0011365126
149	0xbddcf9e7	-0.107898526
150	0x3e413ca7	0.18870793
151	0x3db10b6f	0.08644759
152	0x3e28300c	0.16424578
153	0x3e099997	0.13437496
154	0x3da41375	0.08011524
155	0xbda42e3c	-0.08016631
156	0x3e51df1e	0.20495269
157	0x3de9606c	0.11395344
158	0xbdb8cb47	-0.09023147
159	0x3d0a6969	0.033791933
160	0xbd018a9a	-0.03162632
161	0x3e826c9c	0.25473487
162	0xbd9d52f4	-0.07681838
163	0xbe1f3dc6	-0.15550908
164	0x3df1098b	0.11769398
165	0x3e087f1a	0.13329735
166	0x3bb153a0	0.00541158
167	0x3d8267c3	0.06367447
168	0x3df9711d	0.12179778
169	0x3d927c3f	0.07152604
170	0xbb60b428	-0.003428707
171	0xbd03c4e6	-0.0321702
172	0x3cab0cb0	0.020880073
173	0x3e12ebae	0.14347717
174	0x3d658057	0.056030598
175	0x3d29d4f1	0.041462842
176	0xbdf41024	-0.11917141
177	0x3e1c55b3	0.15267067
178	0x3d439756	0.047751747
179	0x3b977ca2	0.0046230117
180	0xbc975ad6	-0.018475931
181	0xbd91d699	-0.071210094
182	0xbe1be357	-0.15223442
183	0xbe2ba45d	-0.16761918
184	0x3d9e90bd	0.077424504
185	0x3dfc2cd2	0.12313236
186	0xbdd3551b	-0.10318967
187	0xbe18839f	-0.1489396
188	0x3e052af3	0.13004665
189	0x3e010843	0.12600808
190	0xbe2d56c4	-0.1692763
191	0xbda17b2d	-0.07884822
192	0x3d670a59	0.056406353
193	0x3d2ddaca	0.04244498
194	0x3d6ca42c	0.057773754
195	0xbc99720c	-0.01873114
196	0x3d90168e	0.07035552
197	0x3e2594fb	0.16170113
198	0xbdfa8b26	-0.12233572
199	0xbe612cd6	-0.2198976
200	0xbc4527b1	-0.012033389
201	0xbddd996d	-0.10820279
202	0x3e890dcb	0.26768336
203	0x3e01fe87	0.1269475
204	0x3d8a30ce	0.0674759
205	0x3d932f49	0.07186753
206	0xbd2c9502	-0.042134292
207	0x3e067e14	0.13134032
208	0xbd39b7c2	-0.04534126
209	0xbdafc360	-0.08582187
210	0xbdb20792	-0.0869285
211	0x3c7116ae	0.01471488
212	0x3872b3c6	5.7864723e-05
213	0xbdd5d08c	-0.10440168
214	0x3e175232	0.14777449
215	0x3c8b95d7	0.017039223
216	0xbd2e272f	-0.042517837
217	0xbcc0d931	-0.023541065
218	0x3dd0cffe	0.10195921
219	0x3e1d65e8	0.15370905
220	0x3e2bb31b	0.16767542
221	0xbe1ad377	-0.1511973
222	0x3d123afe	0.03570079
223	0xbd8e557b	-0.06949898
224	0xbe034198	-0.12817991
225	0x3c85b06d	0.016319478
226	0xbd81121e	-0.06302284
227	0x3e0e0a4f	0.1387112
228	0x3ccf1a3a	0.02528106
229	0xbcebf85b	-0.028804949
230	0xbc524799	-0.012834453
231	0xbe196a74	-0.14982015
232	0x3e2d382f	0.16915964
233	0x3dcead72	0.10091676
234	0x3e0fdbdc	0.14048713
235	0x3db4cc9a	0.08828087
236	0x3e08001a	0.13281289
237	0x3df3d710	0.11906254
238	0x3e2083a3	0.15675215
239	0xbd8b40e1	-0.06799484
240	0xbd48d9fe	-0.04903602
241	0x3b800f78	0.003908094
242	0x3dee5836	0.11637919
243	0xbc378fee	-0.011203749
244	0x3e375a8d	0.17905636
245	0xbde8c099	-0.1136486
246	0x3e03aea9	0.12859596
247	0x3de80f9d	0.11331103
248	0xbd2bfefd	-0.041991223
249	0xbe276c13	-0.16349821
250	0xbd9cfef3	-0.07665815
251	0xbc9f8c76	-0.019476157
252	0xbd8f0336	-0.06983034
253	0xbd9802e1	-0.07422424
254	0xbcab41be	-0.020905372
255	0xbc2f51a0	-0.010700613

lstm_layer.weight_hh_l1 f4 [164, 41]
0	0xbbb181bf	-0.0054170783
1	0x3c2330fa	0.009960407
2	0xbe07545f	-0.13215779
3	0xbc82df01	-0.015975477
4	0x3de79af4	0.11308852
5	0xbbe97ee3	-0.007125722
6	0xbdd22040	-0.102600574
7	0x3dae0cca	0.08498533
8	0xbdfde0c3	-0.123963855
9	0xbdf2c559	-0.11854047
10	0xbda2b8b4	-0.079453856
11	0xbdd44a8e	-0.10365783
12	0xbd6ba449	-0.05752972
13	0x3df746e7	0.120740704
14	0x3ba6fe17	0.005096208
15	0xbdbd1244	-0.092319995
16	0xbd792f33	-0.06083603
17	0xbd2016c3	-0.039084207
18	0x3dd02d8e	0.10164939
19	0xbdb68695	-0.08912388
20	0xbe17e180	-0.14832115
21	0xbe099ad7	-0.13437973
22	0xbbf0cd56	-0.0073486967
23	0xbc375222	-0.011189016
24	0x3d7b1e7a	0.06130836
25	0x3dd35ee8	0.10320836
26	0x3c77330a	0.015087852
27	0x3d3e4588	0.04645303
28	0x3dd4cdca	0.10390814
29	0x3dd85643	0.10563328
30	0x3c36148b	0.011113296
31	0xbc8decd5	-0.017324844
32	0xbddbc1be	-0.10730313
33	0xbd50ac5d	-0.05094563
34	0x3e05a7ab	0.13052242
35	0xbd363c0a	-0.04449085
36	0xbd2de265	-0.042452235
37	0xbe08f7a0	-0.13375711
38	0xbdd6ad12	-0.10482229
39	0xbcc48338	-0.023988351
40	0xbe112c4d	-0.14177056
41	0x3cd34d46	0.025793683
42	0xbe162cee	-0.14665577
43	0x3d6f62c8	0.058443815
44	0xbe222308	-0.15833676
45	0xbd5ebc5a	-0.054378845
46	0x3e24ec8f	0.16105865
47	0x3de951c6	0.1139255
48	0xbdb65e99	-0.08904762
49	0xbe096f8c	-0.13421458
50	0xbc8f46d6	-0.017489832
51	0x3d77ba5d	0.060480464
52	0xbca85212	-0.020546947
53	0x3c3c09f3	0.011476981
54	0xbde04c00	-0.10951996
55	0xbcf85c49	-0.030317442
56	0x3e04961c	0.12947887
57	0xbcdf2824	-0.02724082
58	0xbd2177cb	-0.039420884
59	0xbe1c7273	-0.15278034
60	0x3d0de8ef	0.03464597
61	0xbd305ac8	-0.043055326
62	0xbc415ab5	-0.011801411
63	0xbc3f76f7	-0.011686078
64	0x3da1985e	0.0789039
65	0xbdf2f6c2	-0.118634716
66	0xbc9e96a4	-0.01935894
67	0x3e002c15	0.12516816
68	0x3db11c87	0.08648019
69	0x3d3c7c35	0.04601689
70	0x3d13f85a	0.03612552
71	0xbcba874a	-0.022769589
72	0x3d876e05	0.066127814
73	0x3d87439c	0.06604692
74	0xbd413565	-0.04717006
75	0x3cc82a6d	0.024434293
76	0xbd3c52e8	-0.045977503
77	0x3b7b385c	0.0038333153
78	0xbde49d3c	-0.111628026
79	0xbb80d19a	-0.0039312365
80	0xbdc90c54	-0.098168045
81	0xbc9bd83d	-0.019024009
82	0x3dbf1698	0.09330481
83	0x3d0716e7	0.032980826
84	0x3d29cc8b	0.041454833
85	0xbe03330b	-0.1281244
86	0x3ccf71cc	0.025322817
87	0xbd9ece77	-0.07754224
88	0xbc8e7130	-0.017387956
89	0x3ddea94f	0.10872137
90	0xbd8ee72f	-0.069776885
91	0xbd1fd2aa	-0.039019264
92	0xbdc753d4	-0.09732786
93	0xbccad38a	-0.024759073
94	0x3e0bb46e	0.13643047
95	0xbdc4aae3	-0.096029066
96	0x3cd28784	0.025699385
97	0x3cd756d3	0.026286518
98	0xbe04b94e	-0.12961313
99	0x3d7f1fb0	0.06228608
100	0x3d84c02e	0.06481968
101	0xbdcbcb00	-0.099508286
102	0xbcc9d2c7	-0.02463664
103	0x3d95f9f2	0.07323064
104	0xbdf08b48	-0.11745316
105	0x3dcf3778	0.10118002
106	0xbcf58647	-0.029971255
107	0x3dba7e79	0.09106154
108	0x3df1d1eb	0.11807617
109	0xbd996b5c	-0.0749118
110	0x3d827280	0.063694954
111	0xbdce8507	-0.10083967
112	0x3c9878b2	0.01861224
113	0xbb723044	-0.0036955038
114	0xbe289062	-0.16461328
115	0x3e27b063	0.1637588
116	0x3cb148e7	0.021641208
117	0xbda8c8ea	-0.08241446
118	0xbe13a8a7	-0.14419805
119	0x3db159ca	0.08659704
120	0xbe13123b	-0.14362423
121	0xbd90d7c6	-0.070724055
122	0xbdae231c	-0.0850279
123	0x3deaf5a8	0.114726365
124	0xbe0dc827	-0.13845883
125	0x3dde0c8e	0.10842238
126	0xbe0c48cc	-0.13699645
127	0xbe2fcc55	-0.1716779
128	0xbdc7cf46	-0.09756331
129	0x3d417a28	0.047235638
130	0xbbf9e439	-0.007626083
131	0x3e29dedb	0.16588919
132	0xbd127244	-0.035753503
133	0xbc12790f	-0.008939995
134	0x3d466ff0	0.048446596
135	0x3e19c3ab	0.15016048
136	0x3d53988c	0.051659152
137	0xbddbafc9	-0.10726888
138	0x3aabed5b	0.0013117002
139	0x3c8accaf	0.016943304
140	0xbda9f989	-0.08299548
141	0xbe1af8aa	-0.1513392
142	0x3c9be3bb	0.019029489
143	0xbe27fcae	-0.16404983
144	0x3d8b83cd	0.068122484
145	0x3dbbec74	0.09175959
146	0x3d408b44	0.047007814
147	0xbda62d58	-0.081141174
148	0x3ddb2729	0.107008286
149	0xbc8f6b68	-0.01750727
150	0xbe13c4cd	-0.14430542
151	0x3d9ea694	0.07746616
152	0xbd7bf775	-0.06151529
153	0xbd196d00	-0.037457466
154	0xbda093b5	-0.07840673
155	0x3dc649d8	0.09682053
156	0xbd8885f9	-0.06666178
157	0xbdd46880	-0.10371494
158	0x3d447d77	0.047971215
159	0x3dd5fc76	0.10448544
160	0x3dcb7571	0.099345095
161	0xbdbd5265	-0.09244231
162	0xbc3a6805	-0.011377339
163	0x3ddeb99b	0.10875245
164	0xbdfd3550	-0.12363684
165	0xbdc79bd8	-0.09746522
166	0xbd2bbb5e	-0.041926734
167	0xbe30ac05	-0.1725312
168	0x3d11b0c8	0.035568982
169	0x3d8b29f0	0.06795108
170	0xbe035e29	-0.12828888
171	0xbd824139	-0.063600965
172	0xbdb65a84	-0.08903983
173	0x3dc745af	0.09730088
174	0x3c08e130	0.00835447
175	0x3cd7d639	0.026347267
176	0xbdebb80d	-0.11509714
177	0xbdae5ed5	-0.085141815
178	0x3e1db0cd	0.15399475
179	0x3d493b1d	0.04912864
180	0x3e31dfc8	0.17370522
181	0xbdc0f42f	-0.09421574
182	0xbe26ead6	-0.1630052
183	0x3d90e931	0.07075728
184	0x3dd9d9ee	0.1063727
185	0xbe35562c	-0.17708653
186	0x3cf5fb49	0.030027049
187	0xbd7d1265	-0.06178512
188	0x3df00690	0.11720002
189	0xbe01d60d	-0.1267931
190	0xbd0178aa	-0.031609215
191	0x3cf187cc	0.029483698
192	0x3e14a17d	0.14514728
193	0xbd25a891	-0.04044396
194	0x3d4fb6b1	0.050711337
195	0xbe02a0be	-0.12756631
196	0xbe2d419c	-0.16919559
197	0x3e0363ef	0.1283109
198	0xbdbd4e43	-0.09243443
199	0xbe13b232	-0.14423445
200	0x3e0cd96d	0.13754816
201	0xbdf38423	-0.118904375
202	0x3cee0f37	0.02905999
203	0xbe2fab33	-0.17155151
204	0x3e1fdbec	0.15611237
205	0x3e16c515	0.14723618
206	0x3dcd4e36	0.10024683
207	0x3d8f8a50	0.07008803
208	0xbd0a830e	-0.03381639
209	0x3d6ccc2f	0.057811912
210	0x3d8e9157	0.06961315
211	0x3e2451b3	0.16046791
212	0x3e04ecc0	0.12980938
213	0x3d3acde3	0.045606505
214	0xbdc75e1b	-0.09734746
215	0x3db11318	0.0864622
216	0xbdf17d9b	-0.117915355
217	0x3bdcea61	0.0067418073
218	0xbd5229ca	-0.051309384
219	0x3debdaeb	0.11516365
220	0xbd8edb86	-0.069754645
221	0xbe02b470	-0.12764144
222	0x3d759b75	0.05996271
223	0xbe238a2c	-0.15970677
224	0xbbc44151	-0.0059892316
225	0xbd4e191f	-0.050316926
226	0x3deb1d0b	0.11480149
227	0xbd77e8e1	-0.060524825
228	0xbdcc74c0	-0.09983206
229	0xbdfe967c	-0.12431046
230	0xbb81df1c	-0.0039633643
231	0x3ca86ca1	0.02055961
232	0x3e05fd04	0.13084799
233	0x3d38f242	0.04515291
234	0xbd328493	-0.043583464
235	0x3cac4fa7	0.021034075
236	0x3e278912	0.16360882
237	0xbe30cf1d	-0.17266507
238	0xbd351a9a	-0.044214822
239	0xbdacb71c	-0.08433363
240	0x3dcbe309	0.09955413
241	0x3e0e849f	0.13917778
242	0x3df6c5c3	0.12049439
243	0x3d7aa363	0.061190974
244	0xb94fbd44	-0.00019811565
245	0xbd539e48	-0.05166462
246	0xbdcd746f	-0.100319736
247	0xbd042d96	-0.032270037
248	0xbdfc5e80	-0.12322712
249	0xbd71f7a2	-0.05907405
250	0x3dabf7e3	0.0839689
251	0x3d1a81c7	0.03772142
252	0x3d031b3b	0.03200839
253	0x3e05d897	0.13070904
254	0xbe25adad	-0.16179533
255	0xbd1b4143	-0.037904035

lstm_layer.bias_ih_l1 f4 [164]
0	0x3e0e46cc	0.13894194
1	0x3e048590	0.12941575
2	0xbda1c3fd	-0.0789871
3	0xbdd0a7b4	-0.10188237
4	0xbc4d4d66	-0.01253066
5	0xbde68cf8	-0.112573564
6	0xbdaeda6a	-0.08537753
7	0xbe1d1a91	-0.15342166
8	0xba29ebe0	-0.00064819865
9	0xbdbf6a37	-0.09346431
10	0xbd677d31	-0.056515876
11	0x3d67148b	0.056416076
12	0x3d933200	0.07187271
13	0xbdc51536	-0.09623186
14	0xbe1896a3	-0.14901213
15	0x3e0c4968	0.13699877
16	0x3e0d0035	0.1376961
17	0xbddf9dce	-0.10918771
18	0xbba6d079	-0.00509077
19	0x3de56ec6	0.11202769
20	0xbb361093	-0.0027780875
21	0x3b9b8a96	0.0047467453
22	0x3c0cd757	0.008596263
23	0xbd13d13a	-0.036088206
24	0xbd159cd2	-0.03652651
25	0xbc943fb6	-0.018096786
26	0xbaf5c257	-0.0018749934
27	0xbcf35e4b	-0.029708048
28	0xbdba0723	-0.090833925
29	0xbd7ea10b	-0.0621653
30	0xbe100c87	-0.14067279
31	0x3c0f325e	0.008740036
32	0xbd3004be	-0.042973273
33	0x3d27142d	0.040790725
34	0x3deda8d6	0.116044685
35	0xbd97ac17	-0.074058704
36	0xbe16ad38	-0.14714515
37	0x3e3619b6	0.17783245
38	0x3df17cbc	0.11791369
39	0xbd83ac28	-0.064293206
40	0xbdea0da6	-0.114283845
41	0xbdf03ec0	-0.117307186
42	0xbde88a66	-0.113545224
43	0x3d3bcb1a	0.04584799
44	0x3e01e28f	0.12684081
45	0x3e250fa7	0.16119252
46	0xbd8331cb	-0.06405982
47	0xbe3162b1	-0.17322804
48	0x3d15f506	0.036610626
49	0x3d2191af	0.039445575
50	0xbdc831f2	-0.09775151
51	0xbde73769	-0.112898655
52	0xbdfac0b0	-0.122437835
53	0xbdda9a62	-0.106739774
54	0x3df39d30	0.118952155
55	0x3d8a57a7	0.067549996
56	0x3d9967ca	0.07490499
57	0x3d87b525	0.066263475
58	0x3e18dbf3	0.14927654
59	0x3e27e6ff	0.16396712
60	0x3c8a1931	0.016857715
61	0xbddf5e1c	-0.10906622
62	0xbc4072f6	-0.011746159
63	0xbd49783d	-0.049186934
64	0x3ad44b13	0.001619669
65	0x3d8dd86b	0.06926044
66	0x3cedb8d6	0.0290188
67	0xbd2de5ee	-0.042455606
68	0x3de1fbc8	0.110343516
69	0xbdec0b95	-0.115256466
70	0xbd87f33c	-0.0663819
71	0xbdf013f2	-0.11722554
72	0xbd66ab56	-0.056315742
73	0xbdb67e54	-0.08910814
74	0xbdd5cd38	-0.10439533
75	0x3dc7fa9b	0.09764596
76	0xbacf083b	-0.00157953
77	0x3d9ca552	0.0764872
78	0xbd8075e8	-0.06272489
79	0xbdc40a4c	-0.095722765
80	0xbdacdd83	-0.084406875
81	0xbd9442ac	-0.07239279
82	0x3cc3ed92	0.023916993
83	0x3dc011d7	0.09378403
84	0xbe1fc155	-0.15601094
85	0xbe231fee	-0.15930149
86	0xbe24a9f3	-0.16080455
87	0xbcea2626	-0.028582644
88	0x3c61fc95	0.01379313
89	0x3de31505	0.110879935
90	0x3d1301db	0.03589044
91	0x3dd5b20c	0.1043435
92	0xbe05b139	-0.13055886
93	0x3de7ca44	0.11317876
94	0xbdeb4edf	-0.11489653
95	0x3e22251b	0.15834467
96	0x3d7ec64f	0.06220084
97	0x3e04d019	0.12970008
98	0x3c915ff0	0.017745942
99	0x3d247646	0.040151857
100	0xbe0eb0e3	-0.13934664
101	0x3dea494d	0.11439762
102	0xbe18107e	-0.14850041
103	0xbda717df	-0.0815885
104	0xbc8e9960	-0.01740712
105	0xbe0d5979	-0.13803662
106	0x3d888f8e	0.06668006
107	0xbce285ab	-0.027651628
108	0xbd9d4028	-0.076782525
109	0xbdbcf6e5	-0.09226779
110	0x3ddaa0db	0.10675212
111	0xbca8e622	-0.020617548
112	0x3dac880a	0.08424385
113	0xbc9f3956	-0.01943652
114	0x3d8495e4	0.06473902
115	0x3d97e434	0.07416573
116	0xbdea63a1	-0.11444784
117	0x3d8f7bfe	0.070060715
118	0xbdbf135e	-0.09329866
119	0xbd9a3a18	-0.07530612
120	0x3cf02a03	0.029316908
121	0xbe01dd82	-0.12682155
122	0x3d9cdf00	0.076597214
123	0xbe0d2967	-0.13785325
124	0x3df9cd2f	0.12197339
125	0xbdb65056	-0.089020416
126	0x3e11992f	0.14218591
127	0xbddb6206	-0.10712056
128	0xbdc21afd	-0.09477804
129	0xbe1cf693	-0.15328436
130	0xbd1f03cd	-0.038821984
131	0x3e15ddce	0.14635393
132	0xbca0a277	-0.01960872
133	0x3d6172cc	0.05504112
134	0x3c08fc58	0.008360945
135	0x3e17a194	0.14807731
136	0xbd79a450	-0.060947716
137	0x3e141da3	0.1446443
138	0xbd85114d	-0.064974405
139	0xbc16cc12	-0.009203928
140	0x3dd1c4a7	0.102425866
141	0x3dc1c07e	0.09460543
142	0xbd9f199b	-0.07768556
143	0x3d4bb8db	0.04973684
144	0x3cfcfe97	0.030883117
145	0xbd7eebe8	-0.062236696
146	0x3d0d00f8	0.034424752
147	0xbcdcf2db	-0.026971271
148	0xbe076236	-0.13221058
149	0x3e0883f6	0.13331589
150	0x3d72722f	0.059190925
151	0xbce42d3e	-0.027853604
152	0x3ddce5d8	0.10786027
153	0x3d809319	0.06278057
154	0x3de20fb1	0.11038149
155	0xbd202f96	-0.03910788
156	0xbdab416f	-0.0836209
157	0xbd9056f5	-0.07047836
158	0x3dc2d086	0.09512429
159	0xbe2e5720	-0.17025423
160	0x3d65259e	0.055944078
161	0xbde9593e	-0.11393975
162	0x3de35361	0.11099888
163	0x3dbd170e	0.09232913

lstm_layer.bias_hh_l1 f4 [164]
0	0xbdb55766	-0.088545606
1	0x3e03bf78	0.12866008
2	0xbdbd2c19	-0.092369266
3	0x3da96438	0.08271068
4	0x3d94aaef	0.072591655
5	0x3e28c4e4	0.16481358
6	0x3d962ad4	0.073323876
7	0x3dd04f0a	0.101713255
8	0xbd9c4e6f	-0.076321475
9	0x3c28075b	0.01025566
10	0xbdc38d3c	-0.09548423
11	0x3e1ed45d	0.15510698
12	0x3ce0381c	0.027370505
13	0xbd31e30e	-0.043429427
14	0x3c949456	0.018137138
15	0x3cbab304	0.02279044
16	0x3d5a5218	0.053300947
17	0x3d0ac9bf	0.033883806
18	0x3db7697f	0.08955669
19	0x3e0f3133	0.13983612
20	0x3e1f25c5	0.15541752
21	0x3e305c77	0.17222773
22	0x3dea78e1	0.11448837
23	0xbd39fb12	-0.045405455
24	0x3d199826	0.037498616
25	0xbb544fb0	-0.003239613
26	0xbcbb7ad6	-0.022885721
27	0xbe03dc42	-0.1287699
28	0x3e156a44	0.14591318
29	0x3df0c205	0.11755756
30	0xbdbb0eef	-0.09133708
31	0x3de2e01a	0.110779
32	0x3e1c9d0d	0.15294285
33	0xbe05d4a1	-0.13069393
34	0xbd1ff712	-0.039053984
35	0xbdc46fdf	-0.0959165
36	0x3d54be7d	0.051939476
37	0x3dacccba	0.08437486
38	0x3cc0e088	0.023544565
39	0xbda94e7c	-0.08266923
40	0xbdb7c8db	-0.08973857
41	0xbcf12915	-0.029438535
42	0x3d0b682a	0.034034885
43	0x3b8668e2	0.0041018585
44	0xbd28c762	-0.04120577
45	0x3dd257b2	0.10270633
46	0x3df4c78b	0.11952122
47	0x3e012821	0.12612964
48	0xbd5e8500	-0.054326057
49	0xbdbbe8bd	-0.09175251
50	0xbdad9715	-0.08476082
51	0xbdc98770	-0.09840286
52	0x3d084223	0.033266198
53	0x3d8644be	0.0655608
54	0x3d367e57	0.04455408
55	0xbdae324b	-0.08505686
56	0x3df5ad1a	0.11995907
57	0x3a16c660	0.0005751606
58	0x3dd4eed3	0.103971146
59	0xbbb52fbb	-0.0055293716
60	0x3e1963ce	0.14979479
61	0x3d0e9df3	0.0348186
62	0x3d4b7ce2	0.049679644
63	0x3c855f86	0.0162809
64	0xbdd46aa7	-0.10371905
65	0x3d1f1659	0.03883967
66	0xbdcf4b3d	-0.101217724
67	0xbdd8deb2	-0.10589351
68	0x3e212b7e	0.15739247
69	0x3d47263d	0.04862045
70	0xbcdfe424	-0.027330466
71	0xbdb34693	-0.08753695
72	0xbdf33cb4	-0.118768126
73	0xbd1363ec	-0.035983965
74	0xbdb998ac	-0.09062323
75	0xbd7b3cfd	-0.06133746
76	0x3d449bdc	0.0480002
77	0x3c1716fd	0.009221789
78	0x3da7c41d	0.081917025
79	0xbe045178	-0.12921703
80	0xbcc15585	-0.02360035
81	0x3dc08c12	0.09401716
82	0x3c93ccc2	0.018041972
83	0xbc29aa26	-0.010355508
84	0xbbc20fec	-0.005922308
85	0x3de5924f	0.11209547
86	0xbd8dc756	-0.06922786
87	0xbb9d7002	-0.004804612
88	0x3dda1beb	0.10649856
89	0x3cca354f	0.024683623
90	0x3e045cf3	0.12926082
91	0x3d9dcc53	0.077049874
92	0x3c33173f	0.010930835
93	0x3cad3178	0.021141753
94	0x3de734db	0.11289378
95	0xbde6e512	-0.112741604
96	0xbc7a28fa	-0.015268559
97	0x3e204bf3	0.15653972
98	0x3e2d6917	0.1693462
99	0x3da9999e	0.08281253
100	0xbc447731	-0.011991308
101	0x3e067687	0.13131152
102	0xbe053304	-0.13007742
103	0xbd64443e	-0.055729143
104	0xbe2b7565	-0.16744001
105	0x3d0d1cd8	0.034451336
106	0xbdcb7de7	-0.09936123
107	0xbdea202d	-0.11431918
108	0xbdd46132	-0.10370101
109	0xbdc7bd63	-0.097529195
110	0xbd54792b	-0.051873367
111	0xbde3b739	-0.11118931
112	0x3cde2d12	0.0271211
113	0x3ca5b744	0.02022899
114	0x3dbdffc5	0.092773
115	0x3db1492c	0.086565346
116	0xbdb455b3	-0.08805408
117	0x3d3d3ec3	0.046202432
118	0xbd8a7f13	-0.06762519
119	0xbdca76cb	-0.09885939
120	0xbc4cb63f	-0.012494623
121	0xbd8f413d	-0.06994865
122	0x3d082d5a	0.033246376
123	0xbdc71d2c	-0.09722361
124	0x3d406928	0.046975285
125	0xbd322347	-0.043490674
126	0x3dc06075	0.09393398
127	0x3ddc90d6	0.10769813
128	0x3d482436	0.04886266
129	0xbda8c2f5	-0.0824031
130	0xbafc4df1	-0.0019249303
131	0xbdfd9301	-0.123815544
132	0x3dbd7170	0.09250152
133	0xbe1cd133	-0.15314178
134	0xbd7d4ee4	-0.061842814
135	0x3d6c08cd	0.05762558
136	0xbddd865d	-0.108166434
137	0xbd63b3fb	-0.055591565
138	0x3e042a3f	0.1290674
139	0x3d943399	0.07236404
140	0xbe154f96	-0.14581141
141	0xbd84c154	-0.06482187
142	0x3e051704	0.12997061
143	0x3dc8f6f8	0.098127306
144	0x3de0ec35	0.10982553
145	0xbd2a1341	-0.04152227
146	0x3d3a4d9a	0.045484163
147	0x3e1d5c3b	0.15367214
148	0xbc8277d3	-0.015926277
149	0xbd3b43a3	-0.0457188
150	0xbe005368	-0.12531817
151	0xbded036d	-0.11572919
152	0xbd2de7d3	-0.042457413
153	0x3db1e69b	0.08686563
154	0x3d90ffbf	0.0708003
155	0xbcfeafe9	-0.03108974
156	0xbdb2f471	-0.0873803
157	0xbd164f8c	-0.036696956
158	0x3bd24e9f	0.006418064
159	0x3de8530f	0.11343967
160	0x3e16d183	0.1472836
161	0xbcd2eb3e	-0.025746938
162	0xbda5ea2f	-0.081013076
163	0xbd11fbd4	-0.035640553

output_layer.weight f4 [1, 41]
0	0x3dfb6cfb	0.12276646
1	0xbdea9f2a	-0.114561394
2	0xbd4e0689	-0.0502992
3	0xbd89525b	-0.06705161
4	0xbdc5c0b9	-0.096558996
5	0x3e22752e	0.15865013
6	0xbcf4d561	-0.029886903
7	0xbd71edf2	-0.059064813
8	0x3dc05cfe	0.09392737
9	0x3c21e93c	0.009882268
10	0x3deb251b	0.11481687
11	0x3e04d99c	0.12973636
12	0x3df9791f	0.12181305
13	0x3dd942a4	0.10608414
14	0xbdccce5a	-0.10000296
15	0x3dc5dbd6	0.09661071
16	0x3c45ac53	0.012065011
17	0xbdd641ae	-0.10461746
18	0xbdc4a287	-0.09601312
19	0x3d75d268	0.060015112
20	0xbdc76290	-0.09735596
21	0xbe24c5e8	-0.1609112
22	0xbe0daede	-0.13836238
23	0xbe2b298b	-0.16715066
24	0xbc77f595	-0.015134235
25	0xbdcc21f8	-0.099674165
26	0xbd979ee4	-0.07403353
27	0xbe3234e9	-0.17402996
28	0x3c99c50d	0.018770719
29	0x3e0fe752	0.14053085
30	0xbd5a71ba	-0.053331114
31	0x3d102379	0.03519008
32	0xbdec5c83	-0.11541083
33	0x3c044e38	0.008075289
34	0xbdcf25a7	-0.101146035
35	0xbe11f01d	-0.14251752
36	0x3cd2a887	0.025715126
37	0xbdb47f91	-0.08813394
38	0x3da5037b	0.080573045
39	0xbe1cce13	-0.15312986
40	0x3da6fd6f	0.08153807
