models/kalman_model/model.pth (torch, 14397 bytes, 5 tensors)

lstm_layer.weight_ih_l0 f4 [100, 1]
-0.07424963 -0.12929021 0.28589648 0.24699277 0.3015077 0.20460574 -0.06751147 0.16095018
0.015844932 0.3278174 0.22172076 0.21885362 0.1573654 -0.04770603 0.12268292 -0.22946262
-0.25588736 0.16620305 -0.19866823 -0.19822465 0.16224626 0.106942505 -0.14868188 0.021729263
-0.045966968 -0.36752945 -0.16280846 0.19363473 0.32216665 0.011983776 0.12072106 -0.058250137
-0.06302759 0.05145911 0.174896 0.28490707 0.19326471 0.1703519 0.20527612 -0.07026642
-0.21208037 -0.29505068 0.079433575 0.03285386 -0.0556012 0.30202752 0.15648217 0.054462533
-0.054689758 -0.05238394 0.28676757 -0.1879051 -0.042688206 -0.1825946 0.112919435 0.04991635
0.09454481 -0.15261841 -0.10126559 0.2749033 -0.31458417 0.24601059 -0.0461562 0.3302949
0.025068423 0.006104137 -0.18590163 -0.20193335 0.23750821 -0.0355725 -0.12776664 0.11242502
0.251793 -0.31173572 -0.21583237 -0.20073886 -0.11011618 0.1832987 0.13103762 0.26244965
0.0077608316 -0.1450207 0.04131769 0.0116331205 0.19765927 -0.08209128 0.20429175 0.25745025
0.10519749 0.04891568 -0.32995516 -0.18526474 -0.047858648 -0.055538695 0.017404586 0.082445614
0.018453978 -0.06116771 0.054964438 0.0955781
00000000: 3110 98bd a764 04be 0661 923e aceb 7c3e
00000010: 385f 9a3e 2b84 513e 7443 8abd 20d0 243e
00000020: 3bcd 813c afd7 a73e c40a 633e 2a1b 603e
00000030: 6524 213e 6667 43bd 2f41 fb3d 40f8 6abe
00000040: ab03 83be 2231 2a3e af6f 4bbe 67fb 4abe
00000050: e223 263e ac04 db3d 1040 18be 9101 b23c
00000060: dc47 3cbd d22c bcbe 43b7 26be 2f48 463e
00000070: 07f3 a43e 9a57 443c 9a3c f73d b297 6ebd
00000080: 9c14 81bd cac6 523d f017 333e 57df 913e
00000090: 2fe7 453e ba70 2e3e e733 523e d7e7 8fbd
000000a0: 992b 59be e210 97be 12ae a23d c591 063d
000000b0: 15be 63bd 5aa3 9a3e dd3c 203e 1b14 5f3d
000000c0: 5e02 60bd 8b90 56bd 33d3 923e 326a 40be
000000d0: d4d9 2ebd 14fa 3abe 4e42 e73d 1675 4c3d
000000e0: b6a0 c13d 0048 1cbe 5564 cfbd 20c0 8c3e
000000f0: 2d11 a1be 33ea 7b3e 490e 3dbd 6a1c a93e
00000100: 4b5c cd3c 3605 c83b ff5c 3ebe 9ec7 4ebe
00000110: 5a35 733e 78b4 11bd 42d5 02be 173f e63d
00000120: 03eb 803e d39b 9fbe 2903 5dbe 7d8e 4dbe
00000130: 9784 e1bd a8b2 3b3e ba2e 063e cd5f 863e
00000140: 934e fe3b 4e80 14be bd3c 293d d898 3e3c
00000150: 3167 4a3e 791f a8bd db31 513e 85d0 833e
00000160: c871 d73d cf5b 483d e2ef a8be 0ab6 3dbe
00000170: 6e07 44bd 8b7c 63bd 1094 8e3c 3fd9 a83d
00000180: cc2c 973c fe8a 7abd 6422 613d 73be c33d

lstm_layer.weight_hh_l0 f4 [100, 25]
-0.19923499 0.45494652 -0.2855133 -0.11929293 -0.037818808 0.22633332 0.10141123 -0.27387863
-0.07627374 -0.018165255 -0.0030981046 0.15712628 0.4041682 -0.08599647 0.33269504 0.29535243
0.3997976 0.07091328 -0.27777484 -0.03271527 -0.28884375 0.2184144 -0.08320891 0.10596796
0.05314001 0.035226762 0.05854102 0.048906542 -0.017314851 0.059061904 -0.04880633 -0.021097505
0.05668652 -0.027946645 -0.05296714 0.079054266 -0.15209742 -0.22653975 0.08765757 -0.12538105
-0.2117749 0.020635726 0.23473711 -0.05581844 0.20053822 -0.021357201 0.050493803 -0.058899894
0.011764211 0.21393758 0.074578315 -0.0884074 0.17102228 0.034069717 0.05918055 0.027120028
0.09947076 0.070408225 0.060638197 -0.12688224 0.0041075316 0.17745961 0.14188537 -0.10558711
0.0019514044 0.091173515 0.11645381 -0.062005278 0.16596073 0.112930745 0.12655167 0.02245954
-0.1302727 -0.27744263 -0.00014838121 -0.10070348 0.119305715 -0.010561292 -0.040633533 0.20933425
0.25668743 0.049108602 -0.19291756 -0.12718423 0.09194068 0.024677996 0.17442477 -0.10546707
-0.009645298 0.039910365 -0.019462723 0.062438704 -0.24976744 0.045887806 0.3172123 0.09764251
-0.044682354 0.21573399 -0.0011258288 -0.27200595 0.008195344 -0.13788992 -0.17229289 0.0902823
0.2435492 0.20216958 0.17850599 -0.056452382 -0.05214119 0.20172827 -0.22102237 -0.04553158
-0.18357325 0.027365994 -0.01026407 -0.05231194 -0.122370064 0.09580997 -0.0042920075 0.17252834
-0.21250655 0.19585975 -0.046835378 -0.06216165 -0.11238659 0.025807682 -0.06497187 0.049475763
0.08861579 0.22073646 -0.034772277 0.008701466 -0.046269257 -0.018672088 -0.06476307 -0.096089125
0.21802987 0.08157289 0.19426575 -0.033292074 -0.004986363 -0.24626692 -0.034044318 0.24862923
-0.027877413 -0.19036031 0.1827288 0.23005792 0.048998423 -0.254437 -0.12754911 0.21215266
-0.004145216 0.10953781 -0.051530015 0.13697548 0.06702359 0.13719146 0.09854635 -0.056848023
0.13978742 0.034270912 -0.18504584 -0.22429472 0.14082211 -0.17978252 -0.16081467 0.12178905
-0.16889754 -0.057356067 -0.03642801 -0.20249957 -0.025026375 0.19580887 0.075033344 -0.17090155
0.018528938 -0.2077643 0.056896675 0.0104466835 -0.122825384 0.1720251 0.044697795 0.11511508
0.046944935 -0.2688522 -0.0108888075 -0.15410201 0.065279916 -0.12718688 0.15809783 -0.1562044
-0.052974287 -0.09947554 0.20864053 0.13408838 0.20489961 0.005108779 -0.09503272 -0.1253855
0.16307895 -0.20385095 -0.14450525 -0.15673113 0.22398145 -0.07546827 0.0670035 0.13002527
0.10599618 0.0012302607 -0.037648804 -0.12572293 0.21711485 -0.04165566 0.22867101 0.1339366
-0.117234215 0.087555744 0.08639174 0.22152053 0.011300118 0.21354693 0.24626203 -0.14328028
-5.682482e-05 0.038755316 -0.2050714 0.0607969 -0.0828176 -0.03372907 -0.038560566 -0.04708022
-0.013954362 -0.024467139 0.093793824 -0.24134675 0.13332659 0.10216356 0.2475965 0.07596239
0.2026312 -0.14783376 0.09824308 -0.033808116 0.07556134 -0.09005841 0.262613 -0.0042569195
-0.14972898 0.04883828 -0.4044381 0.2914685 -0.11132223 -0.28059706 0.05192494 -0.0104919765
00000000: 4204 4cbe c0ee e83e cd2e 92be da4f f4bd
00000010: e5e7 1abd ecc3 673e b1b0 cf3d d239 8cbe
00000020: 6835 9cbd 4dcf 94bc 9209 4bbb b6e5 203e
00000030: 22ef ce3e eb1e b0bd 0157 aa3e 6f38 973e
00000040: 45b2 cc3e fb3a 913d 8138 8ebe 7200 06bd
00000050: 54e3 93be 06a8 5f3e 6f69 aabd bb05 d93d
00000060: 57a9 593d f049 103d b5c8 6f3d 3a52 483d
00000070: e0d7 8dbc e5ea 713d 25e9 47bd add4 acbc
00000080: 2030 683d 5df0 e4bc 12f4 58bd 34e7 a13d
00000090: 6dbf 1bbe 09fa 67be d085 b33d e463 00be
000000a0: 85db 58be 410c a93c ed5e 703e e0a1 64bd
000000b0: e459 4d3e 4cf5 aebc 97d2 4e3d 0441 71bd
000000c0: adbe 403c 7412 5b3e 84bc 983d f00e b5bd
000000d0: 7720 2f3e b08c 0b3d 4e67 723d d22a de3c
000000e0: 53b7 cb3d 3032 903d c25f 783d 6bed 01be
000000f0: 7998 863b f9b7 353e 664a 113e 0e3e d8bd
00000100: 44c6 ff3a 2eb9 ba3d 567f ee3d 3ff9 7dbd
00000110: 9cf1 293e 3c48 e73d c396 013e 12fd b73c
00000120: 3566 05be f60c 8ebe c796 1bb9 a03d cebd
00000130: 8e56 f43d 4509 2dbc 596f 26bd b85b 563e
00000140: 896c 833e 1a26 493d 2e8c 45be 953c 02be
00000150: 654b bc3d 8229 ca3c 689c 323e 1fff d7bd
00000160: 5007 1ebc 0d79 233d 4a70 9fbc babf 7f3d
00000170: 09c3 7fbe daf4 3b3d a769 a23e ccf8 c73d
00000180: d804 37bd 5fe9 5c3e 8c90 93ba 5d44 8bbe
00000190: c445 063c 0433 0dbe 8c6d 30be ede5 b83d
000001a0: f664 793e 8b05 4f3e 46ca 363e 9d3a 67bd
000001b0: 0092 55bd db91 4e3e b053 62be 527f 3abd
000001c0: a0fa 3bbe a62e e03c a12a 28bc 0b45 56bd
000001d0: 289d fabd 0438 c43d f8a3 8cbb 45ab 303e
000001e0: 519b 59be 758f 483e 74d6 3fbd 379d 7ebd
000001f0: f12a e6bd a26a d33c f90f 85bd 19a7 4a3d
00000200: 327c b53d bd08 623e 606d 0ebd 9890 0e3c
00000210: d584 3dbd 35f6 98bc 80a2 84bd 60ca c4bd
00000220: 3943 5f3e b00f a73d 9aed 463e 455d 08bd
00000230: a564 a3bb 652d 7cbe 0e72 0bbd a998 7e3e
00000240: 2c5f e4bc d0ed 42be 421d 3b3e 4e94 6b3e
00000250: 92b2 483d 9145 82be 3c9c 02be 8c3e 593e
00000260: 98d4 87bb 5c55 e03d 2311 53bd 4d43 0c3e
00000270: aa43 893d eb7b 0c3e abd2 c93d 79d9 68bd
00000280: 6f24 0f3e a85f 0c3d a87c 3dbe 84ad 65be
00000290: ac33 103e e918 38be 9aac 24be 8a6c f93d
000002a0: 7af3 2cbe 32ee 6abd 8935 15bd 0c5c 4fbe
000002b0: 1d04 cdbc 1f82 483e 15ab 993d d100 2fbe
000002c0: 00ca 973c 2ac0 54be 7d0c 693d 9128 2b3c
000002d0: e08b fbbd 5927 303e 0915 373d 74c1 eb3d
000002e0: 5549 403d ffa6 89be f866 32bc ebcc 1dbe
000002f0: 7ab1 853d 473d 02be 66e4 213e 0cf4 1fbe
00000300: 91fb 58bd d5b9 cbbd dda5 553e 774e 093e
00000310: 34d1 513e 8b67 a73b 84a0 c2bd 0e65 00be
00000320: 2bfe 263e 4ebe 50be 2ff9 13be 207e 20be
00000330: 655b 653e 1c8f 9abd 2239 893d 5825 053e
00000340: 8614 d93d b340 a13a a235 1abd 83bd 00be
00000350: 5b53 5e3e 209f 2abd bc28 6a3e ad26 093e
00000360: 7e18 f0bd 6d50 b33d 27ee b03d 47d6 623e
00000370: 2124 393c 0cac 5a3e 1d2c 7c3e 11b8 12be
00000380: 3057 6eb8 e5bd 1e3d 3dfe 51be 2c06 793d
00000390: 469c a9bd 7e27 0abd aff1 1dbd 30d7 40bd
000003a0: d6a0 64bc 4f6f c8bc fa16 c03d 9a23 77be
000003b0: c486 083e 213b d13d f089 7d3e 2b92 9b3d
000003c0: 8e7e 4f3e bc61 17be ab33 c93d 617a 0abd
000003d0: e7bf 9a3d 8b70 b8bd 3675 863e a17d 8bbb
000003e0: 8e52 19be a60a 483d 8312 cfbe 5c3b 953e
000003f0: e9fc e3bd 6baa 8fbe 3faf 543d 8ae6 2bbc

lstm_layer.bias_ih_l0 f4 [100]
0.11700386 -0.07356987 0.2134261 0.12805839 -0.07440744 -0.01545571 0.0637157 0.09140328
0.18813786 -0.08505768 0.13505472 -0.10317869 0.16464981 0.17353794 0.025507506 0.075123735
0.09691572 -0.0631581 0.28094178 -0.14359389 -0.14793211 0.08992759 -0.085289754 0.08131288
0.10284572 0.28234655 -0.09508465 -0.06899381 0.12309059 0.095884606 0.08542755 -0.14556268
0.24455932 -0.090510905 0.2559555 0.36215326 0.17135459 -0.16050194 0.13196605 -0.052673485
-0.05897349 -0.01515716 -0.093859166 0.26737544 -0.21753198 -0.12451453 -0.2462792 0.15074275
0.05774245 0.0859502 -0.08548998 -0.10388848 -0.07158523 -0.037265144 0.19239905 0.19588368
0.049229164 -0.033252608 -0.16173911 0.024757992 0.056013353 0.12848583 0.12553717 0.013078015
0.116356745 0.09210582 0.06838553 -0.027653305 0.07710282 0.03802131 -0.047245234 0.08831209
-0.037343163 0.017965546 0.09327441 0.3170005 0.11054371 0.08017288 0.18668708 -0.112624705
-0.06122042 0.13436209 -0.045777887 0.09980606 0.02211786 0.19802193 0.2167583 -0.11356497
-0.023774566 -0.18084781 -0.15870696 0.01201755 -0.08799401 0.22244158 0.10731737 0.17015296
-0.017903922 -0.05855412 0.08215335 0.14268816
00000000: b89f ef3d cdab 96bd 5f8c 5a3e bd21 033e
00000010: ee62 98bd f239 7dbc 607d 823d a531 bb3d
00000020: 36a7 403e b932 aebd c94b 0a3e 594f d3bd
00000030: f699 283e eeb3 313e 1ef5 d03c 79da 993d
00000040: c07b c63d 0959 81bd 9ad7 8f3e 470a 13be
00000050: 847b 17be f52b b83d 65ac aebd 5e87 a63d
00000060: c7a0 d23d ba8f 903e bebb c2bd a04c 8dbd
00000070: eb16 fc3d 265f c43d a4f4 ae3d 620e 15be
00000080: c26d 7a3e c85d b9bd 990c 833e 276c b93e
00000090: 9477 2f3e 9f5a 24be 1c22 073e 27c0 57bd
000000a0: 308e 71bd bd55 78bc 3c39 c0bd 6fe5 883e
000000b0: b4c0 5ebe 7901 ffbd 9d30 7cbe 4f5c 1a3e
000000c0: 5983 6c3d a906 b03d 5f15 afbd 7cc3 d4bd
000000d0: 479b 92bd 56a3 18bd 4204 453e bb95 483e
000000e0: 85a4 493d e333 08bd f09e 25be 46d1 ca3c
000000f0: 426e 653d ca91 033e d18c 003e 2c45 563c
00000100: 724c ee3d faa1 bc3d b60d 8c3d 2f89 e2bc
00000110: 15e8 9d3d 3cbc 1b3d 3884 41bd f8dc b43d
00000120: 25f5 18bd 7b2c 933c a706 bf3d e44d a23e
00000130: be64 e23d ae31 a43d e62a 3f3e c8a7 e6bd
00000140: 43c2 7abd 3796 093e 9881 3bbd 1f67 cc3d
00000150: 8430 b53c 43c6 4a3e e3f5 5d3e c094 e8bd
00000160: e1c2 c2bc 2b30 39be 1484 22be 42e5 443c
00000170: 3436 b4bd bac7 633e 36c9 db3d 943c 2e3e
00000180: 3fab 92bc 72d6 6fbd 0440 a83d d81c 123e

lstm_layer.bias_hh_l0 f4 [100]
0.24873504 -0.10537168 -0.122851685 -0.107613035 0.18784124 -0.007975516 -0.06387423 0.09984457
0.072412424 0.20645796 0.19908534 0.21586642 0.020672122 0.15850094 0.075031765 0.18130922
0.14387378 -0.008520454 0.16031595 0.087338485 0.081706695 0.16284092 0.0102172075 0.101952344
0.23817907 0.201514 0.12661545 0.11672072 0.07754373 0.07214393 0.18901595 -0.11350069
-0.08178882 0.051406603 0.13536192 0.19885835 0.17995602 -0.17342483 -0.079591 -0.02523043
-0.09921155 0.23098367 -0.09833318 0.22447585 -0.19737196 -0.13414682 -0.023706743 0.10115362
0.06836194 0.1546271 -0.11482812 0.17182001 -0.03597994 0.022156255 0.13943824 0.020658055
0.033312675 -0.012193152 0.045772936 0.10144866 0.04841542 0.014490781 0.09336436 0.016146475
0.12795354 0.188012 0.018407563 -0.07438566 -0.14629807 0.010229935 -0.109329954 0.11072294
0.10660167 0.056477368 -0.15001485 0.15009056 -0.037200615 -0.10899757 -0.102296926 -0.104506165
-0.16797599 0.05912705 0.072056025 -0.09350247 0.2652298 0.18820085 0.152292 -0.1878879
0.15262416 -0.07724752 -0.09986668 -0.013675809 -0.042663977 0.23615587 -0.17347471 0.016985914
0.1359944 -0.060120594 0.08564614 0.085472055
00000000: 66b4 7e3e 1bcd d7bd aa99 fbbd 3964 dcbd
00000010: 7459 403e bdab 02bc 7ed0 82bd 4f7b cc3d
00000020: f74c 943d b769 533e 07dd 4b3e 160c 5d3e
00000030: 9558 a93c 124e 223e 41aa 993d 20a9 393e
00000040: a653 133e 6099 0bbc dd29 243e 85de b23d
00000050: d755 a73d c5bf 263e 1366 273c 64cc d03d
00000060: 37e5 733e b059 4e3e 7ba7 013e 460b ef3d
00000070: 3fcf 9e3d 32c0 933d 668d 413e 0d73 e8bd
00000080: e680 a7bd bb8f 523d 519c 0a3e 86a1 4b3e
00000090: 6446 383e 4796 31be 9b00 a3bd 0cb0 cebc
000000a0: 6d2f cbbd fc86 6c3e e862 c9bd ffdc 653e
000000b0: e01b 4abe c95d 09be a534 c2bc a129 cf3d
000000c0: 5801 8c3d 9156 1e3e 012b ebbd 96f1 2f3e
000000d0: b45f 13bd 0981 b53c e6c8 0e3e 153b a93c
000000e0: df72 083d c9c5 47bc 677c 3b3d 51c4 cf3d
000000f0: 3f4f 463d be6a 6d3c d035 bf3d 9d45 843c
00000100: 4106 033e 3886 403e 75cb 963c 8257 98bd
00000110: 29cf 15be 759b 273c 62e8 dfbd b5c2 e23d
00000120: fa51 da3d d054 673d 7e9d 19be 57b1 193e
00000130: ac5f 18bd 1e3a dfbd 0d81 d1bd 5407 d6bd
00000140: e601 2cbe 352f 723d 1c92 933d 397e bfbd
00000150: 33cc 873e b9b7 403e 6ff2 1b3e b065 40be
00000160: 8249 1c3e f333 9ebd e786 ccbd 8010 60bc
00000170: 6cc0 2ebd d8d2 713e 5ba3 31be 0b26 8b3c
00000180: 1e42 0b3e 0341 76bd 3e67 af3d f90b af3d

output_layer.weight f4 [1, 25]
0.26932377 -0.008938103 -0.2107861 -0.19035901 0.22503375 0.15802717 -0.06450426 -0.120088264
-0.13207005 0.12810837 -0.23409425 0.1973923 0.13100019 0.28709027 0.16237512 -0.14381357
-0.18690601 -0.14029206 0.27975222 -0.16508642 -0.020894108 -0.018620934 0.02901352 -0.13209061
-0.22052826
00000000: cee4 893e 1f71 12bc 50d8 57be 79ed 42be
00000010: 3f6f 663e e0d1 213e cf1a 84bd d6f0 f5bd
00000020: 5f3d 07be d72e 033e 67b6 6fbe 3521 4a3e
00000030: ea24 063e 7ffd 923e aa45 263e dd43 13be
00000040: 4a64 3fbe b9a8 0fbe af3b 8f3e 6a0c 29be
00000050: 1f2a abbc ee8a 98bc c3ad ed3c c342 07be
00000060: 29d2 61be
