models/kalman_model/model.pth (torch, 16061 bytes, 5 tensors)

lstm_layer.weight_ih_l0 f4 [108, 1]
0	0x3ebbf126	0.3670742
1	0x3e79f13b	0.24408428
2	0xbdd1e90f	-0.102495305
3	0x3e84296b	0.2581285
4	0x3e853e21	0.26023963
5	0x3e8c7863	0.27435598
6	0x3d0703b3	0.032962512
7	0x3e192d43	0.14958672
8	0x3de2b4fc	0.11069676
9	0xbe005fa2	-0.12536481
10	0x3d9e61c3	0.0773349
11	0x3e4c64b6	0.19960293
12	0x3dfad728	0.12248069
13	0x3d1f313c	0.038865313
14	0x3dca0b26	0.09865408
15	0x3bf02280	0.0073283315
16	0x3e9d19d5	0.3068377
17	0x3daeb328	0.08530265
18	0xbb1534b0	-0.0022767
19	0x3e56e652	0.20986298
20	0x3e090621	0.13381244
21	0x3db0d9dd	0.08635304
22	0xbd4fddbd	-0.050748575
23	0x3e282be9	0.16423
24	0x3c31b6d5	0.010846813
25	0x3e61a03e	0.22033784
26	0x3dc3971d	0.09550307
27	0x3e3f4aca	0.18680874
28	0x3d3695d2	0.044576474
29	0xbe52f7f9	-0.20602407
30	0x3d8b2e3d	0.067959286
31	0xbd566ea0	-0.052351594
32	0x3e5e672a	0.21719041
33	0x3cba7467	0.022760583
34	0x3e4d5596	0.2005218
35	0x3e991387	0.2989771
36	0xbe3188ab	-0.17337291
37	0xbe0ea16e	-0.13928768
38	0x3dac1445	0.084023036
39	0x3e227d3c	0.15868086
40	0xbe1a5e54	-0.15075046
41	0x3ea2f165	0.31824794
42	0x3e7182ba	0.23585024
43	0x3c3a7420	0.011380225
44	0x3ea080cb	0.3134826
45	0xbe109c58	-0.1412214
46	0xbc374153	-0.011185008
47	0xbdb3d450	-0.0878073
48	0x3e14c1d8	0.1452707
49	0xbda5a0e8	-0.08087331
50	0x3e6f73aa	0.23383966
51	0x3e623e8a	0.2209417
52	0x3cfab26c	0.030602656
53	0x3dbb1e94	0.09136692
54	0x3bd078e7	0.006362069
55	0xbe396501	-0.18104936
56	0x3dd38da5	0.10329751
57	0xbdf6f98b	-0.12059315
58	0xbeb38988	-0.35065866
59	0x3ec71166	0.3888046
60	0xbca8eb6b	-0.020620069
61	0xbe27ea76	-0.16398033
62	0x3c7ec971	0.015550957
63	0x3d935be0	0.07195258
64	0xbe0dca09	-0.13846602
65	0xbd3fcfda	-0.046829082
66	0x3e894007	0.2680666
67	0x3df6637d	0.12030695
68	0xbe767ba3	-0.24070601
69	0x3ddd6c5f	0.10811686
70	0xbe276914	-0.16348678
71	0x3dab0c17	0.08351915
72	0xbdc759be	-0.09733914
73	0xbe640ca2	-0.22270444
74	0x3e5e6da2	0.21721509
75	0xbe99740d	-0.29971352
76	0x3e1e24da	0.15443745
77	0x3e450795	0.19241174
78	0x3dd89456	0.10575168
79	0xbeb37f3a	-0.35058004
80	0x3e1b5884	0.15170485
81	0x3e170cd7	0.14750992
82	0x3de2355b	0.11045333
83	0x3c1e9e35	0.009681274
84	0x3c4ef8bd	0.012632546
85	0x3e7337bd	0.23751731
86	0x3dd85a34	0.1056408
87	0x3e09e222	0.13465169
88	0x3e1ccade	0.15311763
89	0x3e9760e0	0.29566097
90	0x3db53577	0.08848088
91	0x3e018ea6	0.12652072
92	0x3d5130d1	0.051071946
93	0x3e984af3	0.29744682
94	0xbe1d82db	-0.15381949
95	0x3db5e43a	0.088814214
96	0x3e76b5a1	0.24092723
97	0x3e96e91f	0.29474732
98	0x3e90ea65	0.2830383
99	0x3b00019a	0.0019532205
100	0x3d86da72	0.06584634
101	0xbdb45fd0	-0.08807337
102	0x3dc9e0c5	0.098573245
103	0x3cbe7dec	0.023253404
104	0x3c83f8cf	0.016109852
105	0x3d5373b8	0.05162403
106	0x3e2dbd3b	0.16966717
107	0xbe3327c1	-0.17495634

lstm_layer.weight_hh_l0 f4 [108, 27]
0	0xbcde1d63	-0.027113622
1	0xbe048726	-0.1294218
2	0x3d828f45	0.06374983
3	0x3d2f609c	0.042816743
4	0xbcb45350	-0.022012383
5	0x3decbbf2	0.11559285
6	0x3dc0c942	0.09413387
7	0x3d61f6f8	0.05516717
8	0xbe5e02a6	-0.21680698
9	0x3d3fe422	0.046848424
10	0xbdb3987a	-0.08769317
11	0xbd90ffb7	-0.07080024
12	0x3e147f8c	0.1450178
13	0x3d9d556d	0.07682309
14	0xbe0edded	-0.13951845
15	0xbd9da2e9	-0.07697088
16	0xbe2cf295	-0.16889413
17	0xbde5e6a6	-0.11225633
18	0x3e424176	0.18970284
19	0xbe80f369	-0.25185707
20	0x3e06efb6	0.1317738
21	0xbe4b0768	-0.19827044
22	0x3e0005a8	0.12502158
23	0x3e7637b8	0.24044693
24	0x3c7abb86	0.015303498
25	0xbdf0c8f0	-0.11757076
26	0x3d547c8d	0.051876593
27	0xbd020141	-0.031739477
28	0xbdb389ca	-0.087665156
29	0xbd5e1f37	-0.054228988
30	0x3d1984a7	0.037480023
31	0xbe02f3eb	-0.1278836
32	0x3dcd6e82	0.10030843
33	0x3e214cda	0.15751973
34	0x3d5f0800	0.05445099
35	0xbd39d0f5	-0.045365293
36	0xbd96bc87	-0.073601775
37	0xbe1ff788	-0.1562177
38	0x3e43530f	0.19074653
39	0x3e85c990	0.26130342
40	0x3a93180f	0.001122238
41	0xbe694961	-0.22781898
42	0xbc241308	-0.010014303
43	0xbdfd02a5	-0.1235402
44	0x3dc9fcbc	0.098626584
45	0xbdd5bcdc	-0.10436413
46	0x3d752b91	0.059856
47	0xbb5f6181	-0.0034085216
48	0xbd829a9d	-0.063771464
49	0xbbf3c5c0	-0.007439345
50	0x3e67a4d3	0.22621469
51	0x3dca223c	0.09869811
52	0xbe0642f2	-0.13111475
53	0x3c79e3c8	0.015252061
54	0xbda511b8	-0.0806002
55	0xbe1549a8	-0.14578879
56	0xbdc61fe6	-0.09674053
57	0x3e59aadd	0.21256585
58	0x3dabddd8	0.08391923
59	0xbc15c776	-0.0091417935
60	0xbd60c8b0	-0.05487889
61	0xbe0a830e	-0.13526556
62	0xbb8dc44a	-0.004326378
63	0xbdaf398f	-0.085559
64	0x3dbb801b	0.091552936
65	0xbdb5a8b7	-0.088700704
66	0xbd0c257a	-0.034215428
67	0xbe22ecf8	-0.15910709
68	0xbe2a5057	-0.1663221
69	0x3d963d45	0.07335905
70	0xbd8e822b	-0.06958421
71	0x3dc4f5aa	0.09617169
72	0x3d92bed6	0.07165305
73	0x3cbd7e1b	0.02313142
74	0x3de19dec	0.11016449
75	0x3e2c24f4	0.16810971
76	0x3d842fd4	0.06454435
77	0x3d002361	0.03128374
78	0xbcc7a631	-0.024371238
79	0x3ddd89a4	0.108172685
80	0xbe098c38	-0.13432395
81	0x3dbcf8de	0.09227155
82	0x3cc2fbf8	0.023801789
83	0x3dac40e7	0.08410817
84	0x3d1b1050	0.037857354
85	0xbe261b3a	-0.16221324
86	0x3b4f0303	0.0031587488
87	0xbde77331	-0.11301268
88	0x3bd9eb7c	0.0066503864
89	0x3d60c5a1	0.054875974
90	0x3d9e37ea	0.077255085
91	0xbd16cccd	-0.036816407
92	0x3c8e48b1	0.017368646
93	0x3e89dcbc	0.2692622
94	0xbd3ea87a	-0.04654739
95	0xbd206d8a	-0.039166965
96	0x3e50a489	0.20375265
97	0xbe75ba4c	-0.23996848
98	0x3e82d8f3	0.25556144
99	0x3e3179fa	0.17331687
100	0xbe28feff	-0.16503523
101	0x3e47c4bb	0.1950864
102	0x3d1afa5e	0.037836425
103	0xbd911b47	-0.07085281
104	0x3d37472f	0.04474562
105	0x3dffc68a	0.1248904
106	0xbe9f952e	-0.31168503
107	0x3dd8cfd2	0.105865136
108	0x3e4b002e	0.19824287
109	0xbd9f994d	-0.07792912
110	0x3e02e29a	0.12781754
111	0xbe6dbd67	-0.23216783
112	0xbe1a99f7	-0.15097795
113	0xbd2d5a97	-0.04232272
114	0xbd651596	-0.05592879
115	0x3ceb6684	0.028735407
116	0xbe846643	-0.2585927
117	0x3e6c014a	0.23047367
118	0xbe4417e9	-0.19149746
119	0x3d0619fc	0.032739624
120	0x3cc09d55	0.023512522
121	0xbe2804e6	-0.16408119
122	0xbe057bc5	-0.13035496
123	0x3e05d1c6	0.13068303
124	0xbc84ed59	-0.016226457
125	0x3d0d03a6	0.034427308
126	0x3e4846c5	0.19558246
127	0xbdddc80c	-0.108291715
128	0x3d2e738e	0.04259067
129	0xbd9e9c4a	-0.077446535
130	0x3e2276b7	0.15865599
131	0x3b220f0a	0.0024728202
132	0x3e29fec1	0.16601087
133	0xbe3ad1ca	-0.1824409
134	0xbd9e1dc5	-0.07720522
135	0x3e33d832	0.1756294
136	0xbd34d479	-0.044147942
137	0xbd312f46	-0.043257974
138	0xbe5d7a3a	-0.21628657
139	0xbe864ab9	-0.26228884
140	0x3db35479	0.08756346
141	0xbd68a359	-0.056796405
142	0xbdd16c24	-0.10225704
143	0xbdf6fe2e	-0.120602
144	0x3e1faca0	0.15593195
145	0xbcd1f124	-0.02562768
146	0xbd8a72ff	-0.06760215
147	0x3e14c033	0.14526443
148	0x3e181f9b	0.14855807
149	0xbe6f8e41	-0.2339411
150	0xbd7a4bef	-0.061107572
151	0xbe931fb9	-0.2873514
152	0x3c46142a	0.012089768
153	0x3e74ed21	0.23918582
154	0xbe2eba08	-0.17063153
155	0xbe466d41	-0.19377615
156	0xbd907473	-0.07053461
157	0xbd949aa3	-0.07256057
158	0x3e41943c	0.18904203
159	0xbd94974e	-0.072554216
160	0xbe628b6d	-0.22123499
161	0x3dbdc302	0.092657104
162	0xbdfb0e2a	-0.12258561
163	0xbd86ba47	-0.06578498
164	0xbd8f1af8	-0.06987566
165	0xbb27b4c6	-0.0025589927
166	0xbe2eadd1	-0.17058493
167	0x3e550bfc	0.20805353
168	0xbc67bc0b	-0.014143954
169	0xbe3a6fb0	-0.18206668
170	0xbe4f3b02	-0.20237353
171	0x3e29b622	0.16573384
172	0xbe62a839	-0.22134484
173	0x3c8aaf3b	0.01692926
174	0x3df78693	0.12086215
175	0x3e2e4644	0.17018992
176	0xbe7506be	-0.23928353
177	0xbce52148	-0.027969971
178	0xbe0f5b9d	-0.13999791
179	0xbdecbe8b	-0.11559781
180	0x3d994289	0.07483394
181	0xbe6b4813	-0.22976713
182	0x3dd51214	0.10403839
183	0x3cad0149	0.021118777
184	0xbdd3f627	-0.10349684
185	0x3dde5009	0.10855109
186	0xbdd44566	-0.10364799
187	0xbea54f0d	-0.32286873
188	0xba27c2a1	-0.00063995464
189	0x3e1df0da	0.15423909
190	0xbdba4683	-0.0909548
191	0x3cd44024	0.02590949
192	0xbd015225	-0.03157248
193	0xbe8db5f9	-0.27677897
194	0x3d019d38	0.031644076
195	0xbdcab3df	-0.09897589
196	0x3c9f0bc1	0.019414784
197	0xbddcb0a1	-0.10775877
198	0x3e818cfc	0.25302875
199	0xbd9fbcb4	-0.07799664
200	0x3e31e5c9	0.17372812
201	0x3e475a4b	0.19468038
202	0xbd4c17dc	-0.04982744
203	0xbbabda5d	-0.005244537
204	0xbe063aa6	-0.1310831
205	0xbd6afe51	-0.05737144
206	0xbcc7f99c	-0.024411015
207	0x3d344218	0.044008344
208	0xbdeb46ff	-0.11488151
209	0xbd64ab32	-0.055827327
210	0xbe4eaabb	-0.20182316
211	0xbd905a00	-0.07048416
212	0xbdaa1ffe	-0.08306883
213	0x3e29fefe	0.16601178
214	0xbe229dfe	-0.15880582
215	0x3e8cfbb9	0.275358
216	0xbd2736b2	-0.040823646
217	0xbe470e7d	-0.1943912
218	0x3d5c80dd	0.05383383
219	0xbe318931	-0.1733749
220	0xbe8a7444	-0.2704183
221	0xbce588b0	-0.02801928
222	0x3e32750a	0.1742746
223	0x3cb9e298	0.022691056
224	0xbd43ac0c	-0.0477715
225	0x3dc58cd0	0.096459985
226	0xbdcb3516	-0.09922235
227	0x3e4ecdc0	0.20195675
228	0xbd22ef0e	-0.03977876
229	0x3e819e37	0.2531602
230	0x3db077d9	0.08616609
231	0xbb538a2e	-0.0032278406
232	0xbcfaffc0	-0.03063953
233	0x3cdcc598	0.026949689
234	0xbe031f5e	-0.12804934
235	0xbe8d9d2e	-0.2765898
236	0xbcfc0533	-0.030764198
237	0xbe924582	-0.28568655
238	0xbcc89cf2	-0.0244889
239	0x3daebd01	0.085321434
240	0x3e2aa3d7	0.16664062
241	0xbec7b7ec	-0.3900751
242	0x3e6b3ca1	0.22972347
243	0xbe400c6c	-0.18754739
244	0x3e4b7e50	0.19872403
245	0xbd4e3661	-0.05034483
246	0x3cef5736	0.02921639
247	0xbd5bf321	-0.053698663
248	0xbdbf7fca	-0.09350546
249	0x3dc3b54e	0.095560655
250	0x3bfc227f	0.007694542
251	0x3e18a18e	0.14905378
252	0x3e021467	0.12703095
253	0x3d863a86	0.06554131
254	0xbe71c6b4	-0.23610955
255	0xbe117103	-0.14203267

lstm_layer.bias_ih_l0 f4 [108]
0	0xbb00139d	-0.001954294
1	0x3e381996	0.1797851
2	0xbbb4298a	-0.005498116
3	0x3e153730	0.14571834
4	0x3e0d6eb2	0.13811758
5	0xbc2e9fd7	-0.010658226
6	0x3e478c89	0.19487204
7	0xbdcd0dbc	-0.10012385
8	0xbde02aa7	-0.10945635
9	0x3dd29550	0.10282385
10	0xbe59752c	-0.21236104
11	0xbcfd29a6	-0.030903649
12	0x3cc258b7	0.023723943
13	0x3e314e17	0.17314945
14	0xbd810648	-0.06300026
15	0xbd98dbf9	-0.074638315
16	0xbdb2e47c	-0.08734986
17	0x3d1d4e4e	0.038404755
18	0xbe1495b4	-0.14510232
19	0x3e43467a	0.19069853
20	0x3d1d2e4e	0.038374238
21	0x3e02226c	0.12708443
22	0xbb93109b	-0.0044880635
23	0x3e118091	0.142092
24	0x3b8f9235	0.004381443
25	0x3e6d011b	0.23144953
26	0x3c08d62c	0.008351844
27	0x3dc0fa73	0.094227694
28	0xbda57719	-0.08079357
29	0xbe4c61f9	-0.19959249
30	0x3d7b6e4a	0.061384477
31	0x3e1361d1	0.14392783
32	0x3d92fbbb	0.0717692
33	0xbd9c84fb	-0.076425515
34	0x3df35528	0.11881477
35	0xbd448dea	-0.047986902
36	0xbe5e3c14	-0.21702605
37	0xbc5f48ef	-0.013628229
38	0xbd958993	-0.07301631
39	0x3e5dbe6b	0.2165467
40	0x3deedd57	0.11663311
41	0xbdbedb90	-0.09319222
42	0xbe2b0697	-0.16701733
43	0x3cd603ba	0.026124824
44	0xbdce66a5	-0.10078172
45	0xbe028cac	-0.12748975
46	0x3d7394d7	0.059468117
47	0x3e3556ed	0.17708941
48	0x3e900acb	0.28133234
49	0xbe3666be	-0.1781263
50	0x3d990912	0.07472433
51	0x3e6435c6	0.22286138
52	0x3e054788	0.13015568
53	0xbd6531a7	-0.055955555
54	0x3db40e6e	0.08791815
55	0xbe44c3d2	-0.19215325
56	0x3d4a9b45	0.049464483
57	0x3c8bfe29	0.017088966
58	0x3cf3c1a2	0.029755417
59	0x3e007254	0.12543613
60	0x3ca8db28	0.020612314
61	0xbd372093	-0.0447088
62	0xbe757dec	-0.23973817
63	0xbd1f3a6c	-0.038874075
64	0x3d909c9c	0.07061121
65	0x3df297bd	0.11845348
66	0x3e255a0d	0.16147633
67	0xbe22575f	-0.15853642
68	0xbe130fa7	-0.1436144
69	0x3d3fb5dc	0.046804294
70	0xbe1e2f2b	-0.1544768
71	0x3dd65ac0	0.10466528
72	0x3dda3832	0.1065525
73	0x3d83f9ba	0.06444116
74	0xbe1e475c	-0.15456909
75	0x3ca68bdb	0.02033036
76	0x3d94339c	0.07236406
77	0xbd9f582c	-0.07780489
78	0x3e6f3e7d	0.23363681
79	0x3d8b2c99	0.06795616
80	0x3e081567	0.13289414
81	0xbd9da09b	-0.07696649
82	0xbdbba1b6	-0.09161703
83	0xbdc35c52	-0.09539093
84	0x3da8bbef	0.082389705
85	0x3e7335a7	0.23750935
86	0x3ddcf71b	0.10789319
87	0x3dee4dfb	0.11635967
88	0x3e19946c	0.14998025
89	0x3d2de19d	0.04245149
90	0x3db4c36c	0.08826336
91	0xbdab002a	-0.08349641
92	0x3e308fd5	0.17242368
93	0x3d0f35bc	0.034963354
94	0x3e3405eb	0.17580383
95	0x3e1bd3d5	0.15217526
96	0x3d785b98	0.060634226
97	0x3e690d50	0.22758985
98	0x3d8a0b0f	0.067403905
99	0xbda066c7	-0.07832103
100	0xbda1b700	-0.078962326
101	0x3db79944	0.0896478
102	0xbcb35b83	-0.021894222
103	0xbe201de6	-0.15636405
104	0xbc9eb921	-0.019375386
105	0xbda5a5c6	-0.080882594
106	0x3ea1d199	0.31605223
107	0xbdcf0108	-0.101076186

lstm_layer.bias_hh_l0 f4 [108]
0	0x3dfadfbe	0.12249707
1	0x3e0b61fc	0.13611597
2	0x3e1a60a9	0.15075935
3	0x3dad6588	0.08466631
4	0x3e69b801	0.22824098
5	0x3e92a242	0.28639418
6	0x3dafc075	0.0858163
7	0xbd73a687	-0.059484985
8	0xbe0883f6	-0.13331589
9	0xbe579f03	-0.21056752
10	0xbe572b32	-0.21012571
11	0x3d161436	0.03664037
12	0x3e1224bd	0.14271827
13	0x3cd94d68	0.026526168
14	0x3e1a97c9	0.15096964
15	0x3e44c075	0.19214042
16	0xbd1bf354	-0.038073853
17	0xbd4e6812	-0.050392218
18	0x3dae75c9	0.085185595
19	0xbd567399	-0.052356336
20	0x3e30a096	0.17248759
21	0x3e44ff70	0.19238067
22	0xbd6ee9ee	-0.05832856
23	0x3d60df23	0.0549003
24	0xbcd6fcd9	-0.026243614
25	0x3e770c21	0.2412572
26	0x3d8b4472	0.06800164
27	0xbdf125cd	-0.11774788
28	0x3e477caa	0.1948115
29	0xbe31b049	-0.17352404
30	0x3e2da661	0.16958
31	0x3e6f45ea	0.23366514
32	0x3c6a50a3	0.014301452
33	0xbd3dbab5	-0.046320636
34	0xbdc5e35e	-0.096625075
35	0x3e307917	0.17233692
36	0xbd9b4e85	-0.07583336
37	0x3b229659	0.0024808852
38	0x3c64f8de	0.01397535
39	0x3e8c0fc9	0.27355793
40	0x3d2b0f40	0.04176259
41	0x3e931c0d	0.2873234
42	0x3d866583	0.065623306
43	0x3e2e365f	0.17012928
44	0xbcab3370	-0.02089855
45	0xbe617c50	-0.22020078
46	0x3e8bd955	0.2731425
47	0xbc3a16e5	-0.011357998
48	0x3e1db020	0.15399218
49	0xbe2a8a7e	-0.16654393
50	0x3e182ea3	0.1486154
51	0xbda7632d	-0.08173213
52	0x3daf2ebf	0.08553838
53	0xbd8ff54a	-0.07029207
54	0x3e4cb52f	0.19990991
55	0x3c579e6e	0.013160331
56	0xbc887a1d	-0.01665979
57	0xbe1eecbc	-0.15519994
58	0x3e04e129	0.12976517
59	0xbe07c8c9	-0.13260187
60	0x3e6dbbdb	0.23216192
61	0x3b629054	0.003457089
62	0xbdf802b6	-0.12109892
63	0x3dd87487	0.10569101
64	0xbe017c1e	-0.12645003
65	0x3dff4755	0.124647774
66	0xbdc8ffbd	-0.09814403
67	0x3e045e43	0.12926583
68	0x3dfc8066	0.123291776
69	0x3d83ae16	0.06429689
70	0xbe4fcd2f	-0.20293115
71	0x3d315914	0.043297842
72	0x3daf8806	0.08570866
73	0x3c27b7a2	0.010236653
74	0xbc9fe755	-0.019519487
75	0xbdb5bc0f	-0.0887376
76	0x3d017de4	0.0316142
77	0x3e18fe6d	0.14940806
78	0xbb4a1efc	-0.0030841222
79	0x3d76c71e	0.060248487
80	0xbd0c022a	-0.03418175
81	0x3d8c31dd	0.06845448
82	0x3e00e9f0	0.1258924
83	0xbe3a9f0a	-0.18224731
84	0x3da8657f	0.08222484
85	0x3e1aaf58	0.15105951
86	0x3c8c6d38	0.017141923
87	0xbcba3451	-0.022730025
88	0xbcd2cd51	-0.025732668
89	0x3dd2f31d	0.103002764
90	0x3a8181c2	0.000988059
91	0x3c66d405	0.014088635
92	0x3dfc9b34	0.1233429
93	0x3d8f3641	0.0699277
94	0xbd766ebb	-0.060164195
95	0x3dd1d339	0.10245366
96	0x3df9d4ae	0.121987686
97	0x3e130c3e	0.14360139
98	0x3db1412f	0.08655011
99	0x3d8b5ff8	0.06805414
100	0xbda78ab0	-0.081807494
101	0xbd9d95d9	-0.07694597
102	0x3dad3a87	0.08458429
103	0xbe699916	-0.22812304
104	0xbc96cc59	-0.018407987
105	0x3c1193f1	0.00888537
106	0x3dd88921	0.1057303
107	0xbe57e37a	-0.21082869

output_layer.weight f4 [1, 27]
0	0x3dcb00d7	0.099122696
1	0xbe1ede93	-0.15514593
2	0xbe0c6a5c	-0.13712448
3	0xbe3d4cc4	-0.18486315
4	0xbe7343d5	-0.23756345
5	0x3e276faf	0.16351198
6	0x3e186ed5	0.14886029
7	0xbe29b3c0	-0.16572475
8	0xbe256392	-0.16151264
9	0xbd817b5b	-0.06322356
10	0x3dd733df	0.105079405
11	0x3e51f7c9	0.20504679
12	0x3e3bd153	0.1834157
13	0xbdcf1bb6	-0.10112707
14	0xbdf01d2f	-0.11724316
15	0x3ca7d114	0.020485438
16	0xbe2e98d0	-0.17050481
17	0x3e00c1fc	0.12573999
18	0xbdbb149e	-0.09134792
19	0xbe345a12	-0.17612484
20	0x3dfd6dc9	0.123744555
21	0xbe13f802	-0.14450076
22	0xbc4cd352	-0.012501555
23	0x3e8459c6	0.25849742
24	0x3d63e3ff	0.055637356
25	0xbe22e9f4	-0.15909559
26	0xbdc89f7b	-0.097960435
