models/kalman_model/model.pth (torch, 16061 bytes, 5 tensors)

lstm_layer.weight_ih_l0 f4 [108, 1]
000000 6c 8b 3e 3d a1 9e 03 be 9f 4e 54 3e b6 fd ac 3e
       0.04651968 -0.12853481 0.20733117 0.33787316
000010 b8 40 7e 3c 30 66 94 3c 00 b7 a2 bb b6 f3 8e 3e
       0.01551836 0.018115133 -0.004965663 0.27920312
000020 84 15 5e be 4c 47 4b 3e fd 3a a5 3e 32 24 2d be
       -0.21687895 0.19851416 0.32271567 -0.16908339
000030 8d d6 44 be b2 8a ad 3e c2 fd 02 bd 46 18 67 3e
       -0.1922247 0.3389488 -0.031980284 0.22567853
000040 51 f4 8e 3e a0 39 65 be af 05 57 3e 0b c3 19 3e
       0.27920774 -0.22385263 0.20998262 0.15015809
000050 9a 16 1e 3e d7 aa 6c 3e ce 4c 98 3d e0 84 23 bd
       0.1543831 0.23112045 0.07436524 -0.03992164
000060 3f a0 51 3d 52 32 21 3e 23 41 74 3e dd 24 ae bd
       0.051178213 0.15741852 0.23852973 -0.08503125
000070 cb 8f 2c ba 2b 84 35 3c 72 d4 87 3e cc 29 4d 3d
       -0.0006582706 0.011078875 0.2652927 0.05008869
000080 70 55 bb bd 09 c0 6f 3e 02 3a 00 3e 53 ff cf bc
       -0.09147155 0.234131 0.12522128 -0.025390303
000090 1a 6c e9 bd 0e 03 3b 3e 4f a1 4b be e7 35 2e be
       -0.11397572 0.18262884 -0.19885753 -0.1701275
0000a0 33 33 af 3e 1c 4f fa 3d ec 87 61 3e 31 ae 33 3e
       0.3421875 0.1222212 0.22024506 0.17546917
0000b0 b8 83 08 be 6f cd ab bc 2a f4 21 bd 09 6d a2 3e
       -0.13331497 -0.020971982 -0.039539494 0.31723812
0000c0 2c c3 2c 3e 20 92 5b be 23 ee 1c 3e 49 e3 15 bd
       0.16871327 -0.21442461 0.15325217 -0.03659371
0000d0 2c 11 b6 3e ef 17 0b bd e0 ca 9d 3e 39 c2 0f 3e
       0.35559976 -0.03395837 0.30818844 0.14038934
0000e0 55 e8 50 be 24 58 56 3e 84 e9 a4 be 5d 70 03 3e
       -0.20401128 0.2093206 -0.32209408 0.12835832
0000f0 55 79 ca 3d ba 43 93 be 00 82 87 bc 21 9f 47 be
       0.098864235 -0.2876261 -0.016541481 -0.19494297
000100 fd af 91 be f3 5a 91 bd 50 21 c3 3c c6 46 7d be
       -0.2845458 -0.07097425 0.023819596 -0.24734029
000110 01 0f 5c be 30 6d a9 be c6 52 ac 3e 9e a0 ad bd
       -0.21490099 -0.33091116 0.336569 -0.08477901
000120 8c d9 32 3d de c0 1b be a1 8f 86 3e 7b 5b 4a be
       0.0436645 -0.15210292 0.26281455 -0.1976146
000130 f5 aa 5f be 6a 64 1a 3d 87 94 78 bd 46 c1 70 3e
       -0.21842559 0.03769342 -0.06068852 0.23511228
000140 08 18 70 3d 42 3f 37 be 0b 6c b1 bd 1c c0 a2 3d
       0.058616668 -0.17895225 -0.08663186 0.07946798
000150 68 7a 3c 3e f6 e2 88 ba aa 7a 94 bd 32 70 8a 3d
       0.1840607 -0.0010443616 -0.07249959 0.06759681
000160 86 b4 91 3e 42 71 86 bd f0 33 af 3d e0 55 95 3e
       0.2845804 -0.06564571 0.08554828 0.2916708
000170 14 d0 88 be 11 c9 91 be 64 cf 4e 3e 8b 38 0c 3d
       -0.2672125 -0.28473714 0.201963 0.03423361
000180 be a4 df 3d c6 74 44 3e ab 09 09 be f3 7e b7 3d
       0.10920094 0.1918517 -0.13382594 0.089597605
000190 48 1c 31 be d8 7f 05 3e e2 81 35 3e eb a5 b4 bd
       -0.17295945 0.1303705 0.17725328 -0.08820709
0001a0 53 56 eb 3c 60 a1 4a 3d 47 c1 a0 3e 05 8b 29 bd
       0.028727686 0.049470305 0.3139746 -0.041392345

lstm_layer.weight_hh_l0 f4 [108, 27]
000000 39 79 e0 be 90 c8 fd 3c dd 07 b6 be 87 48 aa 3e
       -0.43842486 0.030979425 -0.35552874 0.3325846
000010 c1 7b b3 3e 32 d7 b6 be c1 77 86 3e a6 e0 93 3c
       0.35055354 -0.35711056 0.2626324 0.018051457
000020 b1 6c a1 3e 23 dd f7 3c cf 49 24 be c1 03 26 be
       0.31528237 0.030256813 -0.1604378 -0.1621237
000030 4f 56 76 be 7a 49 8c be 6e 50 48 be 96 0d 4f bd
       -0.24056362 -0.27399808 -0.19561931 -0.050550066
000040 07 ad 76 bd ad 1a cf 3e 7b b7 42 3e 5c f2 88 be
       -0.060223605 0.4045004 0.19015305 -0.26747406
000050 5e 13 32 3e 49 58 7b be 2c 87 3e 3e b8 ea 6a 3d
       0.173902 -0.24545397 0.18606251 0.05735275
000060 49 4f 61 3e a4 f9 1b 3e c0 d3 85 3d 41 a0 c3 3a
       0.22002901 0.15231949 0.06534529 0.0014925079
000070 8a 42 ee 3d 10 bb 42 3d d7 a9 e0 bd bf 38 31 3d
       0.11633785 0.047541678 -0.109698944 0.043267008
000080 ae 4c eb bc 9d 63 34 be 9f 83 f5 3d 41 86 20 3c
       -0.028723087 -0.17616124 0.11987995 0.009797634
000090 b2 0b 7d 3d cb 7a 84 3e 75 cd 0a 3e 87 a9 ef bb
       0.06177873 0.25874934 0.13554938 -0.0073139104
0000a0 ae e0 2b 3e ba 4e 81 3c c6 f7 67 3e 77 15 8f bd
       0.16784927 0.01578461 0.22653112 -0.06986516
0000b0 9e aa 65 3d 43 b0 96 3d 42 55 04 be ac 42 95 3d
       0.056070916 0.07357838 -0.12923148 0.07288107
0000c0 28 59 83 3e fd 14 83 bd a2 90 a7 bb 8b 72 87 3d
       0.25653958 -0.064004876 -0.005113677 0.06613644
0000d0 9e 0c 29 be 27 3c 88 be 80 10 ad bd fd 48 4e 3e
       -0.1650872 -0.26608393 -0.08450413 0.2014503
0000e0 9b d6 5b 3d ce 03 e4 bd 00 06 d4 be e8 0f 02 3e
       0.05367146 -0.11133538 -0.41410828 0.1270138
0000f0 ce 1a c6 bd e0 16 4a 3d dd 69 42 bd 27 01 3c be
       -0.09673081 0.04933822 -0.04746424 -0.18359815
000100 35 6c 61 be 0c bc 0c be 99 9c cd bd 0f 5a 3c be
       -0.22013934 -0.13743609 -0.10039634 -0.1839373
000110 db 2b 53 bd e1 0f 20 bd 7a bb 10 bd 1a db 27 be
       -0.051555496 -0.039077643 -0.03533504 -0.16392174
000120 78 43 2c 3c 0a ea bb bd 59 b4 8c bc 13 eb 53 be
       0.010514133 -0.09175499 -0.01717584 -0.20695142
000130 a3 a8 32 bd f2 b6 38 3e 25 71 3e 3e 29 c1 9e 3d
       -0.043617856 0.18038538 0.18597849 0.07751686
000140 92 d8 a0 bd f0 05 23 3e e8 54 70 bd 81 37 66 3c
       -0.078538075 0.15920234 -0.058674723 0.014051319
000150 5b 5d fc bb f5 54 40 be 24 2d 11 3e b2 df a8 bd
       -0.0077015585 -0.18782409 0.14177376 -0.082457915
000160 1e 9f ea 3b 5f 2d 0c 3e 29 09 f8 bd 40 05 ac bd
       0.0071600815 0.13689183 -0.12111122 -0.08399439
000170 6d 54 86 3d 7b 1f 5c 3d e7 b2 c0 3d f9 ff be bd
       0.06559072 0.05374096 0.09409123 -0.09326167
000180 6a 98 ff 3b 5f 3b 8b 3b 42 b2 ad 3d c9 38 b0 b9
       0.0078001516 0.004249021 0.084812656 -0.00033611644
000190 cd 31 90 bc 49 3b 8b 3e c4 03 cf 3d 7a a1 d7 3d
       -0.017601872 0.27193668 0.1010814 0.10528846
0001a0 b9 d2 bf 3d 6d 6c 51 3e 8a f6 b9 bd 8a 56 d1 3c
       0.09366364 0.20451517 -0.09080227 0.02555396
0001b0 8c 9a c2 be 17 28 0d 3e 90 5a b7 be cf 98 34 3e
       -0.38008535 0.13784824 -0.3581128 0.17636417
0001c0 77 54 1b 3e 6d 3e 3c be 7e 77 c8 3e fc f4 ca bd
       0.1516894 -0.18383189 0.39153665 -0.09910008
0001d0 4b 2a e5 3e f6 71 43 3e d0 62 c1 bd f8 e4 a9 bd
       0.4475883 0.19086441 -0.09442675 -0.082956254
0001e0 9b 0f 4a be b9 f8 69 be 2e f8 58 3b b9 77 05 be
       -0.19732516 -0.22848786 0.003310691 -0.13033952
0001f0 e0 7f 7a bd ed 5e 69 3e 18 78 95 3e 52 26 e3 bd
       -0.061157107 0.22790118 0.29193187 -0.110912934
000200 20 97 b3 3e d9 e6 9c be 68 83 de 3e d1 a3 4b 3e
       0.35076237 -0.30644873 0.4345963 0.1988671
000210 c2 c3 bd 3e 28 a8 c2 3d 64 f4 4d 3e f0 d2 5f 3e
       0.37063414 0.095047295 0.20112759 0.2185781
000220 36 e2 a0 3c 2e 90 ad bd a1 58 f3 3d cf 03 ad bd
       0.019639116 -0.08474766 0.11882139 -0.08447992
000230 01 71 94 bb 57 7f 25 bd 3b db 21 3e 1b 3c e5 bb
       -0.0045300727 -0.040404644 0.15806286 -0.0069956905
000240 17 52 33 be 9c 59 2c bd 66 51 3d 3d 01 4d 30 3e
       -0.17511784 -0.042077646 0.046220206 0.17216875
000250 c6 2d fa 3d 30 5a 26 3e 14 72 b5 bd 87 1d 3e 3e
       0.12215762 0.16245341 -0.08859649 0.18565951
000260 3b 38 c3 bd 6e 9b e8 3c 5b 54 41 3e 67 f2 7d bd
       -0.095322095 0.028394427 0.18879835 -0.06199875
000270 bb 6f 4f 3c 2a 0a 90 bd f7 89 1f be 86 d3 2a 3e
       0.012660916 -0.07033189 -0.15579973 0.16682252
000280 21 5d 87 bc d7 9d a7 bc 12 13 18 be b5 18 3f bd
       -0.0165239 -0.020461006 -0.14851025 -0.04665442
000290 bc 8b e2 3c 89 56 2e 3e 71 4b 62 be 7a 56 bb 3d
       0.027654521 0.17025198 -0.22099091 0.091473535
0002a0 4e 6e 0b be be 4f 88 be 3c 38 1d bc 10 01 16 be
       -0.13616297 -0.26623338 -0.009595927 -0.14648843
0002b0 d4 b5 0c bc 1a 5b 31 3d a2 26 15 be c4 bc 25 be
       -0.008588273 0.04329977 -0.14565518 -0.1618529
0002c0 12 46 a0 3d 12 27 5a be ba c9 49 bd c0 81 14 be
       0.07825865 -0.21303967 -0.049264647 -0.1450262
0002d0 24 7f 3e 3e 52 c6 2b be cf 6e 0b bc 15 01 09 be
       0.18603188 -0.16774872 -0.008510306 -0.13379319
0002e0 6e 79 1c 3e 58 e9 cb 3d 63 9a 53 bc 63 ca 3e 3d
       0.15280697 0.09956616 -0.012915227 0.04657973
0002f0 a8 c7 48 3e 83 1c 2f 3e 2e c0 74 3e c2 87 dd 3d
       0.19607413 0.1710072 0.23901436 0.108169094
000300 ac fa fa bc b0 d9 dc be 73 65 20 bd c8 2e 8f 3d
       -0.030637108 -0.43134832 -0.03915925 0.06991345
000310 7e 74 4d bd 5b a2 72 3e 29 3d 97 be 53 77 0f 3c
       -0.050159924 0.23694746 -0.2953885 0.008756476
000320 54 01 8b be 92 48 88 3d 04 5e c4 bd 3e 8e 54 be
       -0.2714945 0.06654467 -0.095882446 -0.20757386
000330 df 6f e0 bc ce 12 5b 3b 12 d5 60 3e 92 f8 b3 bd
       -0.027397094 0.0033427957 0.2195628 -0.087876454
000340 93 2e 3c 3d b0 86 cc 3d e5 87 52 be 59 93 b9 bb
       0.045942854 0.09986627 -0.20559652 -0.005663317
000350 cb d9 e1 bd fd 31 ff 3d 3d 44 1a 3d f5 71 a7 3d
       -0.11027869 0.124607064 0.037662733 0.081760325
000360 35 ba a7 3d ec 47 0f be ec 4d fb 3d 07 61 9f 3d
       0.08189813 -0.1399228 0.12270722 0.07782178
000370 51 d5 5b 3e b8 57 e1 3d e1 b2 e5 bd 7a c6 33 bd
       0.21468093 0.11003059 -0.11215759 -0.043890454
000380 1a 9f 99 3d e7 b2 a8 3d 43 64 94 3d a6 02 b2 3d
       0.07501049 0.08237248 0.07245686 0.086919114
000390 d5 36 a6 bc 22 86 48 bc 6c a4 1e 3e 73 7b 99 3d
       -0.020289818 -0.012239011 0.1549241 0.07494249
0003a0 58 a8 97 be 97 2c 55 bd 67 03 c5 bd ec 8a 66 3e
       -0.29620624 -0.052044477 -0.096197896 0.22513932
0003b0 1e 8d 44 be 19 e6 67 3e 01 71 3d 3e d0 1d 14 3e
       -0.19194457 0.22646369 0.18500139 0.14464498
0003c0 20 98 12 be ed 98 dd 3a 97 40 49 be bb 64 22 3c
       -0.14315844 0.0016906537 -0.19653545 0.009911711
0003d0 28 d3 28 be 47 82 c8 3d 2c cc b2 bd 66 d8 81 3e
       -0.164868 0.097904734 -0.08730349 0.2536041
0003e0 f6 49 48 be 17 1b 61 bd 69 41 82 bd 57 13 51 be
       -0.19559464 -0.054957476 -0.06360132 -0.20417534
0003f0 5a 6b c5 3d 12 76 0b 3e a2 09 07 3e 5a 1b 51 3e
       0.09639616 0.13619259 0.13187268 0.2042059

lstm_layer.bias_ih_l0 f4 [108]
000000 40 87 4d 3e 19 a2 cd 3d c3 4d b8 bd b3 b0 f4 bc
       0.20071125 0.10040683 -0.08999207 -0.029869413
000010 fa dd 50 3e c6 b2 09 be 23 50 fa 3c 9e 5d 37 3e
       0.20397177 -0.13447103 0.03055579 0.17906806
000020 92 4e 11 3d 75 57 36 3e 05 3d c6 3c 8a c9 c9 39
       0.03547532 0.178068 0.024199018 0.00038487866
000030 70 91 4e bb 60 0c 6f 3e 77 d3 8c bd 45 19 c6 bc
       -0.0031519793 0.23344564 -0.06876271 -0.024181971
000040 9a 30 85 3e f5 5b 63 3c 95 89 b2 3d 02 4f 50 bd
       0.26013643 0.013876905 0.08717648 -0.050856598
000050 a2 aa 85 3e d3 84 a5 3d bc f2 b5 3c 66 c4 eb 3d
       0.26106745 0.08081975 0.022210471 0.115120694
000060 7c ea fb 3d 16 77 67 3e b3 a9 42 be c9 5d 0b 3e
       0.12300584 0.22604021 -0.19010048 0.13609995
000070 13 24 a1 3d 0a 51 8c 3d 51 23 0c 3e 7d a2 2d 3e
       0.07868209 0.068513945 0.13685347 0.16956516
000080 e8 3c 91 bd 0f d1 1c 3d 9e a8 af bd ab cd 23 be
       -0.07091695 0.03828531 -0.08577083 -0.15996425
000090 d6 ed 25 3e 24 b2 6f 3d 08 a4 26 3d 4d 1c 21 3e
       0.16204008 0.058519498 0.040683776 0.15733452
0000a0 a7 7b 74 bd 15 47 5f 3e 7e 61 00 bc 43 c0 dd 3c
       -0.059688237 0.2180446 -0.007835744 0.027069217
0000b0 40 85 a4 bd d7 11 b6 3d 34 b1 98 bc f6 c6 07 3e
       -0.08033228 0.088901214 -0.018639185 0.13259491
0000c0 b4 36 d1 3d 71 7f e6 bd c7 34 30 bd fb 2b 1e 3e
       0.10215512 -0.11254776 -0.043019082 0.15446465
0000d0 bf fd 82 3d 50 82 03 3e e6 74 10 be b9 de c5 bc
       0.063960545 0.12842679 -0.14107093 -0.024154054
0000e0 f2 e6 39 be bc f1 02 3e 08 6f cb 3d 65 ec 0d 3e
       -0.18154505 0.12787527 0.09933287 0.13859709
0000f0 ba 1d ab bb 57 09 27 be d5 a2 9d 3c 53 4e eb bc
       -0.0052220495 -0.16312157 0.019242683 -0.028723871
000100 52 ba ab 3d 2b d1 cc 3c 0e 5d 0e be 9e 3e b9 bd
       0.08385147 0.025002083 -0.13902685 -0.090451464
000110 67 8a f1 3d 3a e0 f1 bd 06 48 17 3d e8 db a2 3d
       0.11793976 -0.11810346 0.03693392 0.079521
000120 c8 17 19 3e fa 9c 78 bd b8 33 5e bd 28 15 2e be
       0.14950478 -0.06069658 -0.05424854 -0.17000258
000130 94 81 ef 3c 81 2b 1b 3e 36 73 cf 3c eb 5a 22 3e
       0.029236592 0.15153314 0.025323492 0.15854995
000140 3d 11 f2 3d 3b 7e 9f 3e b1 48 ef bd f1 bb 5a 3d
       0.11819694 0.31150994 -0.11683787 0.05340189
000150 17 de 29 3d c3 44 a0 3e cb 0d f5 3d 26 73 70 3d
       0.041471567 0.3130246 0.119655214 0.058703564
000160 95 ea 0a 3d 2f ce e1 3c 80 94 9d 3d d1 7e 1a 3e
       0.03391512 0.027564136 0.0769434 0.15087439
000170 67 ed fe 3d 5c e9 c2 3d 92 65 f2 3d 97 35 17 3d
       0.12447625 0.09517166 0.11835779 0.03691634
000180 e6 2d 64 3e 88 31 8b 3e 6c 79 5f 3d 71 d5 27 3e
       0.22283134 0.27186227 0.054559156 0.16390015
000190 f0 3a 0d be ee 1f c7 3d e4 b3 ab 3d 31 2c 26 3e
       -0.13792014 0.09722887 0.08383921 0.16227795
0001a0 b5 f9 8b bd 42 01 a6 bc 52 b6 e4 bd 76 db cf bd
       -0.06834737 -0.020264272 -0.11167587 -0.10149281

lstm_layer.bias_hh_l0 f4 [108]
000000 3c d0 b0 3e 68 ba 46 be 9b fa 7b bd 06 c6 c8 3d
       0.3453387 -0.19407046 -0.061518293 0.09803395
000010 f4 36 97 3e 94 93 8d bd bf dd a6 bd 61 51 4a bb
       0.29534113 -0.06912914 -0.081477635 -0.003087126
000020 57 f7 bc bd 0b cb fc bd 5d 70 00 bc 50 bf 08 be
       -0.09226864 -0.12343415 -0.0078392895 -0.1335423
000030 c5 b2 89 bd ae 1d fd 3d f1 07 34 3e 4b 70 28 3e
       -0.06723551 0.123591766 0.17581154 0.16449086
000040 7c 44 2d 3e 88 e7 2c 3e 44 6f a5 bd ce 6a 46 be
       0.16920656 0.16885197 -0.08077863 -0.1937668
000050 f3 db 99 bd e1 0f f3 3d 93 98 1a 3e f3 82 fd 3d
       -0.07512655 0.11868263 0.15097265 0.12378492
000060 bb cf 01 3d 8f 6a b7 3d 98 5a 1b be e8 3a b1 3d
       0.031692248 0.08955871 -0.15171278 0.086538136
000070 0a 15 cb 3d b0 f3 c4 bd 38 63 52 bd c8 4f fc 3e
       0.09916122 -0.09616792 -0.051364154 0.49279618
000080 ca 63 d3 3d f1 52 8c 3d ff fc 1e 3e 27 7c 0b 3e
       0.10321768 0.06851757 0.15526198 0.13621579
000090 a3 2a 21 bd 3e 5a 87 3d 1a 6b c5 3d bd 05 85 3d
       -0.039347302 0.06609009 0.096395686 0.06495235
0000a0 c5 5c 2b 3a 6f 4f a1 bc 35 7b f1 bd 82 ff 8e 3e
       0.0006536956 -0.019691197 -0.11791078 0.27929312
0000b0 98 96 64 3c 01 f6 84 3d 7e 0a a0 bd 6c 25 58 3e
       0.01395192 0.06492234 -0.07814501 0.21108025
0000c0 3a f1 43 3c f4 cd 28 3d 3d cc 34 be 97 0e 8c bd
       0.011959368 0.041212037 -0.17656036 -0.0683872
0000d0 c7 2e 36 3d e7 6f ee bd b3 ca 4d bd 18 d5 48 3c
       0.044478204 -0.116424374 -0.050242137 0.012257837
0000e0 49 3c c5 bd e1 4c c7 3c 25 9e d1 3b 63 67 2e be
       -0.09630639 0.02432865 0.006397026 -0.17031626
0000f0 f8 bd 3b 3e ef bb 1f 3d d4 50 09 3e 4c 75 5f 3d
       0.18334186 0.038997587 0.1340974 0.054555222
000100 e1 9f 0d be 8d 1f 20 be fe 9d 29 be f0 2c 6b 3d
       -0.1383052 -0.15637036 -0.16564175 0.057415903
000110 2b ec 0b be c5 55 4b bd 90 b1 b8 bd 0c 85 8e 3d
       -0.1366431 -0.049642343 -0.09018242 0.069589704
000120 39 60 93 3c 46 1b 90 3c 34 17 c4 3d bd 4c 2f 3d
       0.017990218 0.01759113 0.09574738 0.042797793
000130 d1 92 ed 3d 1d d5 9b bd 4c 85 dd 3c 22 d8 9e bd
       0.11600269 -0.076090075 0.0270411 -0.07756068
000140 00 77 5a bd 99 6a c8 3d 14 c3 e8 bb 3f 5a 84 3c
       -0.053336143 0.09785957 -0.0071033332 0.016156314
000150 20 57 3b 3e 66 8e e1 3e 59 52 51 bd d9 a1 34 3e
       0.18294954 0.44053954 -0.051103923 0.17639865
000160 89 84 77 3e e2 47 02 3d 60 f2 4c 3b 7b d9 58 3e
       0.24171652 0.031806834 0.0031272396 0.21176712
000170 aa 3f 3a bd b9 e6 af 3c 0a 88 35 3e c4 01 9d bd
       -0.04547087 0.021472322 0.17727676 -0.076663524
000180 3e fe 53 3d d4 38 b8 3e 74 1f a3 bd 31 a5 c3 3d
       0.051756136 0.35980856 -0.079649836 0.09552992
000190 92 51 24 be a4 75 81 3e 68 c3 8a bd a9 6c cb 3d
       -0.16046742 0.25285065 -0.06775552 0.09932835
0001a0 a8 32 63 bd 9b 98 d1 3d a5 92 2c bd fe 3f 20 3e
       -0.05546823 0.10234185 -0.04213204 0.15649411

output_layer.weight f4 [1, 27]
000000 8d 28 0c 3e 8a 97 37 bd a5 89 29 be d7 bc 9f 3d
       0.13687344 -0.044822253 -0.16556413 0.0779969
000010 35 5f 64 be dc 1b b4 bd 8a e5 4c 3e 31 9e 7c be
       -0.22301944 -0.08794376 0.20009437 -0.2466972
000020 3e 70 28 be c3 0f 63 bc f0 0c 2a be 28 3b ec 3d
       -0.16449067 -0.013858738 -0.16606498 0.11534721
000030 f4 f2 bd 3d b1 a9 11 be 48 4e 6f be 9e 26 6b bd
       0.09274855 -0.14224888 -0.23369706 -0.057409875
000040 95 16 1d 3e 24 76 17 be 93 4e 11 3d 40 47 5a 3c
       0.15340646 -0.14791161 0.035475325 0.013322651
000050 f1 ce 63 3e bc 1c 65 bd e1 e3 39 be 19 aa 3d 3d
       0.2224691 -0.055935606 -0.18153335 0.046304796
000060 36 29 a7 bd c9 f3 11 3e d9 80 52 3d
       -0.08162157 0.14253153 0.05139241
