models/kalman_model/model.pth (torch, 16061 bytes, 5 tensors)

lstm_layer.weight_ih_l0 f4 [108, 1]
00000000: 2f78 903d 7457 96bd a9eb 013e b262 1e3e
00000010: 0a19 f13d d501 573c 824d 9abc fb8b b33e
00000020: 1932 343e 8e44 4c3e f122 55bd d44b 9a3e
00000030: badc ce3c 05a3 603e 0e57 713e 872a 73bd
00000040: 0d10 813e 666a ecbd aed8 33be 339f 58be
00000050: 351e c03d a070 363e 94f8 853e 3d0f 873e
00000060: 9c86 a7bd c612 383e a939 943e 73f5 e63c
00000070: b078 68be bca2 ff3d b92b 073e bace 083e
00000080: cf28 b93e 9a2c 643e e3d6 003e 4fb5 7a3e
00000090: 34e6 763e bdd9 39bd 723f 4239 f454 c43d
000000a0: 335d e93c a056 8f3e e0e4 f73c 7cb6 763e
000000b0: ad1e 51bc 6066 c53d 2bd9 4b3b 410f 083e
000000c0: 644a 05bd d487 ae3e 8cd6 9d3e 0e06 193e
000000d0: 0859 0c3e de5e 7e3e 1e48 473e 0b5b 07bd
000000e0: 7909 723e 4b02 533e 0cb5 b73e 63e2 acbe
000000f0: a007 653e 7064 9d3e 3b93 17bc 6ae8 633e
00000100: 089c 863d 8cfb 7dbe 4e27 fcbc 0696 69be
00000110: 90de e13d 0574 a63d d41e f6bc e7f0 92be
00000120: 9d7d 8dbd 08a2 24bd 5326 c0be b0e8 8f3d
00000130: d987 a5be d8f3 8a3d 1685 1a3d cdde aa3d
00000140: c49b 9f3d ef84 113d e3f5 e7bd 12de ca3d
00000150: a5c3 883e aa48 1d3e 1c30 843e 6326 973e
00000160: 9eb5 b23e c325 c53d 5ec6 3b3e 4bfe 803d
00000170: 3566 25bd 3976 323e ba2f 953e 1499 8a3e
00000180: 6fb8 0a3e 8a17 a03e 9397 5bbe e57b b03d
00000190: 666b 19bd 3db5 8f3d 67d3 4d3e 8390 353d
000001a0: 0a16 4c3d f77c 8c3e d0a7 4f3e fa98 883e
0.07054173 -0.07340899 0.12687553 0.15467337 0.11772354 0.013122995 -0.018835787 0.35067734
0.17597236 0.19948027 -0.052035276 0.30135977 0.025251735 0.21937187 0.23568365 -0.05936673
0.25207558 -0.115437314 -0.17563125 -0.2115448 0.093807615 0.178164 0.26166213 0.26378813
-0.081799716 0.17975911 0.2895024 0.028193211 -0.22702289 0.12482211 0.13200273 0.1336011
0.36163947 0.22282639 0.12581973 0.24483226 0.24111253 -0.045373667 0.00018524917 0.09586516
0.028486824 0.27995777 0.030260503 0.2409305 -0.012763661 0.09638667 0.0031104784 0.13287069
-0.032541648 0.34088004 0.3082775 0.14943716 0.13705838 0.24840876 0.19461104 -0.03304581
0.23636426 0.20606343 0.35880315 -0.3376647 0.2236619 0.3074069 -0.009251411 0.22256628
0.06572729 -0.24802989 -0.03078046 -0.22811136 0.110287786 0.08127598 -0.030043997 -0.2869942
-0.069087245 -0.040193588 -0.3752924 0.070268035 -0.32330206 0.06784791 0.037724577 0.08343277
0.07793382 0.035527166 -0.11326196 0.09905638 0.26711765 0.1535975 0.25817955 0.29521474
0.34904188 0.09626343 0.1833739 0.062985025 -0.040380675 0.17427911 0.29137975 0.27069914
0.13546918 0.3126796 -0.2144454 0.08617381 -0.03745594 0.0701699 0.20100175 0.04432727
0.049825706 0.2743909 0.20278859 0.26679212

lstm_layer.weight_hh_l0 f4 [108, 27]
00000000: 74bb 743e 4f2b ca3d f706 dd3d 523b 063e
00000010: 5c92 bc3d 57a2 8cbe 766c 303e 3c75 c73d
00000020: 5ce0 983d 8fa7 5f3d be96 4c3e ace6 a8bd
00000030: c1bb b9bd 32ae 91bd 6f73 10be ccc9 96bd
00000040: 34da f53d 8ff7 173e 8f35 bf3b d7f6 62bd
00000050: 92b2 2cbe 655b 323e 57e4 98bd da93 2ebe
00000060: 2532 a2bd 90f8 d2bd de40 08be d53c 90bd
00000070: c85c 8fbd d565 50be 94ec 04be 42b1 90be
00000080: 3569 603e a6fd c43d 54f1 9bbd 8d29 77bd
00000090: 7635 653c ecad 4ebe b0ec c73b a34b 2cbe
000000a0: 61fe fc3d a807 debd baab a7bd 188e dfba
000000b0: a335 023e 781f dfbc 9aad 133e 99cd 763e
000000c0: faa7 e1bd 789d 4f3e 5c1f 81bd 978b 32bb
000000d0: 8e0d 40bb f3c3 e53d 5515 dbbd 0b5e c23b
000000e0: 6f5e e73d 5bf2 853e 6d85 cb3d 9e2d 4bbe
000000f0: b9bd 433e adfc 383e 69f7 08be 7adb 3c3d
00000100: 50af 883e 5deb 683d e694 1ebe b377 4cbe
00000110: 6a1b a53c 4f70 333e 531c 98bd 16df a2bd
00000120: 8b07 5bbc f108 1a3e d708 a4be ebbc 233e
00000130: f1cc 8a3c 32a6 8cbc 00e6 dd3d cba5 34bd
00000140: 4da5 ec3d 2dca 903d 0a89 d4bc 25e5 f9bd
00000150: 55d3 163e d6e5 0abe 682b 02be 42de 21be
00000160: 71c7 33bd 480b c3bc 4e38 0bbc 9c18 dc3c
00000170: 76d7 673d 5bc9 773c d0c9 813d 1ed2 293c
00000180: 9ebf 1ebe 7a2c 413e 5724 04be 94a8 2cbe
00000190: e975 703d 05a7 18be 57f0 873d e951 d6bb
000001a0: 2242 e5bd 2e89 b2bc 1bc9 163e 3ffc babd
000001b0: 0dbd 163d 6f63 473e eb92 693d 694c 343b
000001c0: ca6a 863e 5b46 adbd 08f9 a43e 9869 503e
000001d0: 29e2 febd 7998 343e c7cd 463e 6ee3 b2bd
000001e0: 52f1 783e 4820 41be 16b5 79bd 4102 123e
000001f0: d36f 0cbe 1d1d fa3c e39e 91be 4ca6 5f3c
00000200: 28ce 7fbd 838f 81be e3ee 92bc 6d7b d43c
00000210: 4c60 a03d 02a4 09bd 3b60 163e b1ad 6a3e
00000220: 055d e23d 41e9 d23d d040 753c 5826 923e
00000230: 0d5f 65be 4507 9d3d 645e 52bd 01a6 6cbe
00000240: d3a7 f83d 315c e43d 2f1e 0dbe a3bc d43d
00000250: be24 e23b 6c2b 03bd 93ad 29bd cc80 a33d
00000260: 2199 293d c263 2fbe efac 883e 941c b4be
00000270: 3361 66be 3dee d1bd 6a4d 8a3d 6f04 bf3d
00000280: 0acf c13b c4b1 e63d 5d8a aebc 372e 633d
00000290: a259 843b afb2 883d e353 003e d4a0 1cbe
000002a0: eca3 233d ebe3 4dbd f5ec 9abd 5585 c9bc
000002b0: 8192 003e e80d 26be 9974 6bbc 3b34 963d
000002c0: 690a d4bc 1f1e 243e 39e7 013e d94d 973d
000002d0: c758 943d ecf8 633d 3413 babe e6d2 f73d
000002e0: 9f68 693d 0974 8fbd b3c1 9a3d 590f 2a3e
000002f0: c7a2 e6bd fce5 713e 6cb3 17be 04d6 873e
00000300: 73c2 5f3d 1141 0f3e 7309 62be 7a3c 653e
00000310: 3c0b 25bd b2dc 673d 13c8 473d e3cd 35bc
00000320: 2672 593c 2dab a4bd 9a7f 6cbb 96d6 683e
00000330: c40d fe3d cfaa 97bd ed28 2f3d cade babd
00000340: d7ea b23d 0444 4abe 26d2 25be 698c 9d3d
00000350: c0cc c0bc 3fc3 0a3e 6743 8ebd 889d 413a
00000360: 5e84 ca3d 4dcb 263e f053 d73d 56ab 2a3e
00000370: d29c 7cbb 57cf 36be c58a 133e d382 b23c
00000380: 67e8 823d a84b 1b3e 5f0c d73d d0cf 6fbe
00000390: 065e 223e fb3e 29be e042 1b3d dce4 45bd
000003a0: 7cfb 173e 589a a03d ac8f 373d e761 aa3d
000003b0: bf45 9fbe 45c3 f43d 7fa1 05bd 9b5d 1abe
000003c0: e446 20be 75be 583e 0026 9f3c 21ba d4bd
000003d0: 37ac c4bd f425 3cbd dc70 1a3e 9742 a63e
000003e0: 28ab 05bd 438b 813d bc0b 593e 9294 2ebe
000003f0: 11af 153d 4e14 a43e d30f 6cbe fc82 dfbd
0.23899633 0.09871542 0.10792344 0.13108566 0.09207603 -0.27467605 0.17228875 0.097391576
0.07464668 0.054603156 0.19979379 -0.08247122 -0.09069014 -0.07113303 -0.14106534 -0.073627084
0.120045096 0.1484053 0.005835242 -0.055411186 -0.16864994 0.17417677 -0.07465427 -0.17048588
-0.079197206 -0.10301316 -0.13305995 -0.07042853 -0.070001185 -0.20351346 -0.12980872 -0.28260237
0.21915133 0.09618692 -0.07614389 -0.06034236 0.013989797 -0.20183533 0.0061012134 -0.16825728
0.123532064 -0.10841304 -0.08187051 -0.0017055897 0.12715773 -0.027236685 0.14421692 0.24101867
-0.11018367 0.20274913 -0.063048095 -0.0027243847 -0.0029304954 0.11219015 -0.10697428 0.005931621
0.11297309 0.26161465 0.09937558 -0.1984162 0.19115342 0.18065138 -0.1337563 0.046107747
0.26696253 0.056865085 -0.15486488 -0.19967537 0.020154674 0.17523311 -0.074272774 -0.079527065
-0.013368498 0.15042473 -0.32037994 0.15990035 0.016943427 -0.017169092 0.10834885 -0.044103425
0.11554966 0.07069812 -0.025944252 -0.12201909 0.14729054 -0.13564238 -0.1271187 -0.15807441
-0.043891374 -0.02380909 -0.008497311 0.026867203 0.056601964 0.0151236905 0.06337321 0.010365037
-0.15502784 0.18864623 -0.12904488 -0.16861182 0.058706198 -0.14907463 0.06637638 -0.006540526
-0.111942545 -0.021793928 0.14725153 -0.091301434 0.036801387 0.19471525 0.057024878 0.0027511364
0.2625335 -0.08460685 0.32221246 0.20352781 -0.124454804 0.17636289 0.19414435 -0.08734785
0.24310806 -0.1885997 -0.060963713 0.14258672 -0.13714533 0.03053146 -0.28441533 0.013650488
-0.062452465 -0.25304803 -0.017936176 0.02593776 0.07830867 -0.033603676 0.14685147 0.2291782
0.11052898 0.10298396 0.014969066 0.2854488 -0.2239954 0.07667402 -0.05135955 -0.231102
0.12141385 0.111503966 -0.13781045 0.10387542 0.0069013527 -0.032023832 -0.0414253 0.079835504
0.0414058 -0.17127898 0.26694438 -0.35178053 -0.22498016 -0.102505185 0.06753047 0.093270175
0.0059145736 0.11264375 -0.021306211 0.055463996 0.0040390054 0.06674706 0.12532 -0.15295726
0.03995125 -0.050266188 -0.07564727 -0.02459971 0.12555887 -0.16216242 -0.014371061 0.07334181
-0.02588387 0.16027115 0.1268586 0.07387895 0.072434954 0.055657312 -0.36342776 0.121007726
0.05698454 -0.07004554 0.075564764 0.16607417 -0.11261516 0.23622888 -0.14814538 0.26530468
0.0546288 0.13989665 -0.22073917 0.22386351 -0.040293917 0.056606956 0.04877479 -0.0110964505
0.013271844 -0.08040462 -0.0036086799 0.22738108 0.12404969 -0.07405626 0.04276364 -0.09124525
0.087361984 -0.19752508 -0.16193447 0.07692797 -0.023535132 0.13551043 -0.0694645 0.00073858397
0.09888528 0.1628849 0.10514057 0.16666922 -0.003854562 -0.17852531 0.14408405 0.021790897
0.063919835 0.1516558 0.105004065 -0.23419118 0.1585618 -0.16527931 0.037905574 -0.04831396
0.14842027 0.07841939 0.04481475 0.08319455 -0.311079 0.11951307 -0.032624718 -0.1507477
-0.15652043 0.21166404 0.0194273 -0.10387064 -0.0960316 -0.045934632 0.15082115 0.3247268
-0.03263393 0.0632539 0.21195883 -0.17048863 0.03654391 0.3204674 -0.23052911 -0.10913655

lstm_layer.bias_ih_l0 f4 [108]
00000000: 4101 72bd 7619 6ebc a46a 12be 83d9 68bd
00000010: 88f2 933d 51a3 913c df03 553e ab11 413d
00000020: b37f 77bd fcbd b1bd 1aef 17bd 749d 753e
00000030: bcc1 5ebd e736 34be f90a 1b3e 6624 41be
00000040: 527c 333e dec1 a9bd b936 c9bd 5687 a6bd
00000050: a2af db3e 573c 11be f517 ee3d 79d6 dcbd
00000060: 965a 26be b83c a3bd 16b2 cebd 7661 b0bd
00000070: e01d 063d 29e5 aabd 1bf5 6b3d ee81 353e
00000080: 5e25 c53d 1030 aa3d c29c 0d3e d5e0 e8bd
00000090: 24e3 df3d fe36 61bc ef5b 3e3d 0660 6c3d
000000a0: bcd0 1e3e ea9e 493e 8d35 93bd f93c 663b
000000b0: 4ce6 f93d b993 51bd 0ae0 dbbd 7ca3 533e
000000c0: 92cf 3bbe 02d6 593e d7a7 e4bc 7a13 903d
000000d0: b2bd fcbc 63d0 3ebd 3069 483e 1b0f 103e
000000e0: ee83 093d 39d7 eebd b327 09be 8ae5 7a3d
000000f0: bc89 83bd a7ab 553d aab8 2d3d 64ea ebbd
00000100: d3ef b23d 6250 3a3e 07d3 0a3e 3fe9 dfbd
00000110: 53f9 263e 2936 d73d 00f3 0dbe dcc7 223e
00000120: 4057 9cbd 8eef 123d cbb3 583d e464 28be
00000130: 65ae fcbc 6e75 44be c2e9 f83d 0678 ec3d
00000140: 9d7e 253e d969 203e d02d 2a3e cec5 cbbd
00000150: 28b1 30bd 03c4 163e 18d4 333e 4dc6 b83c
00000160: f29d 433e b61c f33d 84bd 2e3e 57e1 8fbd
00000170: b149 b8bb bfab 073e 97f9 3fbe 05c9 943d
00000180: 01ff 173d 85d9 593d f383 1f3e 82f6 30be
00000190: a6b6 2f3e dabd c03e deaf 143e 46e8 323e
000001a0: 3311 ac3d c734 243e 5f20 5f3c 33e5 543e
-0.059083227 -0.014532438 -0.14298493 -0.05684806 0.072239935 0.01777807 0.20802258 0.04713599
-0.060424518 -0.08678815 -0.03709326 0.23985845 -0.05438398 -0.17599069 0.15140904 -0.18861541
0.17527893 -0.0828893 -0.09824891 -0.08131282 0.42907435 -0.14183174 0.11625663 -0.10783095
-0.16245493 -0.079705656 -0.10092561 -0.08612339 0.032743335 -0.0834449 0.057606798 0.17725345
0.09626268 0.083099484 0.1382933 -0.11371008 0.109319955 -0.013746021 0.046474393 0.057708763
0.15509313 0.19689527 -0.071879484 0.0035131557 0.12202129 -0.05116627 -0.107360914 0.20667833
-0.183409 0.21273044 -0.027912064 0.07034965 -0.030852173 -0.04658545 0.19571376 0.14068262
0.033573084 -0.11662144 -0.1339405 0.06125406 -0.06422755 0.052165654 0.042412437 -0.11519316
0.08737149 0.18194726 0.13557063 -0.1093316 0.16306047 0.10508377 -0.13862228 0.15896553
-0.07633829 0.03587299 0.05290584 -0.16444737 -0.030844877 -0.19185421 0.12153961 0.1154633
0.1616158 0.15665378 0.16619039 -0.099498376 -0.0431377 0.1472321 0.17561376 0.022555495
0.1910322 0.118707106 0.17064482 -0.07025402 -0.005624019 0.1324911 -0.18747555 0.07264904
0.037108425 0.05318596 0.15577678 -0.17281535 0.17159519 0.37644845 0.14520213 0.17471418
0.08401718 0.16035758 0.013618558 0.20790558

lstm_layer.bias_hh_l0 f4 [108]
00000000: 42c4 6b3e aa83 44be 5716 da3d 8ee0 9b3d
00000010: 8ecd 483e c2c6 85bd 8e61 39bc c182 adbd
00000020: d39d abbc d226 273e 6bb5 983d 9902 9f3d
00000030: f589 093e 2df0 02be 9d61 8abd cbea c43b
00000040: 69d8 6f3d 9244 d2bd f583 87bd 4f02 2ebe
00000050: 3ef6 bc3e 7bb4 943d e9a3 c7bd 8131 3b3d
00000060: 6157 37bd bda1 9d3c 26df 993d a460 00be
00000070: 4f23 02be 3566 ba3d 4f72 533d d9bc 8e3e
00000080: a10b 963b 0a5a 0d3e 97a0 8bbd e9d8 9f3d
00000090: 9aa4 993c 90bf 913d ec33 8a3e 9eb1 cd3d
000000a0: 44c7 eb3c e93f 00be 841a bbbd 3bc0 3b3e
000000b0: 6e17 993d 886d 9c3d 8976 06be b24c 793e
000000c0: 702c 043e cdca b53d 13a2 6dbd 6427 4abe
000000d0: 32b8 3f3d 919a 363d 3134 c7bd ad22 dc3d
000000e0: ca63 7f3d d3ed c13d 3e96 ed3d 5571 93bd
000000f0: 3ece de3d 3c6d 3b3e 7a98 12be 0e1a 323e
00000100: 5b5b b5bd 90ed 10be d6d5 933d 6256 fc3c
00000110: 6175 13be 71c0 dbbd 282d dabd 7774 1f3e
00000120: c390 90bd 17e5 773d 037f fb3d 973f 97bc
00000130: 584c e63c 6551 f83b 976c 36bd 4633 cbbc
00000140: f9a4 553e b4f6 60bd 39c8 3ebd 7018 743e
00000150: b0a5 5a3e b1ce 8f3e 7856 273e a197 473e
00000160: eace 6e3e 63d8 383c 4e8e 2e3e d307 38be
00000170: 3355 f73d 5014 efbd b2f5 cf3d cf23 f7bd
00000180: 40b9 b63d 53f9 cbbd 5e04 063e 4f50 9e3d
00000190: 510c 673c 4772 293e 2945 ca3d f991 863d
000001a0: 1fb5 1abe 0c47 a53c 2060 893d d910 5bbd
0.23024085 -0.19190851 0.10648792 0.0761119 0.19609663 -0.06532051 -0.011314763 -0.08472205
-0.02094928 0.16323403 0.07456478 0.07764167 0.13431533 -0.12786932 -0.067568995 0.006009435
0.058555994 -0.10266985 -0.06616966 -0.16993068 0.36906618 0.072609864 -0.0974806 0.045701507
-0.044761065 0.019242162 0.07513265 -0.12536865 -0.12708782 0.09101526 0.051622685 0.27878454
0.004579023 0.13803878 -0.068177395 0.07805044 0.018755246 0.07116616 0.26992738 0.100436434
0.02878154 -0.1252438 -0.09135917 0.18335049 0.07475172 0.07638079 -0.13131155 0.24345663
0.12907577 0.08876572 -0.058015894 -0.19741589 0.04680652 0.044581 -0.097267516 0.107488014
0.062351026 0.094691895 0.11600922 -0.07199351 0.10879181 0.18303388 -0.14315978 0.17392752
-0.08855315 -0.14153123 0.0721852 0.03080291 -0.14400245 -0.10730065 -0.10653144 0.15571772
-0.07058861 0.06052121 0.12280085 -0.01846294 0.028112575 0.0075780624 -0.044537153 -0.024804723
0.20863713 -0.054922774 -0.046577666 0.23837447 0.21352267 0.2808738 0.16341579 0.19491436
0.23321119 0.011282059 0.17046472 -0.17971735 0.12076797 -0.11673796 0.101542845 -0.12067377
0.089220524 -0.09959664 0.13087603 0.077301614 0.014102058 0.165475 0.098764725 0.06570811
-0.15108155 0.02017548 0.067077875 -0.053482864

output_layer.weight f4 [1, 27]
00000000: 4ae7 273e d45b 2cbe 6d24 7d3e 1df9 c6bc
00000010: 213b 6a3e 1bfe c4bd 6227 e83d c3f5 103e
00000020: 2d9b 36be 55a6 6c3e 59a1 b0bd e992 debd
00000030: de91 4f3d 7af2 3bbd b784 fc3d fba9 a9bd
00000040: f1ab 15be aebd 3abe 74d0 0b3e 26c8 fabd
00000050: f44e 83be 75a6 01be b520 d9bd 916d 86bd
00000060: 7c19 d83b 70f5 bf3d 47bb 443e
0.16396824 -0.16831905 0.24720927 -0.024288708 0.22874118 -0.09618779 0.11335637 0.1415625
-0.17832632 0.23110326 -0.086245246 -0.10867865 0.05067622 -0.04588554 0.12330001 -0.08284374
-0.14616372 -0.1823642 0.13653737 -0.122452065 -0.25646174 -0.12661155 -0.106019415 -0.06563867
0.006594835 0.09372985 0.19212066
