models/enhanced_model/model.pth (torch, 208805 bytes, 9 tensors)

lstm_layer.weight_ih_l0 f4 [256, 4]
000000 56 e7 01 bd eb 55 27 bd 7a 2b 0a be 46 32 ad bd
       -0.03171476 -0.040853422 -0.13493147 -0.084568545
000010 97 42 eb 3c 12 c8 66 bd aa 37 36 3d f0 cc 8e bd
       0.028718276 -0.056343146 0.04448668 -0.069726825
000020 93 f6 45 3e cb 30 23 3d 0e df 1e bd 82 2f 42 3d
       0.19332342 0.039841454 -0.03878694 0.04740859
000030 f9 cc 1c 3e b1 dd af 3d 1b 4b 00 be 84 c8 7f 3b
       0.15312566 0.08587206 -0.1252865 0.0039029429
000040 86 61 d6 3d e7 ca 88 bd c9 af 9c 3d 82 b1 c1 bd
       0.1046782 -0.066793256 0.07650716 -0.09457685
000050 06 84 04 3e 6a 28 08 3e 64 0a 03 be 54 1b ab bd
       0.12940988 0.13296667 -0.12796932 -0.08354822
000060 6b a0 d8 3d d4 91 8c 3b e1 9d ba bd 33 27 6c 3d
       0.10577472 0.004289845 -0.09112144 0.05765457
000070 a3 a2 c5 3d 30 a3 95 bd 05 f0 5c 3d c7 e1 0a 3d
       0.09650161 -0.07306516 0.053939838 0.033906724
000080 1b ef 0a 3d d4 da 0b bd 02 22 13 be a9 31 87 bd
       0.033919435 -0.034144238 -0.14368442 -0.06601269
000090 0d 0f 00 3e 18 4b 00 be 34 ea 82 bd 17 7b 7b bd
       0.12505741 -0.12528646 -0.06392327 -0.061396684
0000a0 07 1e 51 3e 6e 25 71 bd 08 2d a4 3d d6 1c 0c 3e
       0.20421611 -0.058873586 0.080164015 0.13682875
0000b0 b9 56 4c 3e 3a 08 ac 3d 9c 24 92 bd 1e 6d ed bc
       0.19954957 0.084000066 -0.07135889 -0.028982695
0000c0 65 bd 0c 3e 7f fc 9d bd 2e 7d db bd 6d 17 3b bd
       0.13744123 -0.077141754 -0.107172355 -0.045676637
0000d0 7e f9 30 3d a5 03 92 3d ed a5 e8 bc 4a 45 af bd
       0.043206684 0.071296014 -0.028399432 -0.08558138
0000e0 c6 87 0d bd 15 03 34 3c b6 9c 0a be d9 51 a7 3d
       -0.03455331 0.010987063 -0.13536343 0.08169908
0000f0 78 b3 da 3d 00 af b6 bd 39 a1 34 bd 54 06 bb bd
       0.10678762 -0.08920097 -0.044099066 -0.09132066
000100 16 48 82 3e 15 18 a4 bd ce bb b0 bd 2a 4c f9 3d
       0.25445622 -0.08012406 -0.08629571 0.1217273
000110 b5 f7 18 3e fe 09 e1 3d fa 9b 0b be c2 71 ea 3d
       0.14938243 0.10988234 -0.13633719 0.11447479
000120 92 4c 70 3e 5f 56 9e 3b df 80 07 be 6f 89 b1 3d
       0.2346671 0.0048320736 -0.13232754 0.086687915
000130 84 67 1a 3e 0c 12 c6 3d fa af 9d bd 96 ab 18 3e
       0.1507855 0.09671411 -0.076995805 0.14909205
000140 37 13 b4 3c 8c c2 f2 bd 2d a5 fb bd 4b 55 80 3d
       0.021981819 -0.11853513 -0.12287364 0.06266268
000150 ab 33 15 3e 90 d2 72 3c 37 d3 3f be ad 06 95 3c
       0.14570491 0.01482071 -0.18732916 0.01819166
000160 a5 f5 cf 3d 07 96 58 3d da 3b 6c bd 9a 18 82 bd
       0.10154275 0.052877452 -0.057674266 -0.063523486
000170 00 a0 d6 3d 86 69 1f bd 01 57 0d be c3 84 dd 3d
       0.10479736 -0.038918994 -0.1380272 0.10816338
000180 36 a5 cd ba f6 8f 88 3d 27 8e 0b be 8f c2 d2 3d
       -0.0015689495 0.06668083 -0.13628446 0.10291015
000190 c8 3b 0c 3d e2 ad d9 3c f8 6e 21 3a ca f4 4c bd
       0.0342367 0.026572172 0.0006158198 -0.050038137
0001a0 92 49 b2 3d 35 cd 9c bd 12 16 80 ba bc 88 46 3d
       0.08705439 -0.07656328 -0.0009772202 0.048470244
0001b0 f5 6a 4f 3d a0 c4 1d 3e bd 78 97 bc a9 1c 6a 3d
       0.05063911 0.15407038 -0.01849019 0.05715624
0001c0 ef d5 98 3d 07 75 42 3d 7e e5 85 bd be 6d 8e bd
       0.074626796 0.047474887 -0.06537913 -0.069545254
0001d0 d5 70 79 3d 49 81 e9 3d cc fe 72 bd fb ec dc 3d
       0.06089862 0.11401612 -0.059325024 0.10787388
0001e0 3f f0 ae 3d 08 c2 40 bd 57 67 b6 bd b2 01 7d bd
       0.08541917 -0.047060043 -0.08906429 -0.061769195
0001f0 13 c5 dc 3d 58 cc 19 3e 6f 3e 3e bc f0 24 54 3b
       0.107797764 0.15019357 -0.011611565 0.003237065
000200 98 d3 3a 3e ba 89 b7 bd 11 e9 28 3d 58 46 43 bc
       0.18244779 -0.08961816 0.041237894 -0.011918627
000210 f7 1a 34 3e 49 fc b2 3c 1d aa 53 bd a0 d8 6e 3c
       0.17588411 0.021848815 -0.051675905 0.014578015
000220 95 f8 65 bd b6 f9 93 3d 68 b4 e8 bb 42 ea 99 3c
       -0.05614527 0.07225363 -0.007101584 0.01878846
000230 99 5a fa bc be 76 56 3d e8 c7 1a be a9 01 dd bd
       -0.030560778 0.052359335 -0.1511532 -0.10791332
000240 88 3e a2 3d 9d fd c2 bd 50 14 e3 bd 70 e3 78 bd
       0.07922083 -0.09521029 -0.11087859 -0.060763776
000250 88 91 3e 3e ad cc a1 bd 0c 6a cf bb c1 f8 95 3d
       0.18610203 -0.07900367 -0.0063297804 0.07322837
000260 08 b6 41 3d 8d d5 db 3d 31 01 b1 3d 1f a4 7d 3c
       0.04729274 0.10734091 0.08642805 0.015481024
000270 da 8b 07 3d 75 2a 00 3e 74 f1 ad bd 4f 6a 54 3d
       0.033092357 0.12516196 -0.08493319 0.051859196
000280 6f 54 07 3e 48 b7 b8 3d 8d 71 5f 3d d5 e9 5e 3e
       0.13215803 0.09019333 0.05455165 0.21768887
000290 54 df 51 bd 5f a5 de 3c eb 6e e2 3c ae 07 e3 bc
       -0.051238373 0.027178464 0.02764078 -0.027713623
0002a0 fd 9c 10 3e af 5f 81 bc 0d de 9c 3d 05 32 c1 3d
       0.14122386 -0.015792696 0.0765954 0.094333686
0002b0 39 34 96 3d ad ec 11 3d f8 b5 e9 bd 69 95 d5 bc
       0.073341794 0.035626102 -0.11411661 -0.02607222
0002c0 f5 94 e9 3d ae 33 0d be b5 2f 2d be f4 25 e6 ba
       0.114053644 -0.13789245 -0.1691273 -0.0017558918
0002d0 d1 0f 5f bd b0 a1 c8 3c d5 30 14 be 39 bf 13 be
       -0.054458443 0.024491161 -0.14471753 -0.14428414
0002e0 6c 71 8b bd 7d 10 94 bd e8 fa 13 be 85 bd 8a bd
       -0.06808743 -0.072297074 -0.14451182 -0.06774429
0002f0 60 4d 0d 3d 60 f7 96 39 ef a5 01 be 47 dc a1 3d
       0.03449762 0.00028794538 -0.12660955 0.07903343
000300 86 05 27 3e 3d 30 56 bd a7 fd df 3c e7 ce d3 3d
       0.16310701 -0.052292097 0.02734263 0.10342198
000310 68 1b 8c 3c f8 e3 d4 bd 66 ff 5b bd dd 65 43 3a
       0.017102912 -0.10395044 -0.053710364 0.00074538385
000320 5e bb 94 3d c8 0e 46 bd ba 1a f5 bc d3 21 03 be
       0.072623 -0.04835394 -0.02991997 -0.12805872
000330 3d e6 ac 3c 7f bb 8a bc dc 76 9f bd 6e 29 a3 3d
       0.02110588 -0.016935108 -0.077863425 0.079668865
000340 29 6b aa 3d b2 55 2f 3a fe 96 5d bd 91 a7 bb 3d
       0.083212204 0.000668849 -0.054099075 0.0916282
000350 a9 be 7d 3e e9 5f 0f 3c ca da ee bd c5 09 ac bc
       0.24779762 0.008750894 -0.116628245 -0.021000752
000360 6d d7 d5 bd c0 95 47 3d a9 60 ce bd 62 49 a0 3d
       -0.1044148 0.048726797 -0.1007703 0.07826497
000370 4f cf 16 3e 0a 04 8b bd a7 57 f5 3c 24 e8 dc bb
       0.1472752 -0.0678788 0.029949022 -0.0067415405
000380 cc 61 8d 3d 2f 15 86 3c f9 c1 67 bd 78 b8 d6 bd
       0.06903419 0.016367523 -0.05658147 -0.10484403
000390 64 35 27 3e d6 70 a9 bd 57 7b 8f 3d a8 47 a7 bb
       0.1632896 -0.08273475 0.07005947 -0.0051049776
0003a0 7f 2b 4c 3d e7 59 d5 3d 56 da bb bd 1e b2 0a 3e
       0.04984617 0.10417538 -0.09172504 0.13544509
0003b0 8d a6 bb 3c 0e 42 17 be 5e 03 ed 3c 27 7f 43 bd
       0.022906566 -0.14771292 0.02893227 -0.047728684
0003c0 0f 46 19 3d f5 99 52 3c db e5 a7 bd 5e 9a ee 3d
       0.03742033 0.012854089 -0.08198138 0.11650537
0003d0 a5 1f 68 bd c2 d3 dc bd 62 bc bc bb 29 dd fc 3c
       -0.056670804 -0.10782577 -0.0057597617 0.030867176
0003e0 33 b4 58 3d 88 ec 7f 3d a6 91 c5 3d 70 2a cc bd
       0.052906226 0.062481433 0.09646921 -0.09969032
0003f0 06 b7 04 3e d5 2a c2 bd bc 60 83 3b c0 8e b8 bc
       0.12960443 -0.09480826 0.0040093344 -0.022529006

lstm_layer.weight_hh_l0 f4 [256, 64]
000000 15 35 d1 3b f9 7e 00 3d c4 1b 83 3d 9a c1 21 3d
       0.0063845017 0.03137109 0.0640178 0.039491273
000010 92 23 be bd f4 bf f7 bd e4 12 c1 3d 49 da 07 be
       -0.09284128 -0.12097159 0.09427431 -0.13266863
000020 e7 a7 89 3d be 26 20 bc c9 bb b4 bd a1 7e f9 bc
       0.06721478 -0.009774862 -0.0882488 -0.03045589
000030 f5 b3 31 bd 90 e3 c0 bd df 77 b7 bc d2 aa 0b 3d
       -0.04338451 -0.09418404 -0.022396026 0.034098454
000040 aa bc 25 3d e7 67 ee ba 83 f4 89 bd 73 ac d7 3c
       0.040463127 -0.0018188924 -0.0673609 0.026327347
000050 89 4b f3 bd d8 6b 2b 3d 01 31 6e bd d5 fc ce 3d
       -0.118796416 0.041850895 -0.058152203 0.10106818
000060 cb 32 8e 3d a5 64 14 be dc 57 61 bd 70 5f 3b 3c
       0.06943282 -0.14491518 -0.05501543 0.011436328
000070 f3 90 e5 3d 6d 49 b8 3d 1b 47 00 3d dc 51 9a bd
       0.112092875 0.0899838 0.03131781 -0.07535145
000080 21 25 a8 bb a7 02 6c bd 6d 69 eb bd 65 93 c5 3d
       -0.0051313792 -0.057619717 -0.11494718 0.09647254
000090 75 e4 b5 bc 4e 42 16 3d 25 08 c5 bd 5c ec 2c bd
       -0.022203663 0.036684327 -0.09620694 -0.042217597
0000a0 e3 33 f7 bd 7b 9b 90 3c 18 27 b7 3d d3 af e3 3c
       -0.120704435 0.017652264 0.089430034 0.0277938
0000b0 bc 60 a9 bb a6 bb 58 3d 3a fd 28 3d 20 f4 3b 3d
       -0.0051690023 0.05291333 0.04125712 0.045887113
0000c0 c3 93 43 bd c0 75 08 be f5 77 75 3d ea 8d 7d bd
       -0.04774834 -0.13326168 0.059928853 -0.061902918
0000d0 46 ac 99 3d 87 71 de 3d 83 07 3e bd d8 2f fa bd
       0.07503562 0.10861497 -0.046393882 -0.12216157
0000e0 31 49 83 3d 16 e2 7d bd 55 c1 8f bd 94 fc e1 bb
       0.064104445 -0.06198319 -0.07019297 -0.0068965647
0000f0 36 ea d1 bd 75 69 02 3e 00 86 ff 3c 04 4b 10 bd
       -0.1024975 0.12735541 0.031191826 -0.03522779
000100 8b 83 f4 ba 0f fe 3a bc 0c b8 71 bd 04 a6 ba bd
       -0.0018654926 -0.011413111 -0.05901341 -0.09113696
000110 f8 3c 3b bd 31 0e 89 bc 59 fc 34 3d 66 6c 2c bd
       -0.04571244 -0.0167304 0.04418597 -0.042095564
000120 d3 ac 8e 3d e8 4f 58 bd e5 53 71 3d 35 73 ed 3d
       0.06966557 -0.05281058 0.0589179 0.115942396
000130 e7 28 3d bd 0f 91 90 3d df 9b 5f 3c 50 f5 fa 3d
       -0.046181586 0.07058918 0.013648002 0.12253821
000140 f0 2c 6f bd 31 8e b0 3b 84 0e db 3d 7c 1b ed 3d
       -0.058392465 0.0053880443 0.10696128 0.11577508
000150 82 65 46 3d e3 3e a1 3d 03 61 af 3c 39 50 59 bd
       0.04843665 0.07873323 0.021408563 -0.053055022
000160 6c d8 3d bd 1d fa 17 bd 00 b4 fb bc 79 47 f5 3d
       -0.046348974 -0.03710376 -0.03072548 0.11976523
000170 f2 05 6d 3d 77 d3 b0 bd 84 24 71 3d 9f 52 10 bd
       0.057866998 -0.08634084 0.058872715 -0.035235044
000180 6d 60 94 bd c8 77 3a 3d 52 6d 83 3d f7 36 9c 3d
       -0.07244954 0.04552439 0.064173356 0.07627671
000190 3c 92 b5 bd 5b a9 cc bd 77 f7 0e bd 19 e1 98 3d
       -0.088657826 -0.099932395 -0.03490397 0.07464809
0001a0 92 ca 60 3c 1c c1 a8 3d 3c f0 da bc 95 93 8b bc
       0.0137201715 0.08239958 -0.02672588 -0.017038146
0001b0 d1 7e c6 bc e2 cd ae 3d a2 aa 84 3d 0b f9 e2 bd
       -0.024230393 0.08535363 0.06477858 -0.110826574
0001c0 4c 9b 30 bd 0c 26 c1 bd 20 04 97 bd a8 b7 17 bd
       -0.043116853 -0.09431085 -0.07373834 -0.037040383
0001d0 4a 5c ff bd e6 41 65 bd 2e 08 85 bd 9b b7 af bd
       -0.124687746 -0.05597105 -0.06495701 -0.08579942
0001e0 db ff 2d bd 01 39 9e bd 8b cd bb bd 79 d3 dd bd
       -0.04248033 -0.077257164 -0.091700636 -0.10831351
0001f0 70 a6 86 3d 3f 35 20 3d ad dc de 3d a6 29 2f 3d
       0.06574714 0.03911328 0.10881934 0.04276433
000200 c3 c8 9d 3d 2b d4 36 3d 5d db cb 3b ee e8 de 39
       0.07704308 0.044635933 0.0062212185 0.00042516686
000210 54 46 8a 3d 9b 49 9b 3b e7 1d a2 bb 31 a3 aa bc
       0.06751695 0.004738999 -0.0049474123 -0.020829769
000220 f0 4b a4 bd 3f 3d c9 bd d9 fb a4 3d 35 07 36 bd
       -0.080222964 -0.09826135 0.08055849 -0.044440467
000230 8e 84 64 3c a3 41 89 bd b7 56 d7 bb 1a d9 9a 3d
       0.013947619 -0.06701972 -0.0065716165 0.0756094
000240 e5 1c 06 3e ff 64 b6 bd a3 41 d2 bc 42 fb d5 3c
       0.1309696 -0.08905982 -0.025666064 0.026120786
000250 2b eb c2 3d 8f 63 97 3d 27 cb 0d 3d 6b b9 4c 3c
       0.09517511 0.07392036 0.03461757 0.012495379
000260 9d fd 6b bd eb 97 8b bb 1d 95 8e bd db 54 87 3d
       -0.05761491 -0.0042600534 -0.06962035 0.06607982
000270 4b 4e 8b 3d e7 4e 76 3d 71 23 a3 bd b6 8b 44 bd
       0.068020426 0.06013384 -0.07965744 -0.0479848
000280 47 8b ca bd 10 c8 f3 3c df 26 30 3d 47 a0 45 3d
       -0.09889846 0.029758483 0.04300582 0.048248556
000290 b0 ad 4c ba 10 02 64 3d 27 52 65 3d 10 d8 06 be
       -0.0007807864 0.05566603 0.05598655 -0.13168359
0002a0 96 be 9d bd 0e 39 c0 bc a5 86 2f bd f9 12 0c bc
       -0.07702367 -0.023464706 -0.042853016 -0.008549445
0002b0 ea 89 c2 bd 75 2d 2f 3d 22 1b 7a 3c d1 96 43 bd
       -0.09498961 0.04276796 0.015265258 -0.04775125
0002c0 f5 12 da 3d ad 18 ad 3d b0 6c b1 bd 22 f4 c9 3d
       0.10648147 0.08451972 -0.086633086 0.09861018
0002d0 76 f9 7a 3d a9 c9 fd bd 1a 23 93 bd 6d 9f 7e bd
       0.06127306 -0.12391979 -0.071844295 -0.06216376
0002e0 9e 58 86 3c 32 de d6 3d ee 3d 72 bd 71 8a e9 bb
       0.016399678 0.10491599 -0.059141092 -0.007127099
0002f0 0a 0b 08 be e3 30 8b 3b 67 33 7f bc cd 26 5f bd
       -0.13285461 0.004247771 -0.01557622 -0.054480363
000300 2c b8 0a be 17 04 6e 3d f6 0c 13 be 50 d8 91 3d
       -0.13546818 0.05810937 -0.14360413 0.071213365
000310 3a 92 bd 3d e6 fd 25 3d 7c 4a 5d 3d 48 33 da bd
       0.09256406 0.04052534 0.054026112 -0.10654312
000320 a3 94 90 3d 47 b3 cc 3d 81 c0 24 be b4 7b ab bd
       0.070596 0.09995132 -0.1608906 -0.08373204
000330 3d 65 c3 bc ec 94 8a bd be d0 ee 3c 4c 72 c7 3d
       -0.023851985 -0.06766686 0.02915227 0.09738597
000340 95 38 4c 3b 9d cd 30 3e 17 3b 25 3e 2e 30 e3 3c
       0.0031161655 0.17265935 0.16135822 0.027732935
000350 98 05 fb bd dd b9 a9 3d e6 6c 36 be b2 27 5b bc
       -0.12256926 0.08287404 -0.17814979 -0.013376163
000360 9b f1 a0 3d 5c 35 78 3c 99 f0 9e 3d da 17 2d 3d
       0.078585826 0.015149441 0.07760734 0.042259075
000370 42 24 56 bd ea f1 ce 3c e7 50 5d 3d 64 24 15 be
       -0.052280672 0.025261838 0.054032233 -0.14564663
000380 2f b2 63 3d 01 d5 b3 3d a4 fc ea 3b 49 56 4a 3d
       0.05558985 0.08780862 0.0071712304 0.049398694
000390 17 ac 36 be 61 eb 9a 3d bc c7 36 bd 41 d3 a8 bd
       -0.17839085 0.07564426 -0.044624075 -0.082434185
0003a0 ac 41 41 bd 97 8c 05 3c 5d f3 05 3e da 42 bc bd
       -0.04718177 0.008151195 0.13081117 -0.091924384
0003b0 da 5a 82 3c 66 4b e7 3c 29 9f 9c 3c 03 d7 01 bd
       0.015912462 0.028234195 0.019118862 -0.03169919
0003c0 fe d8 0b be ff 3c a2 bd 79 17 03 be ea c2 4f 3d
       -0.13656995 -0.0792179 -0.12801923 0.050722994
0003d0 d2 29 0f be 19 6e ab bd 40 7f 98 bd 8d 7d c5 3c
       -0.13980797 -0.08370609 -0.07446146 0.024107719
0003e0 4c 25 cf bd 3b 2b 95 bb 19 4c ee bd c3 a8 7b bd
       -0.10114536 -0.0045522726 -0.11635608 -0.06144024
0003f0 f0 65 1f 3e 75 4f b1 3c 90 87 09 bd 96 c2 c0 3d
       0.1556623 0.021644333 -0.033576548 0.09412114

lstm_layer.bias_ih_l0 f4 [256]
000000 99 a0 a5 bd 30 95 82 3d cd d7 29 3e 6b 01 40 3c
       -0.08087272 0.063761115 0.16586228 0.011719088
000010 07 05 29 3d e1 86 bc 3d b4 19 70 3d cf 7d e8 3d
       0.04126456 0.092054136 0.058618262 0.11352121
000020 0e 3a fa bc dc 15 89 bb 76 32 44 bd 6a 69 2b 3d
       -0.03054526 -0.004183514 -0.047899686 0.041848578
000030 cb e4 fd 3d e7 a1 8f bc 6a 4c bb 3d c0 08 c0 3d
       0.123971544 -0.017533256 0.09145434 0.09376669
000040 4c db 13 3e dc 5e 7c 3d a7 70 04 be f1 22 0c 3e
       0.14439124 0.061613902 -0.12933598 0.13685204
000050 7f 1a 94 bd ab b2 84 bd 43 c0 4e 3d eb f0 a9 3d
       -0.07231616 -0.06479391 0.050476324 0.082979046
000060 3d 48 55 3d 61 bc b7 3d 82 e7 e0 3d 0c 4b f0 3c
       0.052070845 0.08971477 0.109816566 0.02933266
000070 14 af fe 3d 69 f4 dc bd 4a bd 3f 3d 65 a1 2c bd
       0.12435737 -0.10788805 0.04681138 -0.042146105
000080 b4 bb a4 bd d7 9d 36 3e 14 11 a4 3d 75 c0 98 3d
       -0.08043614 0.17833649 0.0801107 0.07458583
000090 65 d2 df 3c e4 fe 1b 3e 42 6a 24 3d 49 07 19 bd
       0.027322004 0.15233952 0.040140398 -0.037360463
0000a0 54 56 84 3e 58 4a ad 3c 91 eb f4 3b 22 d9 cb 3b
       0.25847113 0.021153614 0.0074743708 0.0062209526
0000b0 86 cc dc bd 4a e8 eb 3c 16 d1 33 3c 2c d9 91 bd
       -0.10781197 0.028797287 0.010975143 -0.071215004
0000c0 9d fb e0 bc 3c dc e2 3d f7 ef 06 be 5f ac 0d bd
       -0.027463729 0.110771626 -0.13177477 -0.034588214
0000d0 95 ad aa 3d 68 1e 27 3e ed cc af 3d e4 48 0e 3e
       0.083338894 0.16320193 0.08584008 0.13894993
0000e0 a8 3f e8 3d 95 e7 8d 3d 00 b1 b1 3d d7 1f d0 bb
       0.113402665 0.069289364 0.08676338 -0.006351452
0000f0 86 45 b9 3d f5 8c 9c bd 98 cc 10 3d 2d 55 37 bd
       0.09046464 -0.07644073 0.035351366 -0.044758964
000100 1f f8 b7 3d 9c b2 9e 3d 95 cd d2 3d 0e 7e f7 3d
       0.08982872 0.07748911 0.10293118 0.1208459
000110 f5 e2 e5 3d eb be 0c 3e 94 bc 71 3c 68 cf 89 3d
       0.11224929 0.13744704 0.014754433 0.06729013
000120 b5 5f aa bd 71 19 67 3c cd 33 81 bc 47 ab 82 3d
       -0.08319036 0.014105187 -0.01577177 0.06380325
000130 02 e7 e5 bd 4e 9f ac 3d ce 22 aa bd 91 fe ef 3c
       -0.11225702 0.084288225 -0.0830742 0.029296191
000140 6b dc b9 bc d8 55 9c 3d 99 67 a0 3d 56 de 71 3e
       -0.022688111 0.07633561 0.0783226 0.2361997
000150 03 1e ab ba 89 fa 05 be 80 99 58 bb f8 de 6a 3c
       -0.0013055209 -0.13083853 -0.0033050478 0.014335386
000160 9c 8a 92 3d d1 64 4e bc 3f 36 9b 3d 9b bc 5f 3e
       0.07155344 -0.012597279 0.07578706 0.21849291
000170 b4 23 04 3e f6 a0 37 3d 7f 81 6e 3d 02 66 40 be
       0.12904245 0.04483124 0.058228966 -0.18788913
000180 5c 54 29 bc d6 ad ae 3d 04 93 02 bd 87 08 1c 3d
       -0.010335054 0.0852925 -0.031878486 0.03809407
000190 61 12 84 3d 1f 34 0b bc 30 ec 70 bd f7 26 9c bc
       0.06448818 -0.008496313 -0.058818996 -0.019061549
0001a0 bf 28 8a 3e f4 77 09 be 35 76 e0 3d 1b 02 97 bc
       0.26984212 -0.13424665 0.10960046 -0.018433621
0001b0 b8 34 89 39 a7 28 29 3c 5c 2b f1 3c c9 9f d3 bd
       0.00026169955 0.010324634 0.02943962 -0.10333211
0001c0 73 ba 23 bb 2a f9 02 3d 2c ae d2 3c f8 95 de 3d
       -0.0024982959 0.031975903 0.025717817 0.10868448
0001d0 45 ca 2d 3d 87 7f 83 3d ef 5e 07 bd d7 1a 2f 3e
       0.042429227 0.06420808 -0.03304952 0.17100082
0001e0 a1 b8 91 3d 5f b4 9f 3d 7a 41 05 be b8 72 8b 3d
       0.07115293 0.07798075 -0.13013259 0.0680899
0001f0 a5 3b bb bc 3b 01 b1 bd 30 90 15 3d 96 df 9e 3c
       -0.02285559 -0.08642813 0.03651446 0.019393723
000200 7d 4c de 3d 90 a9 d7 bc 38 fc 75 bc ae 99 a7 3c
       0.10854433 -0.02632597 -0.015013747 0.020459022
000210 1a 15 15 3d 3e 90 d3 3d b3 3e dd bd fd 15 b7 3d
       0.036397077 0.103302464 -0.108029746 0.08939741
000220 14 f5 16 3d b3 a4 53 bc 9f 9b e3 bd a9 00 ac 3d
       0.03685482 -0.012917685 -0.11113667 0.083985634
000230 1d ec 2d 3d 64 c8 69 bd e8 aa a1 bd 1e 51 d7 3d
       0.042461503 -0.057075873 -0.07893926 0.10513519
000240 ab 25 a4 bd ce f9 f5 bd ac 3c 33 bd a0 74 8d 3d
       -0.08014997 -0.12010537 -0.043759033 0.0690701
000250 b9 e6 8f 3d ea 20 52 bc ee 52 42 3b d1 5c 16 3d
       0.07026429 -0.01282523 0.002965148 0.03670961
000260 6c c0 00 bd f2 7e 07 be ad 51 d7 bd 17 ce f3 3c
       -0.031433508 -0.1323202 -0.10513625 0.029761357
000270 ad ba 18 bd 95 93 a7 3d d9 72 0f 3d 92 eb 84 3c
       -0.037287403 0.08182446 0.035021637 0.01622561
000280 0e 43 2f 3d 7b 5c f5 bd 3b 04 9e 3d 4e f0 eb 3d
       0.042788558 -0.1198053 0.07715651 0.11520444
000290 8d 1e ec 3d 1b 75 c0 bd 15 61 b3 3c d7 90 d2 bc
       0.115292646 -0.09397336 0.021896878 -0.02570383
0002a0 87 1f 20 3d 76 b9 63 3d ec 5f 8d bd 38 32 b0 3d
       0.039092567 0.05559679 -0.06903061 0.086033285
0002b0 a9 93 88 3c 8d f7 69 bd da b7 a6 3d fd 3e 86 bc
       0.016671972 -0.05712085 0.08140536 -0.016387457
0002c0 94 f5 c0 bd ea 70 c3 bd 25 da 73 3d 89 b2 de 3d
       -0.0942184 -0.09543021 0.05953421 0.10873897
0002d0 ed 6e 8c 3d 9c 01 3c bd 35 2d 9d 3d b9 19 ab 3d
       0.06857095 -0.045899972 0.07674638 0.083545156
0002e0 0f 59 a7 3c aa 92 c3 3d b7 f1 57 3d 11 5c f4 bc
       0.020428209 0.09549458 0.05272075 -0.029829057
0002f0 a5 5d 7e bd 95 7b 82 bd 7a 9c b8 bc df 00 1b 3c
       -0.062101025 -0.06371228 -0.022535551 0.009460657
000300 70 17 1b be 55 b4 df bd b4 30 28 3e 0e c7 1c 3e
       -0.1514566 -0.109230675 0.16424829 0.15310308
000310 92 93 8f 3d 7d a3 22 3e 68 4e ad 3d 9b ce ee 3d
       0.07010569 0.15882678 0.084622204 0.116605006
000320 a4 06 fa 3d cc de a1 3d 71 0a cd bd 57 ad b1 3b
       0.12208298 0.07903823 -0.10011757 0.005422275
000330 63 68 b2 3d 06 54 75 3c 0d a2 c6 bd 68 b8 b9 bc
       0.087113164 0.014973646 -0.096988775 -0.02267094
000340 18 42 3d 3d f7 6e 2b 3e 74 09 e4 bd a6 92 35 3c
       0.04620561 0.16741548 -0.111346155 0.011082327
000350 10 45 0e be e0 13 44 bd c4 74 37 3d e9 56 64 bd
       -0.13893533 -0.047870517 0.04478909 -0.055746946
000360 97 76 e5 3c 42 fe ce bd 63 7b e8 3d cb 38 35 3e
       0.02801065 -0.101070896 0.11351659 0.17697446
000370 8d fa ec bd 35 8e 0e be ad 7c 3b bd 02 70 a5 bc
       -0.11571226 -0.13921435 -0.045773197 -0.020195011
000380 49 2f da 3d 99 f0 e9 3d 57 75 ea 3b 89 a7 18 3d
       0.1065355 0.114228435 0.0071551013 0.03726915
000390 0b 9a f5 3d 43 ca b2 3d 54 51 17 3d 42 67 9f bd
       0.11992272 0.087299846 0.036942795 -0.07783367
0003a0 27 2d 65 3e 59 bd 09 3d e8 40 8f 3d 10 46 98 bc
       0.22380506 0.03362784 0.06994802 -0.018588096
0003b0 22 41 f1 bd f6 6a 78 3c 3c eb 33 bd b1 f0 f8 3d
       -0.11780001 0.01516222 -0.04392551 0.12155283
0003c0 f3 15 2e 3c 97 17 06 3d e1 df 03 bd a4 37 8a bd
       0.01062535 0.03273734 -0.03219593 -0.06748894
0003d0 ed 82 c7 bd 59 27 28 3e 16 09 2c bd 64 1a aa 3c
       -0.09741769 0.1642126 -0.042000853 0.020764537
0003e0 b0 d6 c3 3d 53 ba 26 3d ca 78 86 3d de f2 7c bd
       0.09562433 0.040705036 0.065660074 -0.061755054
0003f0 8d 3a c8 bd 1c 39 ca bd 8b 33 8d bd 62 d4 b6 bc
       -0.09776793 -0.09874174 -0.06894597 -0.022318069

lstm_layer.bias_hh_l0 f4 [256]
000000 6c b2 dd bd 35 6b 12 bd 70 34 e7 3d 32 92 5f 3d
       -0.10825047 -0.03574677 0.112892985 0.054582782
000010 7e c1 a3 bd d0 5d da bc 85 73 41 3e 6d df e7 3d
       -0.0799589 -0.026656061 0.18891723 0.11321912
000020 73 94 8f bd 53 2f 46 bd 42 eb a3 3d e1 ae 97 bc
       -0.07010736 -0.048384976 0.08003856 -0.018516006
000030 16 4c c4 3d 04 46 8d bd 8d ed 99 3c f6 31 86 bc
       0.09584825 -0.0689812 0.01879003 -0.016381245
000040 c9 c9 91 3d 67 72 41 3e 1a 26 86 3d 39 0f ed 3d
       0.071185656 0.18891297 0.06550236 0.11575169
000050 f6 88 37 3d 5b 3f b2 bc 14 a3 59 bd 91 8e f3 3d
       0.04480835 -0.021758726 -0.05313404 0.11892427
000060 66 e0 c1 3d 8b 30 d6 3d 60 d9 14 bc 23 c6 13 3e
       0.09466629 0.104584776 -0.009085029 0.14431052
000070 59 ec c9 bd fd cf 12 3d 91 3f 4a bb 98 77 cc bc
       -0.09859533 0.035842884 -0.0030860642 -0.02495937
000080 04 45 ed bd e7 2b 16 3e 51 84 e7 3c 2a 3b ee 3b
       -0.11585429 0.14665185 0.028261336 0.0072702365
000090 b9 ed 54 3e a6 76 24 3e ce da aa bd 79 d3 a8 bd
       0.20793809 0.16060886 -0.08342515 -0.0824346
0000a0 1c 2f 82 3e f0 08 dd bd 52 05 69 bd 8d 98 b8 3d
       0.25426567 -0.1079272 -0.05688984 0.09013472
0000b0 5b 10 5f 3d cf b0 b4 bd 1e 36 c6 bd 26 b8 b9 bc
       0.054458957 -0.08822786 -0.09678291 -0.022670817
0000c0 fd 4a a0 3d a3 e4 9b bd 53 53 db 3d 30 4c 44 3c
       0.07826803 -0.07611968 0.10709252 0.011981055
0000d0 b7 4a 23 bb 44 6a 23 3e d7 ad e4 3d df 0a e2 39
       -0.002491636 0.15958506 0.1116597 0.0004311418
0000e0 f6 3b 45 3d 95 da 83 bc 30 9d f0 3d bd 74 4c bd
       0.048152886 -0.016095439 0.11748731 -0.049916018
0000f0 0b ee 7e bd 73 14 51 3d e6 7d 2b 3d d9 29 18 bd
       -0.062238734 0.051044893 0.041868113 -0.037149284
000100 a0 b5 94 3c 64 11 66 bd fb b8 33 bd 44 70 bb 3d
       0.018153012 -0.05616893 -0.043877583 0.09152272
000110 57 b2 0b 3c 55 4f ff 3d 3a ff 82 3d b0 1a ed bd
       0.008526406 0.12466303 0.06396337 -0.11577356
000120 e1 8b 64 3d 99 0f 05 bd e0 0b 5d 3d 2d 7f 90 3c
       0.05579746 -0.03248558 0.053966403 0.017638767
000130 36 3f b4 3d 1e 33 a2 bd 5c 86 16 be 76 91 2b 3c
       0.08801119 -0.07919906 -0.14699692 0.010471692
000140 72 66 01 3d c1 e7 59 3e c9 9d e1 3d 6d 43 b5 3d
       0.03159184 0.21279813 0.11016423 0.08850751
000150 f7 56 6f 3d ef 15 9a bd 3d 33 0a 3e bc 10 e1 bc
       0.058432546 -0.07523715 0.13496108 -0.0274738
000160 86 fc e3 bd 7d 9c 82 3d 85 06 dc 3d e6 a1 82 3d
       -0.111321494 0.06377504 0.10743431 0.06378536
000170 dc aa d0 3d 83 61 8c bc f6 91 8d 3d b8 46 40 be
       0.10188839 -0.017136341 0.069126055 -0.18776977
000180 54 58 ef bd e2 df e7 3c 5e 89 15 3e 75 c6 22 3e
       -0.11686769 0.028304998 0.14603183 0.15896018
000190 2a 7c b5 3d 9b c2 a5 3d d1 a2 00 3e cc f6 93 3d
       0.08861573 0.08093759 0.1256211 0.07224807
0001a0 f1 9e 28 3e 26 db 26 3d b3 d9 d5 3c 94 ef 97 3d
       0.16466881 0.04073634 0.026104784 0.07418743
0001b0 5a 61 d3 3c d6 1e 85 3d dd 5f 81 bd dd 51 bd bd
       0.025803257 0.06500022 -0.063171126 -0.0924413
0001c0 4e 5b fe bd f2 95 00 3d 1c c1 a9 3d a8 87 ea bd
       -0.12419759 0.031393 0.08288786 -0.114516556
0001d0 c1 42 e5 bd 22 a4 96 3d 6e 17 08 3e 80 15 b9 3d
       -0.11194373 0.073555246 0.13290188 0.09037304
0001e0 6f 62 6a bd 1b f8 bc bd 72 73 a0 bd 6b 56 7d bd
       -0.05722278 -0.0922701 -0.078345194 -0.061849993
0001f0 f1 09 9d 3d 15 6d a0 3d 12 d7 e2 3d 07 8e 0d bd
       0.07667912 0.07833306 0.11076178 -0.034559276
000200 2d 7c af bd cf 40 9a bd 65 f3 77 bd 8c a3 6a bd
       -0.085686065 -0.075318925 -0.060534853 -0.057284877
000210 e2 e7 17 be 1a f0 2a 3b 91 d8 30 3d 63 53 d4 bd
       -0.1483455 0.0026083053 0.043175284 -0.10367467
000220 44 c9 65 3d 44 73 d7 3d b7 e5 d2 3d d1 0b cc bd
       0.056100145 0.10520032 0.10297721 -0.09963191
000230 31 59 09 bd 56 7c cd bc 4c de 1c 3d 30 8e c5 bc
       -0.033532325 -0.025083702 0.038297936 -0.024115652
000240 24 83 f3 3c 9e e1 b7 bc 87 c5 9a bd 9b 3d 15 be
       0.029725619 -0.02244645 -0.075572066 -0.14574282
000250 3a d8 3d 3d e2 6f 5f 3d b8 a7 8f 3b 62 bf 91 bd
       0.046348788 0.05455006 0.0043840073 -0.071165815
000260 c8 36 b2 bd f6 73 47 3c 09 0f d0 bb 8f ae 6c 3d
       -0.08701855 0.012173643 -0.0063494486 0.05778366
000270 8e bb 30 3b e4 42 b6 3b 3e 86 a4 3d 92 8e 84 bd
       0.002696726 0.005562173 0.08033417 -0.06472506
000280 bb b9 75 bb cc 58 2a bd 3d 1e b3 3d 4f 55 33 3d
       -0.0037494737 -0.04158859 0.08746002 0.04378253
000290 6f f6 35 bd 68 9e 88 3c c0 e6 34 bc 27 a6 74 3d
       -0.04442447 0.016677096 -0.011041343 0.059728768
0002a0 23 b0 2c 3d 6a 3a 1b 3d 45 6e 7e bd f9 1d 9b bb
       0.042160165 0.037897505 -0.06211688 -0.0047337976
0002b0 4d a0 d8 3c 59 9e fb 3d 74 c7 c6 3d ae 3f a8 3d
       0.026443625 0.12286062 0.097060114 0.08215271
0002c0 d5 2c 43 3c 44 25 a3 3d 43 56 62 3d 77 09 bc bc
       0.011912544 0.07966092 0.055258047 -0.022953732
0002d0 57 b5 26 bd 98 97 f0 3d a0 f9 9d bb 2d 36 af bd
       -0.040700283 0.11747664 -0.0048210174 -0.08555255
0002e0 b2 b7 06 3d 2e a7 87 3d c7 20 80 3d 5c c4 94 3b
       0.03289003 0.06623684 0.06256252 0.0045400094
0002f0 1e f2 70 bb 97 72 05 bd 1e 61 a4 3d 33 25 48 bd
       -0.0036765407 -0.032579985 0.08026336 -0.0488636
000300 5f df 8e bd 20 c1 6f bd a4 08 12 3d 81 3e 84 3d
       -0.069761984 -0.058533788 0.03565277 0.06457234
000310 e3 9b 63 3d 2c 91 fa 3c 6b 2e 16 3e 83 3e f0 3d
       0.055568587 0.030586801 0.14666145 0.11730673
000320 ed 60 00 3e ec 32 2a bd 34 cc 3e 3d a2 b8 8e 3d
       0.12536974 -0.04155247 0.046581462 0.0696881
000330 ad c6 ab 3d cc 4f 45 bc b9 8f cb 3d 4c dc e1 3d
       0.08387504 -0.012042951 0.09939522 0.110283464
000340 f8 99 aa 3c d3 3b 5a 3d 68 48 6e 3d d7 0a bc 3d
       0.020825371 0.05327971 0.05817452 0.09181755
000350 5a 0b af bd 63 0e 8a bc 0a d5 e0 3c b0 fc d2 bd
       -0.08547087 -0.016852563 0.027445335 -0.103021026
000360 0b c4 bb 3d a2 bc ec bd 59 95 8a bd b5 46 0a bd
       0.091682516 -0.11559416 -0.06766767 -0.033758838
000370 87 33 d6 3d 4e 5e e2 3c 30 31 2b bd 86 cc 1a 3e
       0.10459047 0.027632859 -0.041794956 0.15117082
000380 01 9d b9 3c 87 e8 07 3d c7 54 1d 3e b2 09 62 bd
       0.022657873 0.03318074 0.15364371 -0.055185027
000390 e9 72 d1 bb 9b 73 89 3d 48 be b1 3c 1d 02 23 bd
       -0.006391872 0.06711503 0.021697178 -0.039796937
0003a0 eb 8a 2e 3e fe 75 d3 3d b6 73 98 3d e9 5c 19 3d
       0.1704518 0.103252396 0.07443945 0.03744212
0003b0 aa dc 57 ba 60 3b 99 bd f1 ef 92 3d 49 d6 2a 3c
       -0.00082344806 -0.07482028 0.071746714 0.010427066
0003c0 ea d1 fb bd c2 d7 c1 bc de 6b a6 3d ed b3 1c 3c
       -0.12295897 -0.023662452 0.08126043 0.009564382
0003d0 d6 9e 8a 3d f3 26 16 3e 54 1d b9 3d dd fe 60 3b
       0.06768577 0.14663295 0.09038797 0.0034331598
0003e0 07 7d 06 be 87 4e 50 3d 45 9e ae 3d 8c c6 76 3d
       -0.13133632 0.05085614 0.08526281 0.060247943
0003f0 6d 42 65 bc ce 29 ef 3c 9f 92 bb bc 80 4d c3 bd
       -0.013992888 0.029194739 -0.022897063 -0.09536266

lstm_layer.weight_ih_l1 f4 [256, 64]
000000 f0 c0 90 bd 13 d6 c3 3d b9 33 b5 bd f3 d5 ea 3d
       -0.0706805 0.09562316 -0.08847756 0.11466589
000010 3f 57 d2 bc 94 fb b1 bd 30 2f 48 3d 8a ec d3 3c
       -0.025676368 -0.08690563 0.048873127 0.025869627
000020 51 26 cf 3c 7f d9 e1 bd 20 92 c7 bd e4 51 70 bd
       0.025286825 -0.11027812 -0.09744668 -0.058671847
000030 d1 95 62 3c 7d 5e 81 bd 1e d3 63 3d e5 41 dc 3d
       0.013829664 -0.0631685 0.05562126 0.10754756
000040 a4 f8 fd 3d 9e 2c 13 3e 4e 46 02 3e a4 6a 2d 3c
       0.1240094 0.14372489 0.12722132 0.010584507
000050 55 75 92 bd 5e 55 96 bd f1 a3 9a 3d 52 38 90 bd
       -0.071512856 -0.07340501 0.075508006 -0.07041992
000060 3b 68 f4 3c c7 28 7b bc 27 43 cc 3d 4d ab af bd
       0.029834857 -0.015329546 0.09973746 -0.08577595
000070 a7 42 99 3d aa 69 70 bd 21 24 8b 3d d0 e2 b5 bd
       0.07483416 -0.05869452 0.067940004 -0.08881152
000080 56 21 94 3d 14 23 ef 3d b0 7e 1c be ec 00 5a bc
       0.07232921 0.116766125 -0.15282702 -0.013305884
000090 f0 a5 f0 bd 3a 21 bb 3d 56 24 38 3c 6d 99 6a 3d
       -0.117504 0.09137197 0.011239132 0.057275224
0000a0 43 7a 49 3d 3e 08 4e bd 8b 15 37 3c 12 d7 34 bd
       0.049188863 -0.05030083 0.01117457 -0.04415042
0000b0 89 6e 5a 3c 4a 49 b9 bd 02 8c 68 3d 0a a4 85 ba
       0.013332018 -0.09047182 0.056774147 -0.0010195982
0000c0 62 c5 87 3d 3e 76 04 bd bd a2 f9 bd 6a 6e 64 3d
       0.06629445 -0.032339327 -0.12189243 0.05576936
0000d0 5c 28 d3 3b ca af 5a bd c5 f6 80 3c 1a a9 6b bd
       0.00644402 -0.0533903 0.015742669 -0.057534315
0000e0 16 6b d0 bd 2d 1c 7c 3d ea 3c b0 bd 41 bc a2 3d
       -0.10176675 0.061550308 -0.086053684 0.07946063
0000f0 fb 29 a9 3d 8e b6 db 3d e5 62 e2 bd a4 20 d6 bd
       0.0825996 0.10728179 -0.11054019 -0.104554445
000100 23 d4 cd 3c 9d 3c 95 3d 2e 23 2a bd fe f1 a7 bd
       0.025125569 0.07286952 -0.041537456 -0.08200453
000110 e3 bf a7 3d 0a 2c 08 3e d5 2d ae 3d 8e 02 8c bb
       0.08190896 0.1329805 0.085048355 -0.0042727655
000120 80 db 25 3e 5a f5 f0 3d dc 1d 14 bd dc 17 13 3c
       0.16197014 0.11765547 -0.03616129 0.0089778565
000130 e9 11 bc bd c2 81 a6 3d cf 2d d7 bc ec 63 05 3c
       -0.091831036 0.08130218 -0.02626696 0.008141499
000140 6e 31 bb bd 1a 48 5f 3c 8c cf 52 bb 08 5e fe bd
       -0.09140287 0.01362803 -0.0032167165 -0.12420279
000150 e1 39 02 bd b0 b3 64 bd 53 17 95 bd ec c3 79 bd
       -0.03179348 -0.055835426 -0.07279839 -0.06097786
000160 c4 19 62 3d 03 2d 05 be 69 42 bd bd 9c 8c 9a 3d
       0.055200353 -0.13005452 -0.09241182 0.0754635
000170 a6 bb d4 3d 10 07 0e be f3 f8 a7 bd 5e 11 20 bc
       0.103873536 -0.13869882 -0.0820178 -0.009769766
000180 f2 6a 83 bd 43 4b b2 3d 18 70 11 3d 67 6f 07 3c
       -0.064168826 0.08705761 0.03550729 0.0082663065
000190 63 8b fc bc e7 22 28 bb 4c 5b 17 bd 99 ab 18 be
       -0.030828184 -0.002565557 -0.0369523 -0.1490921
0001a0 09 70 26 bd 2d 83 97 3b b2 97 4e 3d 61 79 fe bd
       -0.04063419 0.0046237917 0.050437637 -0.12425495
0001b0 f3 72 12 3e a4 34 c6 3b ff 47 0c 3e 30 39 8a 3d
       0.14301662 0.0060487557 0.1369934 0.06749189
0001c0 07 70 46 bc 63 d3 0e be 93 73 35 3d 04 2f f7 3d
       -0.01211167 -0.13947825 0.044299673 0.120695144
0001d0 ee 96 ea bd 62 52 c2 bd 1b 99 d0 bb 27 22 05 3d
       -0.11454569 -0.094883695 -0.006365908 0.032503273
0001e0 10 df 38 bd 23 0e 2d 3c ca 9c 62 bd a8 9a 37 bd
       -0.045134604 0.0105624525 -0.055325307 -0.044825226
0001f0 58 c0 ae bc 91 5b ab bc 4a cd bc bd f6 5f fa 3d
       -0.021331951 -0.020917686 -0.09218843 0.12225334
000200 7b 44 b0 3b 4f d9 93 bd 29 98 d1 bc 88 5f 23 3e
       0.0053792573 -0.07219183 -0.02558525 0.15954411
000210 fc c3 d7 bd 15 65 61 bd 84 10 89 bd ed b6 48 bd
       -0.10535428 -0.05502804 -0.06692603 -0.049002577
000220 4e 3e d8 3d 0f e8 8e 3c fe 15 f8 bd 84 ec f7 bd
       0.10558759 0.017444639 -0.1211357 -0.12105659
000230 3c 1b 53 bd fc c5 0c 3e 7e 2b 11 bb ba 32 04 be
       -0.051539645 0.137474 -0.0022151168 -0.12909976
000240 85 b4 93 3d f0 cf d9 bd 75 7d 21 3c b4 c2 92 3c
       0.07212166 -0.10635364 0.009856571 0.017915107
000250 ba fe e1 bd 84 32 85 3d 2c c2 82 3d f7 3d c0 bc
       -0.11034913 0.06503776 0.063846916 -0.023467047
000260 06 cb 02 3e 84 f7 fb 3c 57 d4 21 3c e3 26 63 bd
       0.1277276 0.030757673 0.009877286 -0.055457007
000270 a7 92 23 bd 99 5b c6 bd a8 15 50 bd e3 20 74 3c
       -0.03993478 -0.096854396 -0.050801903 0.014900419
000280 f0 22 9b bd 4d 0f 8b 3c c3 1c 26 ba 60 37 d3 3c
       -0.07575023 0.01697507 -0.0006336683 0.02578324
000290 71 31 96 3c 83 78 03 3e 49 f5 e5 bd dd dc 6a bc
       0.018334122 0.1283894 -0.11228425 -0.0143348845
0002a0 d8 3a 97 bd 6c 83 58 bd 15 2c 02 3e d1 eb 96 bc
       -0.073842704 -0.05285971 0.12712128 -0.018422993
0002b0 17 81 99 bd 99 18 f0 3c cb 8f 16 bc 93 f7 c3 3c
       -0.07495325 0.029308604 -0.009189556 0.023921764
0002c0 7a 55 ee bd 8a ac 4a bd 80 81 95 bd 95 85 6f bd
       -0.11637397 -0.049480952 -0.07300091 -0.058477003
0002d0 f4 be 19 be f9 e9 d5 3d 94 09 71 bb 80 39 56 bd
       -0.15014249 0.10445017 -0.003677939 -0.05230093
0002e0 eb 92 ff 3c 96 ea a7 3c 03 f6 87 3d 05 b7 dc bd
       0.031197986 0.020497601 0.0663872 -0.10777096
0002f0 62 dc ba 3d 3d 00 05 3e 1f 00 01 be d1 f0 23 3d
       0.09124066 0.12988372 -0.12597702 0.040024582
000300 98 6e 01 be 18 4e 62 ba 11 31 e7 3d ad c3 3a 3c
       -0.12639844 -0.00086328527 0.112886555 0.011399192
000310 23 4d 4f 3b b1 38 09 3d 54 55 0c 3e f6 47 5d 3d
       0.003163167 0.03350133 0.13704425 0.054023705
000320 d2 e1 65 bc e5 0a b4 bb bc 17 ce bd d2 28 67 bd
       -0.014030891 -0.005494463 -0.10063121 -0.056435414
000330 a9 4c f6 3d ec 79 89 bd 12 d3 d8 bc b2 a9 f8 bd
       0.120263405 -0.06712708 -0.026467834 -0.12141742
000340 84 2a 03 3e 6f 53 0a 3e 05 98 87 3d d1 21 8c bd
       0.12809187 0.1350839 0.06620792 -0.068423875
000350 3c 12 2e 3d 91 70 85 bd ae 68 4f 3a 37 31 b2 3d
       0.04249786 -0.06515611 0.0007912022 0.08700793
000360 02 85 8e ba ce 1f e9 bd 37 3b 02 3e 13 6a d2 bd
       -0.001087338 -0.113830194 0.12717901 -0.10274138
000370 2c 4a fc 3c 5f 4c 50 3c b9 a3 04 be a8 c4 59 3d
       0.030797087 0.012713521 -0.1295308 0.05316606
000380 01 88 a5 bd 29 d9 22 3d 6a 99 7f 3d 28 6e b4 3d
       -0.08082581 0.03975788 0.062402166 0.08810073
000390 0b b3 c4 bb a1 65 f1 3d 37 fc 59 3d f8 bf 3e 3c
       -0.006002789 0.11786962 0.053219046 0.011642449
0003a0 d5 40 3d be de 35 c7 bd 48 b3 dc bd 5d 28 ce bd
       -0.18481763 -0.09727071 -0.10776383 -0.100662924
0003b0 19 f4 ae bb c7 2f b5 3d 13 a2 7d 3d b2 b5 0d bd
       -0.0053391573 0.088470034 0.061922144 -0.034597106
0003c0 ff f9 5c bd bc 6c 78 3d 21 2b 95 bd 52 e3 13 3c
       -0.053949352 0.060650572 -0.07283617 0.009026365
0003d0 70 a1 a3 bc b0 e2 8e bd 46 e6 d3 bd a6 f2 45 3d
       -0.01997444 -0.06976831 -0.103466555 0.04832711
0003e0 57 52 45 3d 1a 6d ff bb 4d b0 42 3c 0d 6a c6 3d
       0.04817423 -0.0077949883 0.011882854 0.09688196
0003f0 84 b1 8e bd e5 92 94 bb a1 0d 9c bc 4a f2 a7 3d
       -0.06967452 -0.0045341128 -0.019049468 0.0820051

lstm_layer.weight_hh_l1 f4 [256, 64]
000000 67 49 ed 3d d6 3e cb 3d b4 e8 b8 ba f5 3a c7 bc
       0.11586266 0.099240944 -0.0014107437 -0.024320105
000010 37 93 89 bd 97 eb d5 bb a1 cd 0a bd 23 2a 54 3d
       -0.06717532 -0.0065283286 -0.03388751 0.051797997
000020 c0 92 a7 bc a3 f9 17 3d 21 58 d1 bc 2a f1 71 bd
       -0.020455718 0.037103307 -0.025554718 -0.059067883
000030 4f 60 d9 bd c6 c9 09 be 50 74 0a ba 1e de 9b 3d
       -0.106140725 -0.13455877 -0.0005281614 0.07610725
000040 a0 58 ad bc 55 ab 9c 3c c7 6f 97 3d 13 7a f2 3c
       -0.021160424 0.019124666 0.07394367 0.029599225
000050 2c cb df bd 00 2d a6 3d af 12 d9 bd 5f 87 2d bc
       -0.10927424 0.08114052 -0.10599267 -0.010591357
000060 a8 43 38 3c f3 d3 b4 bd 5e 65 9e bc d5 e1 c1 3d
       0.011246599 -0.088294886 -0.019335445 0.09466902
000070 0e 0a d3 bd 98 a9 f2 bd 74 aa 66 3d 79 16 db bd
       -0.10304652 -0.11848754 0.0563149 -0.10697646
000080 6c 7a a8 3d f6 aa 2f bd c9 81 b3 bd a0 2b 05 bd
       0.08226475 -0.04288765 -0.08764989 -0.032512307
000090 6e 9c 73 3d d0 99 86 bd 7a 97 b5 3d 6f af aa 3d
       0.059475355 -0.06572306 0.088667825 0.083342426
0000a0 ce 76 83 bd 76 5d 9b bd 5b 6b 2b bd e7 50 9e bc
       -0.064191446 -0.07586186 -0.04185043 -0.019325687
0000b0 fe 42 13 3e 8e 93 0a 3d cf fe 9f 3d 07 b8 a8 bc
       0.14381024 0.033832125 0.07812273 -0.020595564
0000c0 29 ea 59 bd 8f 42 16 3d cb 34 13 3e 9f 7d 85 bd
       -0.05320183 0.03668457 0.14375608 -0.06518101
0000d0 f3 dd d1 bd 05 be 6a bd 89 81 58 3d 29 3c 0f 3e
       -0.102474116 -0.057310123 0.05285791 0.13987793
0000e0 7d 28 83 bd 26 06 b3 bd 2a 24 9a bd fa e9 71 bd
       -0.06404207 -0.08741407 -0.07526429 -0.059061028
0000f0 cb c6 9d bd 65 ea 82 bd 8f 2f af 3d 01 a0 47 bc
       -0.077039324 -0.063923635 0.08553993 -0.012184144
000100 3d 9a 1d be 1a 9f 11 3d bb ee 4a 3d 0a af 0f 3a
       -0.15390868 0.03555212 0.049544077 0.00054811
000110 ed 55 56 3d 8f ce 94 3d f9 12 31 bd e7 b5 aa bd
       0.05232804 0.072659604 -0.043230984 -0.08335476
000120 a6 42 d0 bc 4c dc 1e 3c b5 09 5c bc f2 9d 17 bd
       -0.025422405 0.009696078 -0.013430049 -0.037015863
000130 87 09 ae bd 15 85 55 3d ad 87 71 bd ed 35 eb 3d
       -0.08497911 0.05212887 -0.05896728 0.11484895
000140 9e 30 b2 bd b9 62 1a 3e 6b 73 c0 bd 90 7d c1 3d
       -0.08700679 0.15076722 -0.09397014 0.09447777
000150 24 84 97 3d cc 38 93 3d f2 5f 71 3d 6c b4 a7 bc
       0.07398251 0.071885675 0.05892939 -0.020471774
000160 28 c2 20 bd 2a 61 1f bc f5 a0 9d 3d 65 9a 3b bb
       -0.03924766 -0.009727756 0.07696716 -0.0028625962
000170 58 cd 86 bc e9 d7 c3 3d 0b 83 b6 bd 00 9e 8d bc
       -0.016455337 0.09562666 -0.08911713 -0.017287254
000180 be c0 e7 3d 3c 17 c4 bd 74 29 a1 3d 00 6b 9a bd
       0.113160595 -0.09574744 0.07869235 -0.0753994
000190 5f 74 23 bd 4e fd 6f bd db 03 d4 bd b9 91 01 ba
       -0.039905902 -0.05859118 -0.10352298 -0.0004942674
0001a0 c2 af 8d bb d2 14 18 3e db 40 ee 3d 1e 50 04 3d
       -0.0043239305 0.14851692 0.11633464 0.03230297
0001b0 44 98 e0 bd 70 b0 10 be e6 2e 9b 3c e2 da b4 3d
       -0.10966542 -0.14129806 0.018943261 0.08830811
0001c0 0f 5b 31 bd 63 f1 40 bd a7 23 70 3d a2 46 28 3c
       -0.04329973 -0.047105204 0.05862775 0.010270746
0001d0 fe a8 cc bb c9 fb 5c 3d 63 8a c3 bc 18 43 1b 3e
       -0.0062457314 0.05395106 -0.023869699 0.15162313
0001e0 a0 95 e2 bd 6b ff b9 bb b8 17 64 3b 02 06 95 bd
       -0.11063695 -0.0056762 0.0034804177 -0.072765365
0001f0 de 55 2c 3c 68 76 a4 3d 66 da 9d 3c 91 83 00 3e
       0.010518519 0.08030397 0.01926918 0.12550189
000200 4f 96 bf bd 45 d2 15 bd f6 20 70 bc dc 28 d4 bc
       -0.09354841 -0.03657748 -0.014656296 -0.02589839
000210 f2 f6 d6 bc a4 1a 72 3d 80 d5 e4 3d c5 45 52 3d
       -0.0262408 0.059107438 0.111735344 0.05133607
000220 bf f6 bc 3d 6c e8 14 3d e1 4e aa 3d db a9 c9 bd
       0.092267506 0.036354467 0.08315826 -0.098468505
000230 3d 13 95 bd 79 b6 21 bd 5f 05 0d bd ea 59 1f bc
       -0.0727906 -0.03948066 -0.03442895 -0.009726027
000240 f1 d7 b3 bd 70 9a b1 3d 4d b9 22 be d8 1d 29 bd
       -0.08781422 0.08672035 -0.15890999 -0.041288227
000250 5d 65 ef 3b 62 60 8a bd e1 63 0c 3e 6d 4d db bd
       0.0073057846 -0.06756665 0.13709976 -0.10708127
000260 88 4b 29 be 07 89 a9 bd 47 4a 0b 3d 15 3b 26 3b
       -0.16532719 -0.08278089 0.034006383 0.0025364805
000270 f3 bf a1 3d 63 63 53 bc b1 d2 0f be 77 6a d2 3d
       0.078979395 -0.012902114 -0.14045216 0.10274213
000280 fe ab 60 3d 52 05 28 bd e4 c1 d7 bc 0c 77 ac 3d
       0.054851525 -0.0410207 -0.026337571 0.08421144
000290 af 5f ab bc a3 e3 9c 3c 1c 03 99 bd 72 fd 0d 3d
       -0.020919649 0.019151514 -0.07471296 0.034665532
0002a0 9c 4c f6 3c 5a c5 d8 3d 83 e3 bb 3d 0f cd 96 bc
       0.030065827 0.10584517 0.09174254 -0.018408326
0002b0 4b a9 8d 3d 81 a8 f7 3b 51 3b 5d 3c 5f 86 0d be
       0.06917056 0.007557929 0.013502912 -0.1382079
0002c0 8a 94 18 3d 4f c0 33 3d 1d 58 97 3d be a2 62 3c
       0.037251033 0.04388457 0.07389853 0.013832746
0002d0 3f f6 03 be 82 04 1c bc 7c 5d c1 3c 78 60 0d 3d
       -0.12886904 -0.009522559 0.023604147 0.034515828
0002e0 1b d2 0b 3d 1c bd 9d bd 4b b2 e3 bc 6a ad 26 3e
       0.03413592 -0.077020854 -0.027794978 0.1627709
0002f0 8f f2 9d bd 6a f0 76 bd 38 c3 f8 3d b2 5b 00 bd
       -0.0771228 -0.06028787 0.1214661 -0.031337447
000300 ce fa 1a bb 23 5b 5b bd 8a 5e 98 3c 33 64 d4 3d
       -0.0023648026 -0.05355371 0.018599767 0.10370674
000310 07 af 5c bd ba 50 77 3d 86 7b a5 3d 99 04 04 be
       -0.053877857 0.06037972 0.08080201 -0.12892379
000320 a1 06 af 3d 6f f2 28 bd 64 cd a6 3d fc bb 40 bd
       0.08546186 -0.041246828 0.08144644 -0.047054276
000330 57 f1 08 3d 73 f4 7b bd 0c c3 5b bc 09 50 9b bd
       0.033433285 -0.06151242 -0.013413202 -0.07583625
000340 e8 1f 84 bb cb b7 a5 3d 50 e8 19 3d f8 ca a0 bd
       -0.004032124 0.08091696 0.037575066 -0.07851213
000350 a6 6d 33 3d fd f3 1e bd 41 82 e0 3d a2 58 3f 3d
       0.04380574 -0.038806904 0.10962344 0.046715386
000360 27 ca 55 bd 4b f7 ec 3d 04 0b b6 3d 58 e5 17 3e
       -0.05219474 0.11570605 0.0888882 0.14833581
000370 e6 d2 b7 3c d6 6e 4a 3d 48 4c 9c bc 2f 2f a6 3d
       0.022439431 0.049422108 -0.019079342 0.08114468
000380 12 80 47 bd 08 c5 aa 3c 6c f5 cb 3c 0b 0a 03 3e
       -0.04870612 0.020845905 0.0248973 0.127968
000390 75 d3 8b 3c 6b c3 8a bc 15 f1 df bd 1f 71 c2 bd
       0.017068604 -0.016938886 -0.109346546 -0.094942324
0003a0 b4 41 8b bd 2a e2 52 3d 3b 46 00 3e 86 7a 1c bd
       -0.06799641 0.051485218 0.12526791 -0.038202785
0003b0 23 a1 61 bd db cd 2c bd 08 fa f3 bb 43 08 0d bd
       -0.055085313 -0.042188507 -0.0074455775 -0.034431707
0003c0 57 02 c5 bc 9f d9 ce bd 9e b7 84 3d a8 ea af bd
       -0.024048967 -0.10100102 0.06480335 -0.08589679
0003d0 5d 42 06 be e7 39 3d 3b a2 b5 e2 3d 11 4c 51 bd
       -0.13111253 0.0028873624 0.110698 -0.051097933
0003e0 3f 10 1d be 65 5a 6c 3c de 68 b2 3a 72 9b 9f 3c
       -0.15338229 0.014425849 0.0013611575 0.019483302
0003f0 42 71 60 3d 69 41 5b 3d 99 17 e8 3d 9b 19 81 bd
       0.05479551 0.053529177 0.11332626 -0.06303712

lstm_layer.bias_ih_l1 f4 [256]
000000 7b dd 9d bd 57 a2 66 bd 90 31 c2 bc 85 00 cc 3d
       -0.0770826 -0.056307163 -0.023705274 0.099610366
000010 ea 6b 9d bd 4e f0 cb 3d 15 35 29 be b9 69 a5 bc
       -0.076865986 0.09957944 -0.16524155 -0.020192014
000020 fe 88 e3 bc 81 b5 32 bd b5 96 dd bd 65 63 87 3d
       -0.027775284 -0.043630127 -0.10819761 0.06610755
000030 e7 3d b2 bd 36 36 db 3d fe 1e 8f 3c 52 60 13 3d
       -0.08703213 0.10703699 0.017470833 0.03598053
000040 a3 95 92 bd ca 85 da 3d 2f fe d8 bd 48 23 c4 3d
       -0.07157447 0.106700495 -0.10595357 0.09577042
000050 81 66 f8 bd b5 ae dc 3c 8a 38 89 bd 02 91 68 3d
       -0.12128926 0.026938776 -0.06700237 0.056778915
000060 6e 46 03 3d 37 0b 38 3d 89 e7 82 3d d7 4e da 3c
       0.03204959 0.04493257 0.06391818 0.026648922
000070 de 33 e7 3d e6 b6 b0 bc 38 bb 83 3d 1e 32 b6 3d
       0.1128919 -0.021571588 0.064321935 0.08896278
000080 d7 47 56 3d 3b e2 b7 bd 75 31 29 3d f5 9c 93 bd
       0.052314606 -0.08978697 0.04130693 -0.072076716
000090 29 df 12 3c 0d 02 9c bd b0 24 bd bd 66 44 b4 3d
       0.008964338 -0.07617579 -0.09235513 0.088021085
0000a0 fc d9 e1 3d 76 eb 6e bd e3 31 3b 3d f6 1a ed bc
       0.11027905 -0.05833002 0.045701873 -0.02894352
0000b0 35 94 4d 3d f9 ca 24 bd 2c 07 99 bc a1 6e 36 bd
       0.05019017 -0.040232632 -0.018680178 -0.044539098
0000c0 e3 4c be 3d 83 f8 bf bc b6 e4 ee 3d 61 ef d4 3c
       0.09292009 -0.02343393 0.11664717 0.025993051
0000d0 95 b9 39 3d 3c a1 bb bc 33 86 be 3d 33 d2 e9 bd
       0.045343 -0.022904031 0.0930294 -0.114170454
0000e0 17 d1 a2 3d 1d 36 73 3d 4b ba c5 3b ee ed 85 3d
       0.07950037 0.05937778 0.0060341707 0.06539522
0000f0 85 89 04 be f0 98 d7 3d 4b 2a 2e bc c3 21 07 3c
       -0.12943085 0.105272174 -0.010630201 0.0082477955
000100 b5 92 1e bd 93 4b fc bc d5 2c a7 bd 0e ce 02 3c
       -0.03871413 -0.030797755 -0.08162848 0.007983698
000110 6a 35 16 3d 6f 2f 27 3d 29 5a f5 bd 17 e6 c3 bd
       0.036672033 0.04081672 -0.11980087 -0.095653705
000120 a8 75 1d 3d f3 65 f1 bd 56 f0 b0 3d 16 b9 7c 3d
       0.038442284 -0.117870234 0.086395904 0.06169995
000130 d1 14 e4 bc cc 07 19 bd e7 78 17 bd 38 1a 18 be
       -0.027841957 -0.03736095 -0.036980536 -0.14853752
000140 9d 53 cc 3d 08 28 0f 3d 30 22 00 3e a1 02 3b bd
       0.099768855 0.034950286 0.12513041 -0.045656804
000150 24 52 4b 3c 0e 5e 92 3b 1c 63 9a 3d d1 17 0e be
       0.012409721 0.0044667786 0.07538435 -0.13876273
000160 e5 5e d0 bc 37 6c c6 3d 46 f2 ca bd 63 49 c6 bd
       -0.025435874 0.09688609 -0.09909491 -0.09681966
000170 91 37 aa 3d ce 63 08 be 19 ff e4 bc 06 63 80 bd
       0.0831138 -0.13319322 -0.027953671 -0.06268887
000180 85 a7 11 be 38 9a cb bd 9d cd 18 be 04 0b 90 3d
       -0.1422406 -0.09941524 -0.14922185 0.07033351
000190 4b f3 a3 bd 0b 8f bc 3d b2 07 e4 3d 94 bc ca bd
       -0.08005389 0.09206971 0.1113428 -0.0989925
0001a0 73 3b 5a 3c dd 68 f9 bd 88 9b ea bd 1a ac b0 3b
       0.013319838 -0.12178204 -0.114554465 0.00539161
0001b0 84 72 ad bb ad 7b 60 3d c6 9a 02 be 93 76 8a bc
       -0.0052931923 0.054805446 -0.12754354 -0.016902244
0001c0 36 ea 37 bd c4 e2 44 bd 6d 78 b4 bd f2 37 87 bd
       -0.044901095 -0.048067823 -0.08812032 -0.066024676
0001d0 be 36 b5 bd b9 5b a0 bd 9e c7 8e bd d7 07 be bd
       -0.08848332 -0.07829995 -0.06971668 -0.09278839
0001e0 c7 d8 ae 3c f0 a1 f5 3d 99 db 03 3d 87 81 d1 3d
       0.021343602 0.11993778 0.032191847 0.102297835
0001f0 f6 88 db 3d b3 02 8c 3c 80 0b 01 3d 21 37 71 bd
       0.107194826 0.01709113 0.031505108 -0.058890466
000200 34 d2 ed bd 84 03 29 bc 5d a1 01 bc 97 db a7 3a
       -0.11612359 -0.01031578 -0.007912007 0.0012806532
000210 12 6e 7c 3d ab d2 06 3d 52 f2 39 3d 89 03 29 3d
       0.06162841 0.032915752 0.04539711 0.041263137
000220 06 37 0a bc fe 6e 13 3d 38 4f 86 3d 04 e3 0f 3d
       -0.00843597 0.035994522 0.065580785 0.03512861
000230 bd 90 6d bd 2a e5 00 3e af 37 f2 bd af 5b 94 bd
       -0.05799936 0.12587419 -0.11827027 -0.0724405
000240 26 e1 eb 3d e2 d9 37 bc 09 8c 70 3d a0 d3 2e 3d
       0.11517553 -0.011221381 0.058727298 0.04268229
000250 54 7a 82 3d c7 9e e9 3c 48 22 44 3d 27 bd a2 3d
       0.063709885 0.028518094 0.047884256 0.07946234
000260 91 33 65 3d b7 39 1a bb 59 fb e5 3d 5b c3 11 bc
       0.05595738 -0.0023532936 0.112295814 -0.008896674
000270 46 80 4e 3d 05 82 1e 3c 7d ef 08 3d e1 60 78 bd
       0.0504153 0.009674554 0.03343152 -0.060639266
000280 f0 e7 f2 ba fe 88 06 3e 3d 78 d3 bd 6c 25 81 bd
       -0.0018532258 0.13138196 -0.10325668 -0.06305966
000290 65 64 86 3d 35 22 b3 bd 32 e1 ab 3d 43 51 80 bd
       0.065621175 -0.08746759 0.08392562 -0.062654994
0002a0 38 83 50 bd 29 fa 02 3d a8 5d d5 bd 78 da 6b bb
       -0.05090639 0.031976853 -0.10418254 -0.0035988372
0002b0 c3 51 9b 3d de 82 04 3e 72 1b ac bd 11 b6 44 3d
       0.07583954 0.12940547 -0.08403672 0.048025195
0002c0 c1 00 a5 bd 3e bd a6 bd c8 47 e1 bd 68 af 09 3c
       -0.080567844 -0.08141564 -0.11000019 0.0084036365
0002d0 d6 c1 28 3d f5 9b 54 bd 9b 47 f5 3c 54 b5 af bd
       0.04120048 -0.051906545 0.02994137 -0.085795075
0002e0 41 e3 15 3c 86 84 a0 bd cf ef 07 bd 57 8f 53 bd
       0.00914842 -0.07837777 -0.033187684 -0.05165037
0002f0 33 0f bc bd a2 64 d8 bd e7 43 89 3d 04 d6 d3 bd
       -0.091825865 -0.10566069 0.067024045 -0.103435546
000300 4b ff 21 3d 2b c2 9a 3d c5 de 0e 3d 9c a2 9b bc
       0.039550107 0.07556566 0.03488042 -0.018998437
000310 83 de fb bd e1 38 a2 3d 26 39 dc 3c c2 f1 01 3e
       -0.122983 0.07921005 0.02688272 0.1268988
000320 be 72 5f bc 02 43 65 3b 82 9d a8 bb 35 d8 9e bc
       -0.0136381965 0.0034982567 -0.0051457295 -0.019390205
000330 2c 6a 36 bd b1 af f6 bd 58 a7 aa bd ec 28 46 bd
       -0.044534847 -0.12045229 -0.083326995 -0.04837887
000340 a5 e0 f4 3c ed ae ef 3d 26 b9 6e 3d c5 9a 07 be
       0.029892275 0.11703286 0.05828204 -0.13242634
000350 04 ef 2f bc 52 8d 4d 3c ef 86 2c bc 6f 60 9d bc
       -0.010738138 0.0125459 -0.010530218 -0.019211022
000360 f8 9e e0 3c 1a a0 04 bb f8 66 78 3d 27 bf 82 3c
       0.027419552 -0.002023703 0.060645074 0.01596029
000370 e6 d1 b8 3c 75 c2 48 3d 02 b6 02 3d 6e 3c 1a ba
       0.022561025 0.049013574 0.031911857 -0.00058836385
000380 f8 1d a5 3d 4a a5 62 3d 51 bd 9f 3d 58 e2 35 3d
       0.08062357 0.055333413 0.07799781 0.04440531
000390 db a1 7b 3d bc 7d 53 bc ca 25 bd 3d a3 3a 05 be
       0.061433654 -0.012908395 0.09235723 -0.1301065
0003a0 41 a8 e6 bd 06 35 12 bd 71 da 5a 3d 5b 31 0e be
       -0.11262561 -0.0356951 0.05343098 -0.13886015
0003b0 34 af b3 39 2e a2 a8 bd dc 22 b1 bd d1 c2 a4 bd
       0.00034272077 -0.08234058 -0.08649227 -0.08044971
0003c0 a2 c3 59 bd d3 7d b4 bc b7 db 02 bd 45 b7 59 bd
       -0.053165086 -0.022032654 -0.031947818 -0.053153295
0003d0 54 ba e5 bd ea 10 0d bd 5e e7 08 bd 78 8e 99 bd
       -0.1121718 -0.03443996 -0.033423774 -0.07497877
0003e0 94 53 46 bd 59 73 f1 3d 46 e9 3c 3d 29 22 e4 bd
       -0.04841955 0.11789579 0.046120904 -0.11139328
0003f0 d0 26 fa bd 8f 26 ef bd 75 16 68 bb c3 be 68 bd
       -0.12214434 -0.11677276 -0.0035413776 -0.05682255
