models/enhanced_model/model.pth (torch, 458789 bytes, 9 tensors)

lstm_layer.weight_ih_l0 f4 [384, 4]
0.05145426 0.0006671502 0.05137503 -0.028289638 0.11365528 -0.05409238 -0.09826208 0.044509996
0.13639279 0.053916693 0.027033549 -0.048644923 -0.091551065 0.029515417 -0.030636055 0.048329417
-0.03420204 -0.10477514 -0.03444171 -0.014877935 0.07895375 0.07189116 -0.068005525 -0.08084241
-0.03915064 0.0636308 0.07419194 -0.005679709 -0.040929664 -0.024733761 0.07777553 0.015722862
0.058308788 -0.033451602 -0.0016103681 -0.07172833 -0.071942694 0.08893915 0.06475513 -0.08722433
0.09421849 -0.0052128155 0.01056551 0.013970896 0.12759176 0.00061161356 -0.05305809 0.06558572
0.03700596 0.0138362385 -0.065436624 0.040770736 -0.06146715 0.0718377 0.034398288 0.0074595045
0.046994247 0.08097155 -0.019146588 0.007573183 0.07650264 -0.002488762 0.093219 -0.0012627481
-0.018570235 -0.057780273 0.119790055 0.1015535 0.06217207 -0.073405124 -0.06820658 0.06720394
0.028952602 0.015977321 0.07151388 0.029384004 -0.06295669 0.003245597 0.17623879 0.049796496
0.07373343 -0.096068785 0.17318495 0.034642164 0.011645894 -0.050730456 -0.0106100775 0.022223864
-0.09948538 0.03640424 -0.018162418 -0.03331206 0.0659501 0.123364046 0.077594995 -0.035220124
0.014491834 -0.0065339496 0.08780583 -0.046923224 0.014648756 0.0984062 0.09690579 0.08790402
-0.014614058 -0.005272042 0.037735775 -0.03847629 -0.032682147 -0.031221995 -0.07405638 -0.030149685
-0.027317416 -0.09308718 -0.097678006 0.06531683 -0.13521071 0.0048282696 -0.018810645 0.11261831
-0.058128003 0.05065661 0.09206286 0.03202739 0.036508586 -0.08254177 0.050065205 0.052766282
-0.035976544 -0.032813806 0.081112 0.0601669 0.006074537 -0.06699909 0.052158944 -0.04606902
0.13446842 0.08954261 0.0574131 -0.014715324 0.13761406 0.1253224 -0.058128633 0.008791395
0.12854828 0.0077206176 0.038353767 -0.000848788 0.06127136 0.08880921 0.012650122 0.026795598
0.13507122 0.030524958 -0.07584406 0.098150484 0.12357953 0.03376694 0.13232583 -0.026682748
-0.039077412 -0.002009848 0.06444927 -0.09522383 0.057796787 -0.024490682 -0.022403812 -0.040302195
0.038749844 0.093894064 -0.041649383 -0.014793084 -0.0340375 0.06578324 -0.0037010114 0.046096858
0.08530515 0.08636633 0.039042037 -0.011553999 0.0027258224 0.02344597 0.03126015 0.02575491
0.09867861 0.038642533 0.08928189 -0.034178503 0.09791149 0.03143334 0.056976188 -0.024537774
-0.039726235 -0.049938213 -0.02747262 0.07975214 0.027639277 -0.093313664 -0.083993204 0.019342765
-0.05279153 0.05354689 0.07169106 0.036033824 0.007028122 0.09171405 -0.09098577 0.020167772
0.13511495 0.09979135 0.09816958 0.062727764 0.095574155 -0.082650945 0.011912001 0.09315276
0.06343369 0.12291081 -0.009510452 0.033470303 -0.038001884 -0.074246645 0.04882627 0.00068807544
-0.007065609 -0.07523221 0.019057855 0.051566537 0.055171404 -0.047897022 -0.06605471 -0.06219816
0.11398808 -0.0022223236 0.04986743 0.02978307 -0.062272616 0.03645507 0.047487788 -0.09477263
0.03698318 0.06406167 0.0492742 -0.06867254 0.089927815 0.17701113 0.13998468 0.15466014
0.13386911 0.044341687 0.027710905 -0.020668859 -0.029344816 0.10987115 -0.085946985 0.04461057
00000000: b4c1 523d b1e3 2e3a a06e 523d acbf e7bc
00000010: 19c4 e83d f98f 5dbd a13d c9bd 1d50 363d
00000020: 8daa 0b3e c0d7 5c3d 7675 dd3c e63f 47bd
00000030: 207f bbbd 51ca f13c 77f8 fabc 11f5 453d
00000040: 7017 0cbd 5994 d6bd c012 0dbd 95c2 73bc
00000050: 81b2 a13d ac3b 933d 7b46 8bbd b590 a5bd
00000060: 6c5c 20bd dd50 823d f2f1 973d da1c babb
00000070: dda5 27bd 759e cabc c748 9f3d 3bcd 803c
00000080: 32d5 6e3d 8c04 09bd fd12 d3ba 4de6 92bd
00000090: b156 93bd bb25 b63d 569e 843d aba2 b2bd
000000a0: a0f5 c03d 44d0 aabb f61a 2d3c 2fe6 643c
000000b0: 6aa7 023e b154 203a 7153 59bd ce51 863d
000000c0: 9093 173d 64b1 623c a303 86bd 37ff 263d
000000d0: fac4 7bbd a51f 933d 38e5 0c3d dc6e f43b
000000e0: 0a7d 403d 69d4 a53d 4ed9 9cbc 7728 f83b
000000f0: 6bad 9c3d 7f1a 23bb 9ae9 be3d cc82 a5ba
00000100: 9b20 98bc 02ab 6cbd 7d54 f53d 48fb cf3d
00000110: 24a8 7e3d 6d55 96bd e4af 8bbd 38a2 893d
00000120: 022e ed3c dfe2 823c de75 923d b9b6 f03c
00000130: 70ef 80bd 15b4 543b f177 343e 69f7 4b3d
00000140: 8d01 973d b6bf c4bd 6557 313e f1e4 0d3d
00000150: 6bce 3e3c bdca 4fbd e4d5 2dbc d20e b63c
00000160: febe cbbd 9d1c 153d 5ac9 94bc 3a72 08bd
00000170: d910 873d 4aa6 fc3d 20ea 9e3d fa42 10bd
00000180: 286f 6d3c be1a d6bb 8bd3 b33d 9132 40bd
00000190: 5601 703c 3189 c93d 8b76 c63d 0607 b43d
000001a0: cd6f 6fbc 18c1 acbb d490 1a3d 5099 1dbd
000001b0: b7dd 05bd 45c5 ffbc dfaa 97bd 79fc f6bc
000001c0: c6c8 dfbc 7ea4 bebd 680b c8bd d5c4 853d
000001d0: ad74 0abe 7636 9e3b c818 9abc 6ea4 e63d
000001e0: a117 6ebd 4e7d 4f3d 748b bc3d 272f 033d
000001f0: 078a 153d a90b a9bd 2c11 4d3d 7521 583d
00000200: 245c 13bd c567 06bd 0c1e a63d 9171 763d
00000210: e90c c73b d236 89bd 9ea4 553d deb2 3cbd
00000220: 17b2 093e 1e62 b73d 002a 6b3d 8b18 71bc
00000230: b3ea 0c3e 8454 003e 4a18 6ebd c909 103c
00000240: 29a2 033e 3cfd fc3b d718 1d3d 3381 5eba
00000250: adf7 7a3d 9ae1 b53d 7542 4f3c 7182 db3c
00000260: 1c50 0a3e 7a0f fa3c 2154 9bbd 1f03 c93d
00000270: 4417 fd3d 344f 0a3d 6c80 073e c795 dabc
00000280: a30f 20bd a7b7 03bb fbfd 833d b604 c3bd
00000290: 53bc 6c3d afa0 c8bc 3388 b7bc ea13 25bd
000002a0: 28b8 1e3d 884b c03d 8b98 2abd b15e 72bc
000002b0: e86a 0bbd 5db9 863d ab8c 72bb 0fd0 3c3d
000002c0: 77b4 ae3d d5e0 b03d 8bea 1f3d fc4c 3dbc
000002d0: b6a3 323b c311 c03c a50a 003d f6fb d23c
000002e0: 0318 ca3d a247 1e3d 6cd9 b63d c2fe 0bbd
000002f0: d285 c83d 3fc0 003d dd5f 693d 7103 c9bc
00000300: fab7 22bd 038c 4cbd 430e e1bc 1755 a33d
00000310: c46b e23c 3c1b bfbd a104 acbd b874 9e3c
00000320: ee3b 58bd fc53 5b3d c3d2 923d 3498 133d
00000330: 294c e63b 93d4 bb3d bf56 babd e236 a53c
00000340: 935b 0a3e 685f cc3d 220d c93d 6a77 803d
00000350: 62bc c33d e644 a9bd 8e2a 433c e0c6 be3d
00000360: 86e9 813d aab8 fb3d bad1 1bbc 2818 093d
00000370: dda7 1bbd a00e 98bd 0efe 473d f65f 343a
00000380: a086 e7bb 5813 9abd 381f 9c3c 6f37 533d
00000390: 69fb 613d ab2f 44bd b147 87bd 7fc3 7ebd
000003a0: 9572 e93d 67a4 11bb ca41 4c3d a0fb f33c
000003b0: 9211 7fbd e951 153d 8e82 423d 2718 c2bd
000003c0: ad7b 173d c432 833d bed3 493d 30a4 8cbd
000003d0: 132c b83d 6842 353e 2558 0f3e 3a5f 1e3e
000003e0: fc14 093e a19f 353d fb01 e33c bd51 a9bc
000003f0: 8a64 f0bc 2004 e13d f904 b0bd 93b9 363d

lstm_layer.weight_hh_l0 f4 [384, 96]
0.10673065 -0.0012706241 -0.049298212 -0.0477083 0.095151916 0.080857 0.07339343 0.01075049
0.0054986756 0.049235616 -0.014249188 0.04464089 -0.061128337 0.1501051 0.043050863 0.08018507
0.00038144962 0.0828793 0.08629214 0.12569664 -0.08084051 -0.08366158 0.04720109 0.07077736
0.01715164 0.068221495 0.08573535 0.029290503 -0.053580713 -0.038474325 -0.018727662 -0.0330465
0.006285057 0.060105354 0.07053019 0.054019656 -0.08872158 0.07130465 -0.054447934 0.06710228
0.0020750498 -0.026251692 -0.026843542 0.068641454 -0.08452324 0.041677743 -0.11167208 0.053879123
-0.007515831 0.08577311 0.08295835 0.098913565 -0.005293223 0.0057085715 -0.049207155 -0.06534774
-0.0766725 -0.027280523 -0.024452336 0.08364013 -0.016767552 -0.095426336 0.027311098 0.060047347
0.105762415 -0.07391186 0.006001777 -0.059155315 0.04274143 -0.0023640017 -0.043810252 -0.027068214
0.017624026 0.058239497 0.06275213 0.04265937 0.052873112 -0.013829062 -0.020909153 0.0068845768
-0.091761984 0.013167726 -0.030947896 0.0044578887 -0.07850517 0.0835859 -0.05972394 -0.09466645
0.061683338 0.09990961 -0.03965825 0.0779524 -0.007228524 0.016599843 -0.0063184635 -0.04542914
0.01991566 0.04271831 -0.040587947 0.01188628 0.036157366 -0.080334954 -0.032098792 -0.062389016
-0.050243277 -0.035702728 0.053140298 0.101980425 -0.07272868 0.12884142 0.02741219 0.017718807
0.023128657 0.09008387 -0.034396566 -0.026327139 -0.09447863 -0.07904539 0.01640116 -0.004939351
-0.04331975 0.08757642 0.025869688 0.0965997 -0.023112554 0.12921387 0.013978254 -0.034499977
-0.059007987 0.032939207 0.092825145 0.05647336 0.078564495 -0.017000359 -0.012536676 0.122500785
0.017662412 0.047354493 0.11397802 -0.036490705 0.053003497 0.0704239 -0.037447922 0.020350395
-0.019573843 0.035305277 0.03519758 -0.070225514 -0.01579981 -0.017923718 0.07429352 -0.07675885
-0.08955496 -0.02843019 -0.10735072 -0.10926907 -0.027607607 -0.07864051 -0.061262693 0.05750856
0.040888365 0.065444656 -0.07962593 0.006037463 0.07019741 -0.06560716 -0.09765559 0.022407876
-0.05495704 -0.043827157 0.0033865443 0.08194736 0.022103155 0.07521121 -0.038739003 -0.017536908
0.067527026 0.09538319 0.090066925 0.056384537 -0.06659126 0.10347763 -0.054266755 0.026295327
-0.0753156 0.08573946 -0.05615461 0.07166397 -0.08665971 -0.05033443 0.102732785 -0.060732614
0.09941838 -0.02708797 -0.10952338 0.15083581 0.111803725 -0.09681876 0.041063074 -0.039172813
-0.008330044 -0.0036955243 0.056871414 0.05076901 -0.12311777 -0.03851109 0.008593447 0.06266168
-0.018262189 -0.022978406 -0.0053901225 -0.047343154 -0.05705111 -0.111692294 0.0356886 0.05668719
-0.04978551 -0.05575165 0.123096466 0.07437858 0.078027576 -0.08962029 -0.0548226 -0.08283897
0.04814562 0.031620223 -0.042904448 -0.09529739 -0.052188452 0.07278925 0.01631935 -0.04423952
0.018749764 -0.10408994 0.13066338 0.06330129 -0.13309014 0.038047954 0.058489308 0.08098265
-0.014869001 0.0663193 0.025017729 -0.060236815 0.014850493 0.117218904 0.045307085 0.06551379
-0.010620318 0.044352368 -0.12046524 -0.11116697 -0.028429521 0.0028955722 0.09052597 0.036084525
00000000: 9995 da3d 128b a6ba ecec 49bd c769 43bd
00000010: 02df c23d 5b98 a53d 4b4f 963d d322 303c
00000020: 3c2e b43b 49ab 493d 6d75 69bc 5ed9 363d
00000030: b561 7abd 27b5 193e 1a56 303d 1238 a43d
00000040: 4dfd c739 9fbc a93d efb9 b03d 9fb6 003e
00000050: b68f a5bd c356 abbd ee55 413d b8f3 903d
00000060: 9981 8c3c b6b7 8b3d 0496 af3d a3f2 ef3c
00000070: 7377 5bbd 4197 1dbd c16a 99bc c45b 07bd
00000080: e1f2 cd3b 0831 763d 2272 903d b743 5d3d
00000090: a9b3 b5bd 2c08 923d cc04 5fbd ec6c 893d
000000a0: 8ffd 073b ca0d d7bc fde6 dbbc e493 8c3d
000000b0: 851a adbd 48b6 2a3d 55b4 e4bd 5bb0 5c3d
000000c0: 5c47 f6bb d0a9 af3d 11e6 a93d 3293 ca3d
000000d0: c672 adbb f80e bb3b 718d 49bd 09d5 85bd
000000e0: 7906 9dbd 677b dfbc 4450 c8bc 844b ab3d
000000f0: 1b5c 89bc e26e c3bd 86bb df3c 35f4 753d
00000100: f799 d83d 1a5f 97bd 8eaa c43b d84c 72bd
00000110: a311 2f3d 5eed 1abb 6172 33bd 29be ddbc
00000120: 4360 903c 8a8c 6e3d 3084 803d 97bb 2e3d
00000130: 7a91 583d 4a93 62bc ac49 abbc 0498 e13b
00000140: b5ed bbbd 72bd 573c 7186 fdbc 7b13 923b
00000150: 52c7 a0bd 162f ab3d 17a1 74bd 7ce0 c1bd
00000160: aba7 7c3d 699d cc3d b070 22bd 82a5 9f3d
00000170: 41dd ecbb 65fc 873c 1d0b cfbb e813 3abd
00000180: 2b26 a33c 65f9 2e3d 8c3f 26bd acbe 423c
00000190: bf19 143d a786 a4bd 067a 03bd a08b 7fbd
000001a0: e5cb 4dbd 063d 12bd a4a9 593d 1ddb d03d
000001b0: c6f2 94bd 01ef 033e 878f e03c 0827 913c
000001c0: 4f78 bd3c e47d b83d 6ae3 0cbd 03ac d7bc
000001d0: 037e c1bd 8de2 a1bd ba5b 863c 48da a1bb
000001e0: 0d70 31bd 445b b33d abec d33c 10d6 c53d
000001f0: 8a56 bdbc a450 043e 0c05 653c d94f 0dbd
00000200: 5cb2 71bd 43eb 063d 1c1b be3d 9c50 673d
00000210: 6ce6 a03d 5644 8bbc a166 4dbc b1e1 fa3d
00000220: c3b0 903c c9f6 413d 4f6d e93d 4777 15bd
00000230: 321a 593d 683a 903d fe62 19bd dfb5 a63c
00000240: 5359 a0bc 449c 103d 562b 103d 65d2 8fbd
00000250: 9a6e 81bc c3d4 92bc 3327 983d be33 9dbd
00000260: 9768 b7bd 6ee6 e8bc b2da dbbd 76c8 dfbd
00000270: 5929 e2bc 470e a1bd 97ee 7abd 198e 6b3d
00000280: 8f7a 273d d907 863d eb12 a3bd e9d5 c53b
00000290: a9c3 8f3d 0c5d 86bd a7ff c7bd b990 b73c
000002a0: a21a 61bd 1b84 33bd c9f0 5d3b 04d4 a73d
000002b0: ad11 b53c 5608 9a3d caac 1ebd 90a9 8fbc
000002c0: 9c4b 8a3d 4358 c33d 0275 b83d 79f3 663d
000002d0: 0061 88bd 14ec d33d d146 5ebd 4c69 d73c
000002e0: 113f 9abd 2c98 af3d 6002 66bd 8fc4 923d
000002f0: a57a b1bd 7a2b 4ebd 9165 d23d c3c2 78bd
00000300: dd9b cb3d 97e7 ddbc cb4d e0bd b474 1a3e
00000310: 5af9 e43d ea48 c6bd c131 283d ac73 20bd
00000320: bd7a 08bc 9c30 72bb 00f2 683d 2af3 4f3d
00000330: 2b25 fcbd cebd 1dbd 87cb 0c3c c454 803d
00000340: 969a 95bc 363d bcbc a09f b0bb e5ea 41bd
00000350: 6dae 69bd eebe e4bd 362e 123d d430 683d
00000360: e4eb 4bbd d85b 64bd 001a fc3d cc53 983d
00000370: eccc 9f3d d88a b7bd aa8d 60bd 7aa7 a9bd
00000380: 5734 453d 3584 013d 93bc 2fbd 472b c3bd
00000390: 8fc3 55bd 8812 953d 28b0 853c 8034 35bd
000003a0: 1b99 993c 1b2d d5bd 9fcc 053e 1ba4 813d
000003b0: c848 08be 2cd8 1b3d 7c92 6f3d 3bda a53d
000003c0: 1c9d 73bc 6ad2 873d fbf1 cc3c e1ba 76bd
000003d0: 7b4f 733c 7710 f03d ec93 393d 182c 863d
000003e0: d800 2ebc d4aa 353d 7bb6 f6bd 82ab e3bd
000003f0: 07e5 e8bc a4c3 3d3b ae65 b93d 5ecd 133d

lstm_layer.bias_ih_l0 f4 [384]
-0.06866465 -0.07459754 -0.011126309 0.1351904 0.007070292 0.050283298 0.035334058 -0.035236195
-0.003887913 0.07915561 0.104283005 -0.02273 0.03659737 0.12784739 0.026339062 -0.07469231
0.03298727 0.1049517 0.088785864 0.1567573 0.12783349 -0.021196822 0.18013124 0.009276311
0.10125639 0.080429845 0.0987009 0.011861315 0.020779736 0.047427375 0.119911484 0.09235261
0.007932342 0.04297888 -0.067232154 -0.03046076 0.08692205 -0.00021117895 -0.08026542 0.0056492025
-0.016856253 -0.0007608384 0.09704131 0.09340863 0.06681425 -0.023054125 -0.07640415 0.113208406
0.0454157 -0.026138654 0.059579495 0.10398751 -0.018175216 -0.03400449 0.123045884 0.01121225
0.016849337 -0.015132871 0.064592615 0.061565276 0.008666607 0.0422767 -0.040234827 0.05458893
0.045842726 -0.037966724 0.06348754 0.054855164 0.05679538 0.025080496 0.07107681 0.10739528
0.13790788 -0.07300934 -0.013969224 0.061784238 0.097745545 0.035025954 -0.057211686 -0.028231373
0.018722797 0.04651874 0.0011678269 0.06992355 0.007753512 -0.074774735 0.11056468 0.061569728
0.01907389 0.06386335 -0.06352682 0.100964256 -0.05240629 0.06521742 0.09787609 0.089728415
-0.0028892998 -0.096335515 0.07471669 0.005939896 -0.012310798 0.085025765 -0.010801651 0.039125677
0.0022861522 0.02736956 0.03873825 0.0024684428 0.023340251 0.07399008 0.014706072 -0.02203095
0.077710114 -0.033977162 0.010487356 0.10343274 0.17873171 0.07178757 0.13572302 -0.061687313
0.07607063 -0.00702109 0.084477626 0.024078457 -0.0050182985 0.0056508663 0.06385706 -0.030825324
-0.055894807 -0.068136774 0.12137147 0.044009283 -0.072629124 0.120080866 0.061951566 0.0386146
0.0812726 0.045723416 0.005061089 0.0949933 -0.051066563 -0.062391356 0.030194553 -0.0038882575
-0.026111012 -0.0737647 -0.09080669 -0.05189493 0.06462625 -0.06363961 0.116836086 -0.0781553
0.048748203 0.051912192 0.08529866 0.04875355 -0.07592254 0.06523426 -0.02527455 -0.07421534
0.1690766 0.038910627 0.024237499 0.07890283 0.037538443 0.007025073 0.069451675 0.017134896
-0.03857205 -0.05581665 -0.0146002015 0.08475497 0.048273142 0.15471867 0.006565377 0.0055498765
-0.043723397 -0.06645247 -0.04014397 0.03401264 -0.038241275 -0.019806076 -0.001385971 0.04588137
0.05510554 -0.036018804 -0.08512532 0.05201167 0.021599015 0.03987852 0.081854865 -0.079977274
0.01848642 -0.088404566 -0.07375967 0.05656451 -0.006360887 -0.05798011 -0.084095545 -0.06597097
0.06002844 -0.076011054 0.07705191 0.020679913 0.0037428038 0.06136015 0.078639776 0.08981463
-0.04992797 0.10228368 0.008280736 0.01732769 -0.020382546 -0.02495353 0.08098562 -0.03220352
0.08022351 0.08652455 0.064550795 -0.049428344 -0.037152532 -0.10270392 -0.062030435 0.036497768
-0.08310528 0.021029878 0.040455673 -0.032957483 -0.09487073 -0.008957052 -0.094207115 -0.04211827
-0.0976935 -0.061585147 -0.027982809 -0.04767876 -0.027428554 -0.08642335 0.05436055 0.018367143
0.001437014 -0.101511404 0.10779858 0.07607104 -0.06481966 0.0072050747 -0.020197712 -0.04381289
-0.005949073 0.055714995 -0.09259627 -0.027583882 -0.06211731 0.031015482 -0.038864434 0.02813624
00000000: 0da0 8cbd 98c6 98bd 1f4b 36bc 5a6f 0a3e
00000010: e8ad e73b dcf5 4d3d 72ba 103d d453 10bd
00000020: 5bcc 7ebb 561c a23d 5492 d53d 4434 babc
00000030: 20e7 153d 6dea 023e 04c5 d73c 48f8 98bd
00000040: a91d 073d ebf0 d63d 5dd5 b53d fc84 203e
00000050: c8e6 023e f5a4 adbc 5374 383e abfb 173c
00000060: 835f cf3d 67b8 a43d b323 ca3d f655 423c
00000070: 443a aa3c 3543 423d 2794 f53d 5d23 bd3d
00000080: a7f6 013c 9f0a 303d 03b1 89bd d888 f9bc
00000090: 3004 b23d eb6f 5db9 3262 a4bd f21c b93b
000000a0: 2016 8abc 0073 47ba 98bd c63d 064d bf3d
000000b0: e9d5 883d 01dc bcbc c779 9cbd cfd9 e73d
000000c0: d005 3a3d bb20 d6bc a109 743d 67f7 d43d
000000d0: 31e4 94bc 4b48 0bbd 7bff fb3d 96b3 373c
000000e0: 9f07 8a3c ddef 77bc 2249 843d df2b 7c3d
000000f0: 62fe 0d3c 552a 2d3d 46cd 24bd a498 5f3d
00000100: 95c5 3b3d ff82 1bbd c105 823d cfaf 603d
00000110: 46a2 683d 9d75 cd3c b890 913d 0ef2 db3d
00000120: b937 0d3e ec85 95bd 2cdf 64bc 7811 7d3d
00000130: d12e c83d 6077 0f3d cd56 6abd 7b45 e7bc
00000140: 8d60 993c 6f8a 3e3d c511 993a 1434 8f3d
00000150: 2c11 fe3b 7f23 99bd bc6f e23d 8a30 7c3d
00000160: d940 9c3c caca 823d 591a 82bd 59c6 ce3d
00000170: faa7 56bd b690 853d 4273 c83d 88c3 b73d
00000180: 685a 3dbb 8e4b c5bd 1005 993d 76a3 c23b
00000190: 3bb3 49bc fd21 ae3d 68f9 30bc 3f42 203d
000001a0: 45d3 153b 2136 e03c 00ac 1e3d 99c5 213b
000001b0: 0e34 bf3c 1c88 973d bdf1 703c 407a b4bc
000001c0: 7b26 9f3d a32b 0bbd 29d3 2b3c 8bd4 d33d
000001d0: 7205 373e 5d05 933d fafa 0a3e d6ab 7cbd
000001e0: ebca 9b3d 2c11 e6bb 9b02 ad3d 2f40 c53c
000001f0: 8a70 a4bb e72a b93b 7ec7 823d 6485 fcbc
00000200: f4f1 64bd 4b8b 8bbd 9b91 f83d 1443 343d
00000210: 94be 94bd f5ec f53d edc0 7d3d 582a 1e3d
00000220: 4072 a63d 7a48 3b3d 7ed7 a53b d98b c23d
00000230: 2c2b 51bd 148e 7fbd 915a f73c 23d2 7ebb
00000240: c3e6 d5bc f211 97bd dcf8 b9bd c78f 54bd
00000250: c45a 843d 7c55 82bd c247 ef3d e30f a0bd
00000260: 32ac 473d e1a1 543d 10b1 ae3d cdb1 473d
00000270: 477d 9bbd 8a99 853d 930c cfbc 36fe 97bd
00000280: 6b22 2d3e c060 1f3d b88d c63c cf97 a13d
00000290: e9c1 193d 9532 e63b ae3c 8e3d 7b5e 8c3c
000002a0: bafd 1dbd 00a0 64bd af35 6fbc 0494 ad3d
000002b0: 0fba 453d 926e 1e3e 6022 d73b bddb b53b
000002c0: 4e17 33bd 3c18 88bd 016e 24bd d750 0b3d
000002d0: e2a2 1cbd 5a40 a2bc 78a9 b5ba 1aee 3b3d
000002e0: 59b6 613d 7488 13bd 2f56 aebd 300a 553d
000002f0: 6bf0 b03c a957 233d 86a3 a73d 20cb a3bd
00000300: d570 973c 740d b5bd 4f0f 97bd 30b0 673d
00000310: fd6e d0bb 8d7c 6dbd 493a acbd ca1b 87bd
00000320: 62e0 753d afab 9bbd 64cd 9d3d ec68 a93c
00000330: d449 753b c854 7b3d e40d a13d bcf0 b73d
00000340: 4581 4cbd 1b7a d13d edab 073c cdf2 8d3c
00000350: 4cf9 a6bc 586b ccbc cadb a53d d7e7 03bd
00000360: 394c a43d c933 b13d 3533 843d 6075 4abd
00000370: 412d 18bd 6f56 d2bd a013 7ebd af7e 153d
00000380: 1a33 aabd da46 ac3c d9b4 253d 6dfe 06bd
00000390: 964b c2bd 99c0 12bc a9ef c0bd 3584 2cbd
000003a0: 8813 c8bd b540 7cbd 343c e5bc ce4a 43bd
000003b0: d9b1 e0bc bafe b0bd 2ba9 5e3d b176 963c
000003c0: 305a bc3a 36e5 cfbd 80c5 dc3d 22cb 9b3d
000003d0: 2bc0 84bd 8c18 ec3b ac75 a5bc 2575 33bd
000003e0: 71f0 c2bb 6835 643d 1da3 bdbd 98f7 e1bc
000003f0: b86e 7ebd 2e14 fe3c 5030 1fbd f97d e63c

lstm_layer.bias_hh_l0 f4 [384]
-0.060546707 0.063480675 -0.05202246 0.027089454 0.01618139 -0.011074118 0.060295243 0.10697262
0.0049545625 0.06239319 -0.061794553 -0.0004965074 -0.038662493 0.0954549 -0.064780325 -0.01651473
0.12714805 -0.037563466 0.061365332 0.009541176 0.010933993 -0.016301155 0.16570505 0.09067198
-0.015218856 0.058952358 -0.060606122 0.0635705 0.10517197 0.07901462 0.10497639 -0.05246016
0.07391589 0.07842261 0.07808963 0.11478967 0.08095318 0.018789042 0.08808368 -0.04045813
-0.013840368 0.08533367 0.053677917 -0.013111592 0.06396078 0.1020757 0.081801675 0.1125472
0.07935264 -0.08521499 0.097370826 0.11257619 0.09691514 -0.026140932 -0.01070575 -0.013821239
0.045372948 0.0101370355 0.07670042 -0.05915881 0.0849754 0.12122266 0.09222809 0.08607093
0.14951661 0.028981518 0.07751874 0.039036345 -0.06472382 0.01961573 -0.02731256 0.07225599
-0.032135114 -0.046874974 -0.059123244 0.041714713 -0.07589585 0.08608902 0.009463059 0.001914714
0.10987421 0.13050674 -0.08521121 -0.07360163 -0.026691414 -0.023340445 0.10748221 -0.0873195
-0.0957183 -0.060772743 0.09882054 0.105968095 -0.06553569 0.0075243865 0.04187792 0.0721982
-0.084952764 -0.06339163 -0.056623414 0.09881065 -0.013149039 0.026038006 0.034773234 -0.08858758
0.02895597 0.06330093 0.09237664 0.05665961 0.069839045 0.061260473 0.08494471 0.07065405
0.0036268006 0.10174114 0.06978671 -0.0030766493 0.18594915 0.06624236 0.019850474 -0.009104697
0.026115837 -0.013365661 -0.006933951 -0.023689661 0.008294002 0.04945624 0.08107602 -0.07102455
-0.022072205 0.060395893 -0.03849575 0.034415342 0.034733906 -0.004392048 0.052425344 0.005890713
-0.02217571 0.022500278 0.10946958 0.0890882 -0.090174705 -0.07537334 -0.06236268 0.054180615
0.043790083 0.10035572 0.067558736 -0.010376578 0.08952607 0.008966816 -0.0092473 -0.09118916
0.08680123 -0.048845604 0.03478082 0.040441927 0.009988856 0.15954201 0.10581257 0.04356267
0.21733019 0.060946595 0.10083235 -0.060821038 -0.051913116 -0.059828106 0.09156805 0.04939904
0.06309912 -0.014452182 -0.026335038 -0.07696833 -0.079741 0.17164011 0.046217497 0.11109428
0.08932164 -0.0583206 0.11376393 -0.06575047 -0.04222036 0.009495979 0.012198686 0.05064383
-0.09517179 0.09686072 -0.0016143735 0.119196706 0.04527022 0.039567564 0.013894188 -0.02210236
0.09798848 0.018605279 0.06713722 0.090251856 0.06851362 -0.082900554 0.09212526 -0.08070524
0.042964205 0.10118934 0.03656251 0.029705402 -0.028391039 -0.09991538 -0.07697355 0.021972163
0.06389337 0.08559542 -0.078867525 -0.08214223 0.02212767 -0.020826217 -0.035801686 0.08223708
0.101298295 -0.061185095 0.009449675 0.028036933 -0.020652246 0.06916811 0.04260788 -0.09410929
0.100548625 0.007338025 0.07049538 0.0077038016 -0.086025 0.027563926 -0.025764812 0.043123417
0.010258936 -0.05519814 0.077280656 0.032904655 -0.07541285 -0.09467242 -0.06395542 0.04446498
0.050948076 -0.09059433 -0.089667186 -0.015864545 -0.103482984 0.051839128 0.017709222 0.1072847
0.063157775 0.10788127 -0.103550695 -0.08007198 -0.067354605 -0.06623353 0.055470333 -0.017509924
00000000: d3ff 77bd 2802 823d 8115 55bd b4ea dd3c
00000010: d68e 843c 3870 35bc 25f8 763d 7614 db3d
00000020: e259 a23b 0090 7f3d 491c 7dbd 0c28 02ba
00000030: 905c 1ebd dc7d c33d 8cab 84bd e649 87bc
00000040: 1933 023e 26dc 19bd 375a 7b3d 9852 1c3c
00000050: 7e24 333c 008a 85bc 96ae 293e 3bb2 b93d
00000060: 8258 79bc 0778 713d 203e 78bd 4031 823d
00000070: 6764 d73d 6bd2 a13d ddfd d63d 77e0 56bd
00000080: 3761 973d 099c a03d 75ed 9f3d d916 eb3d
00000090: c8ca a53d 7aeb 993c 3765 b43d 6db7 25bd
000000a0: b6c2 62bc 6bc3 ae3d 60dd 5b3d 01d2 56bc
000000b0: dffd 823d 110d d13d a387 a73d 257f e63d
000000c0: a383 a23d 3285 aebd 5b6a c73d 588e e63d
000000d0: 727b c63d 8225 d6bc 2c67 2fbc 7a72 62bc
000000e0: fcd8 393d cf15 263c 1c15 9d3d 8250 72bd
000000f0: 9507 ae3d 9643 f83d 15e2 bc3d f545 b03d
00000100: e21a 193e a66a ed3c 25c2 9e3d 93e4 1f3d
00000110: ec8d 84bd 2bb1 a03c 97be dfbc f3fa 933d
00000120: 1ca0 03bd f9ff 3fbd 372b 72bd 0cdd 2a3d
00000130: 496f 9bbd 714f b03d f20a 1b3c 24f7 fa3a
00000140: bb05 e13d 8fa3 053e 3783 aebd 74bc 96bd
00000150: f4a7 dabc 7634 bfbc a21f dc3d 91d4 b2bd
00000160: f507 c4bd d7ec 78bd 6c62 ca3d cd05 d93d
00000170: 9337 86bd 218f f63b 2f88 2b3d a6dc 933d
00000180: b7fb adbd 79d3 81bd f4ed 67bd 3d5d ca3d
00000190: 116f 57bc a84d d53c 616e 0e3d 686d b5bd
000001a0: 1235 ed3c eba3 813d f72f bd3d e813 683d
000001b0: c607 8f3d 43ec 7a3d 7ef7 ad3d 12b3 903d
000001c0: 9eaf 6d3b a95d d03d 56ec 8e3d 9ca1 49bb
000001d0: 7469 3e3e 13aa 873d 769d a23c de2b 15bc
000001e0: e1f0 d53c a5fb 5abc 3236 e3bb d210 c2bc
000001f0: 91e3 073c a092 4a3d 2f0b a63d 5275 91bd
00000200: c5d0 b4bc af61 773d b8ad 1dbd 1af7 0c3d
00000210: 2445 0e3d 2beb 8fbb f5bb 563d e206 c13b
00000220: d6a9 b5bc 8152 b83c 9631 e03d e073 b63d
00000230: 84ad b8bd 565d 9abd 0270 7fbd 7eec 5d3d
00000240: 3b5d 333d 4d87 cd3d 3c5c 8a3d 8602 2abc
00000250: 7259 b73d 8de9 123c fd81 17bc 62c1 babd
00000260: d8c4 b13d 5412 48bd 5576 0e3d 6fa6 253d
00000270: 4ca8 233c fb5e 233e 43b4 d83d c56e 323d
00000280: ce8b 5e3e 23a3 793d 3181 ce3d 7b1f 79bd
00000290: d9a2 54bd 510e 75bd 0888 bb3d a656 4a3d
000002a0: 1d3a 813d d8c8 6cbc 94bc d7bc 92a1 9dbd
000002b0: 404f a3bd 6dc2 2f3e 8f4e 3d3d 6685 e33d
000002c0: 44ee b63d 95e1 6ebd 10fd e83d 2fa8 86bd
000002d0: 42ef 2cbd 0695 1b3c ffdc 473c e86f 4f3d
000002e0: 6de9 c2bd ea5e c63d 6399 d3ba 671d f43d
000002f0: 446d 393d 9911 223d 73a4 633c 0210 b5bc
00000300: 2fae c83d 196a 983c 3d7f 893d f7d5 b83d
00000310: de50 8c3d c4c7 a9bd 2bac bc3d ca48 a5bd
00000320: 3cfb 2f3d 5b3c cf3d 92c2 153d be58 f33c
00000330: 5394 e8bc 6fa0 ccbd 4fa4 9dbd f7fe b33c
00000340: 87da 823d a74c af3d 4c85 a1bd 2f3a a8bd
00000350: 1645 b53c be9b aabc caa4 12bd ea6b a83d
00000360: 7b75 cf3d 399d 7abd cfd2 1a3c b6ad e53c
00000370: e62e a9bc 03a8 8d3d 9a85 2e3d 5fbc c0bd
00000380: 70ec cd3d d173 f03b e25f 903d 2c70 fc3b
00000390: e02d b0bd becd e13c ba10 d3bc 2ea2 303d
000003a0: 1915 283c 7217 62bd 5245 9e3d 08c7 063d
000003b0: 0d72 9abd 9de3 c1bd 0ffb 82bd e920 363d
000003c0: eeae 503d 8589 b9bd 6ea3 b7bd 5df6 81bc
000003d0: e3ee d3bd 4455 543d ee12 913c 15b8 db3d
000003e0: dd58 813d dbf0 dc3d 6312 d4bd c7fc a3bd
000003f0: 36f1 89bd 72a5 87bd dc34 633d f970 8fbc

lstm_layer.weight_ih_l1 f4 [384, 96]
0.060962334 0.03223217 0.019075701 -0.005093267 -0.077846855 -0.0067892675 -0.020808458 -0.07197509
0.039773278 -0.08941876 0.022509305 -0.08493386 0.043548968 0.068196185 -0.06641536 0.0042861938
-0.0075493297 0.0073109046 0.004229005 -0.026857873 -0.043136466 0.06710218 0.036070295 -0.047514107
0.031887867 0.10720268 0.118331656 0.057186738 0.023969602 0.11347227 -0.11207939 0.07843673
0.08369292 -0.0034780877 0.10819831 0.053731337 -0.11085728 0.10080566 -0.021649823 0.07407966
-0.07132707 -0.08065362 0.077712364 -0.09976352 -0.040946525 -0.0037857976 0.05346886 -0.049345747
-0.056640778 0.054446787 -0.033959605 -0.082413256 0.033666473 0.032350954 0.053331137 -0.01620365
-0.051621728 -0.065946124 -0.047368735 0.009799726 0.0019049993 -0.04685456 -0.0053283917 0.06657773
0.016401218 0.11154098 0.0032430824 -0.10046556 0.0068875584 -0.08465359 -0.04260185 0.041292943
0.012672429 -0.09755931 0.035070054 -0.059438106 -0.028824871 -0.031580526 0.10106168 0.0627519
-0.022260295 0.035118535 -0.031406797 0.050753407 -0.05732925 -0.012193983 0.09862703 -0.08733104
-0.106156595 0.044147346 0.07529369 0.112610914 -0.11500397 -0.07288961 -0.0791109 0.008228071
-0.040340073 -0.023802016 0.06314904 0.04593769 0.08320334 -0.085683584 0.035954956 -0.0052921665
-0.04752371 0.06353625 0.011441695 0.057237323 -0.06045693 0.09184606 -0.014187051 -0.07379622
0.013531645 -0.06962449 -0.026829127 0.1080291 -0.043649893 -0.03950008 -0.0051640905 0.028233629
-0.03258272 0.03229581 0.019075526 0.018456504 0.021886336 0.13294022 0.059967358 -0.06300027
-0.024050817 0.08043363 0.106583565 0.04794735 0.06274745 0.022284042 0.06447385 0.05958777
-0.012457511 0.014977403 0.09308216 -0.068807214 0.020460825 0.02762887 -0.1184772 0.043519404
-0.04491936 -0.037357323 -0.057711653 -0.06681589 -0.011392921 0.10585676 0.008056049 0.053809024
-0.03493508 -0.04616114 -0.111632414 -0.034464404 -0.007478843 -0.0047554127 -0.059391506 0.1277415
0.012563873 -0.041813392 0.05546532 0.07038288 0.029161366 -0.09996751 -0.092716046 0.07989416
-0.059768934 -0.0050047394 -0.107736826 -0.044752 0.011957218 0.016351398 0.06636842 -0.031069184
0.025104485 -0.006857618 -0.029260797 0.04557388 -0.076330625 0.07774779 0.074309126 0.049772914
0.027452985 0.008356105 0.075700164 -0.07248487 -0.03702656 0.079408854 -0.046873845 0.010079713
-0.09713335 0.084715866 -0.014574108 0.008663231 -0.03364833 -0.083741 0.014120386 0.06141025
0.048338547 0.057138145 -0.047107752 -0.03125633 0.047767967 -0.064016476 0.025116589 0.07596629
0.06451699 0.04449051 0.0016213317 0.030502621 -0.07107431 0.056642435 -0.015440507 -0.0966251
-0.034786712 -0.091828205 -0.10161856 -0.041689094 -0.09001417 -0.08887925 -0.05501251 0.105454825
0.009156812 -0.030844187 0.021517023 0.08336641 -0.08358468 0.020047419 0.04443847 0.039741956
-0.07891064 -0.08489309 -0.026951997 0.07082746 -0.07301581 -0.06102642 -0.010371308 0.089909054
0.050192144 -0.026133286 0.06888515 0.020114545 0.066741884 -0.044779688 0.046107452 -0.02965611
-0.052602712 -0.08437364 0.10737363 0.06559287 0.05969725 -0.021860475 -0.022726055 -0.031374365
00000000: a4b3 793d e105 043d a544 9c3c 6ce5 a6bb
00000010: 2c6e 9fbd 8178 debb 8076 aabc ad67 93bd
00000020: 4ee9 223d 2f21 b7bd 6f65 b83c cef1 adbd
00000030: 6760 323d 71aa 8b3d c704 88bd 3373 8c3b
00000040: 5e60 f7bb 5090 ef3b 7793 8a3b 0b05 dcbc
00000050: ddaf 30bd de6c 893d 72be 133d 279e 42bd
00000060: da9c 023d 148d db3d de57 f23d a43c 6a3d
00000070: e65b c43c 2664 e83d e189 e5bd 70a3 a03d
00000080: 3267 ab3d a1f0 63bb 1397 dd3d 6415 5c3d
00000090: 2409 e3bd 3373 ce3d f85a b1bc 14b7 973d
000000a0: ed13 92bd ba2d a5bd a927 9f3d d150 ccbd
000000b0: 8bb7 27bd 251b 78bb 2a02 5b3d c41e 4abd
000000c0: 2900 68bd 9803 5f3d 3a19 0bbd 48c8 a8bd
000000d0: dbe5 093d 6f82 043d c071 5a3d 84bd 84bc
000000e0: 4e71 53bd c30e 87bd b805 42bd 088f 203c
000000f0: 2bb1 f93a 91ea 3fbd ca99 aebb e859 883d
00000100: d95b 863c 996f e43d e589 543b e3c0 cdbd
00000110: 07b1 e13b dd5e adbd 477f 2ebd ca22 293d
00000120: 05a0 4f3c 2dcd c7bd 9ea5 0f3d 5f75 73bd
00000130: 2322 ecbc 955a 01bd 6df9 ce3d 1184 803d
00000140: 395b b6bc 74d8 0f3d 6aa4 00bd cee2 4f3d
00000150: 13d2 6abd 46c9 47bc f8fc c93d 9eda b2bd
00000160: a168 d9bd d9d3 343d 9433 9a3d 8da0 e63d
00000170: 3487 ebbd 2647 95bd e504 a2bd 08cf 063c
00000180: a23b 25bd 72fc c2bc 4954 813d 2929 3c3d
00000190: 8366 aa3d e07a afbd 8145 133d e969 adbb
000001a0: 39a8 42bd 4b1f 823d f275 3b3c af71 6a3d
000001b0: b0a1 77bd c919 bc3d ce70 68bc 7922 97bd
000001c0: d5b3 5d3c 4997 8ebd c2c8 dbbc 5c3e dd3d
000001d0: 3bca 32bd d6ca 21bd 8837 a9bb 364a e73c
000001e0: 7575 05bd 9c48 043d 4744 9c3c 1832 973c
000001f0: f94a b33c 7b21 083e 55a0 753d 4906 81bd
00000200: 3806 c5bc 63ba a43d 7c48 da3d 7164 443d
00000210: bc81 803d 068d b63c de0a 843d 4e12 743d
00000220: 971a 4cbc c863 753c dca1 be3d ccea 8cbd
00000230: 769d a73c f155 e23c 2da4 f2bd 6741 323d
00000240: 5dfd 37bd fe03 19bd 0e63 6cbd c5d6 88bd
00000250: 60a9 3abc 6ecb d83d 85fd 033c da66 5c3d
00000260: 1618 0fbd 7713 3dbd 899f e4bd 8c2a 0dbd
00000270: 1511 f5bb 4bd3 9bbb 8244 73bd abce 023e
00000280: b4d8 4d3c 8544 2bbd 9a2f 633d e624 903d
00000290: d1e3 ee3c c4bb ccbd e9e1 bdbd 8d9f a33d
000002a0: 45d0 74bd ccfe a3bb 20a5 dcbd e04d 37bd
000002b0: 35e8 433c 5ef3 853c 2bec 873d cd84 febc
000002c0: eca7 cd3c dfb5 e0bb 57b4 efbc adab 3a3d
000002d0: 3b53 9cbd 3c3a 9f3d 622f 983d afde 4b3d
000002e0: 15e5 e03c 0be8 083c b008 9b3d f372 94bd
000002f0: 2aa9 17bd 1ca1 a23d cafe 3fbd 6125 253c
00000300: daed c6bd 837f ad3d 3dc8 6ebc 39f0 0d3c
00000310: d5d2 09bd 6780 abbd 3159 673c 5089 7b3d
00000320: a4fe 453d b009 6a3d 0ff4 40bd a306 00bd
00000330: 58a8 433d 121b 83bd 4ec1 cd3c 3794 9b3d
00000340: 7c21 843d ae3b 363d dd82 d43a a2e0 f93c
00000350: 688f 91bd e601 683d 2efa 7cbc 61e3 c5bd
00000360: 837c 0ebd 6d10 bcbd 641d d0bd 2fc2 2abd
00000370: 5959 b8bd 5306 b6bd cc54 61bd b3f8 d73d
00000380: 7406 163c f3ac fcbc 7844 b03c 02bc aa3d
00000390: 722e abbd 7c3a a43c 1d05 363d 76c8 223d
000003a0: e79b a1bd 6edc adbd 6fca dcbc fd0d 913d
000003b0: 5089 95bd d7f6 79bd 6bec 29bc 3d22 b83d
000003c0: 4796 4d3d 7915 d6bc a813 8d3d 42c7 a43c
000003d0: f8af 883d e86a 37bd 2bdb 3c3d 5ff1 f2bc
000003e0: f175 57bd 16cc acbd b5e6 db3d 8e55 863d
000003f0: 1b85 743d bd14 b3bc fe2b babc 6882 00bd

lstm_layer.weight_hh_l1 f4 [384, 96]
-0.03460287 0.051012505 0.12300334 -0.027881699 -0.06903161 -0.006891302 0.0055700266 0.0051843007
-0.047356617 0.067960724 -0.04007596 -0.02236401 -0.11523937 -0.010353667 -0.051919524 -0.08162761
0.057193443 -0.048222307 -0.018271403 0.06180082 0.07223161 -0.0050724307 0.010445518 -0.051014315
-0.0047169747 -0.046783883 0.034638375 -0.09877958 -0.060007926 -0.031645894 0.029944636 -0.009927935
-0.067708306 0.08703709 0.035251945 -0.048997834 0.07147179 -0.06821084 0.04637033 -0.011276425
0.08841711 0.00917639 0.061335668 -0.051777232 0.11730975 -0.01773872 -0.05770366 -0.090960905
-0.10759458 0.08553518 0.08525229 0.039000694 -0.0046319547 -0.046221923 -0.055484753 -0.0052066064
0.03247084 0.074740425 0.008963761 -0.012420345 0.029368114 0.11342556 0.019839024 -0.08728963
0.063455224 -0.061599966 -0.006678336 -0.11286144 0.073664956 0.022357741 -0.09271764 -0.08211367
0.034349937 -0.10068942 0.02996127 -0.04218312 -0.02789959 0.08225457 -0.036760274 0.0003204547
0.09439956 -0.056704674 0.010451117 -0.061142635 0.115750246 0.034041204 -0.05551257 -0.028699687
-0.007015901 0.019984448 0.058477618 -0.06413607 0.050441496 -0.019931344 -0.06552366 0.10175819
-0.046438076 0.07461305 -0.052451987 -0.05974588 -0.039927218 -0.028756138 0.059563912 -0.0050768936
-0.02753911 0.047798835 -0.056177527 0.0029030475 -0.09407788 -0.008693553 0.044334956 0.09133443
-0.07846942 0.05625625 -0.011212326 0.033063482 0.0934425 -0.06474989 -0.059265483 0.0625158
0.06783221 -0.066532694 0.0047495114 0.0031651214 -0.04968205 -0.044026785 0.074040756 -0.08431639
-0.014110235 -0.09729684 0.024849525 0.07355201 0.010974467 -0.07521026 -0.020988334 -0.0040992205
0.02248467 -0.09839941 0.046173025 0.06140275 0.008099335 0.09274726 -0.06568388 -0.0005339121
0.045699358 0.029669 0.046399795 0.08667926 0.09337034 -0.07308242 0.10009812 0.014531504
-0.07699003 0.086739 0.06173609 0.02242958 -0.10255525 0.047812395 0.083955154 -0.030917296
-0.044758737 0.10680298 0.052525092 0.032648243 0.09070171 0.06327911 0.06676249 -0.009894568
-0.048203032 0.024460742 0.076793894 -0.020779733 0.10147474 -0.0796312 0.038293164 0.025271919
0.05035055 0.0065880404 -0.026458357 -0.02561363 0.014596442 0.048344728 -0.01712552 0.05973597
0.021102939 -0.07451631 -0.050928887 -0.09483319 -0.03735133 0.023261812 -0.06227592 0.017039504
-0.024421575 0.036012236 0.07070927 0.07123678 -0.022005456 -0.016241638 -0.057746988 -0.03455127
0.09978957 -0.011266451 0.08078687 0.07073318 -0.0703234 -0.11463768 0.011017341 0.07634713
0.0372818 -0.06771033 0.06769566 0.08823784 -0.01739924 -0.046982545 -0.016680092 -0.00854356
0.05943451 -0.041806675 -0.07029112 0.07827921 0.049511503 -0.024643725 0.04099477 -0.034921248
0.04260172 -0.08492284 -0.017681353 0.07112888 -0.024352426 -0.051501483 -0.07107048 0.03598938
-0.06257737 0.004595238 -0.037524253 0.034262706 -0.045420367 -0.029967211 0.068174906 0.02614804
0.06828357 0.0020367259 0.09704294 -0.0913088 -0.007562412 -0.10834151 -0.008319453 0.036005802
0.08216258 0.0105433455 0.076242335 0.10416059 0.013753692 -0.058391374 -0.012475241 0.01601741
00000000: bdbb 0dbd 7df2 503d 2de9 fb3d 2968 e4bc
00000010: 7260 8dbd 6ed0 e1bb c584 b63b 11e1 a93b
00000020: 03f9 41bd fe2e 8b3d b126 24bd ba34 b7bc
00000030: 9e02 ecbd 6da2 29bc 91a9 54bd 602c a7bd
00000040: ac43 6a3d c184 45bd e9ad 95bc db22 7d3d
00000050: 2bee 933d a236 a6bb ae23 2b3c 63f4 50bd
00000060: da90 9abb 75a0 3fbd f8e0 0d3d f34c cabd
00000070: dfca 75bd 209f 01bd 744e f53c c7a8 22bc
00000080: a7aa 8abd 8040 b23d 5864 103d f4b1 48bd
00000090: cd5f 923d 20b2 8bbd d1ee 3d3d c1c0 38bc
000000a0: 0814 b53d 9258 163c 1c3b 7b3d 5d14 54bd
000000b0: 1840 f03d cb50 91bc ac5a 6cbd b649 babd
000000c0: 8c5a dcbd 122d af3d c198 ae3d 31bf 1f3d
000000d0: a7c7 97bb 3353 3dbd fb43 63bd 2e9c aabb
000000e0: 2500 053d 8211 993d bddc 123c b47e 4bbc
000000f0: 6695 f03c a94b e83d 7385 a23c e8c4 b2bd
00000100: d0f4 813d 3f50 7cbd f1d5 dabb e623 e7bd
00000110: a7dd 963d 9527 b73c bfe2 bdbd 362b a8bd
00000120: 85b2 0c3d 4136 cebd 5671 f53c 35c8 2cbd
00000130: ae8d e4bc 1675 a83d f191 16bd b402 a839
00000140: 8e54 c13d 2943 68bd 293b 2b3c b370 7abd
00000150: 770e ed3d ca6e 0b3d 2661 63bd 9b1b ebbc
00000160: a5e5 e5bb 6db6 a33c 3a86 6f3d c659 83bd
00000170: be9b 4e3d 0f47 a3bc 4531 86bd 9966 d03d
00000180: da35 3ebd bace 983d e5d7 56bd 19b8 74bd
00000190: b98a 23bd fe91 ebbc 4af9 733d 125c a6bb
000001a0: b399 e1bc b6c8 433d 681a 66bd 0e41 3e3b
000001b0: e7ab c0bd 676f 0ebc 9298 353d 8c0d bb3d
000001c0: 93b4 a0bd f46c 663d e7b3 37bc 936d 073d
000001d0: c85e bf3d 979b 84bd 5dc0 72bd 4908 803d
000001e0: 9deb 8a3d 4b42 88bd caa1 9b3b ed6d 4f3b
000001f0: 687f 4bbd 6e55 34bd aea2 973d 12ae acbd
00000200: 9d2e 67bc 9143 c7bd 3b91 cb3c 70a2 963d
00000210: 40ce 333c d607 9abd baef abbc c152 86bb
00000220: c531 b83c a185 c9bd ed1f 3d3d 7381 7b3d
00000230: 13b3 043c 47f2 bd3d 4585 86bd 3cf6 0bba
00000240: 402f 3b3d 670c f33c b60d 3e3d e584 b13d
00000250: f338 bf3d 3cac 95bd 3e00 cd3d 8c15 6e3c
00000260: f3ac 9dbd 38a4 b13d fbde 7c3d 3dbe b73c
00000270: 7d08 d2bd eed6 433d aef0 ab3d 4546 fdbc
00000280: f054 37bd 85bb da3d 8d24 573d 2aba 053d
00000290: d1c1 b93d 7a98 813d c6ba 883d d31c 22bc
000002a0: 8b70 45bd e561 c83c 1e46 9d3d 423a aabc
000002b0: fdd1 cf3d af15 a3bd 4bd9 1c3d 0e07 cf3c
000002c0: 613c 4e3d 7de0 d73b 32bf d8bc add3 d1bc
000002d0: ea25 6f3c 1f05 463d d24a 8cbc b4ad 743d
000002e0: 12e0 ac3c 029c 98bd cf9a 50bd e737 c2bd
000002f0: b5fd 18bd 8e8f be3c 0915 7fbd 6e96 8b3c
00000300: c10f c8bc 9181 133d 06d0 903d 97e4 913d
00000310: c944 b4bc 2f0d 85bc 1b88 6cbd a285 0dbd
00000320: 795e cc3d ec96 38bc 9673 a53d 8fdc 903d
00000330: b705 90bd 29c7 eabd 1482 343c e25b 9c3d
00000340: cdb4 183d b7ab 8abd 06a4 8a3d 0ab6 b43d
00000350: da88 8ebc c570 40bd b0a4 88bc 4afa 0bbc
00000360: 9a71 733d 7a3d 2bbd caf4 8fbd da50 a03d
00000370: 93cc 4a3d a3e1 c9bc 22ea 273d 9509 0fbd
00000380: 247f 2e3d 07ec adbd 7cd8 90bc 05ac 913d
00000390: bd7e c7bc 38f3 52bd 668d 91bd 9a69 133d
000003a0: 9028 80bd a693 963b 08b3 19bd 0d57 0c3d
000003b0: b50a 3abd cc7d f5bc 499f 8b3d 6a34 d63c
000003c0: 42d8 8b3d 977a 053b 73be c63d 1c00 bbbd
000003d0: 1cce f7bb 27e2 ddbd 514e 08bc d27a 133d
000003e0: db44 a83d ffbd 2c3c f124 9c3d 2652 d53d
000003f0: 2a57 613c cb2b 6fbd f464 4cbc f236 833c

lstm_layer.bias_ih_l1 f4 [384]
0.07706597 -0.022634277 -0.012051269 -0.022034718 0.005943138 0.0317955 0.007924751 -0.068609454
-0.017691229 0.10152256 -0.08309802 -0.055072807 -0.031464368 -0.09472177 0.05724188 -0.026278483
0.07632774 0.028221248 0.081062295 -0.008028941 -0.0895041 0.039595697 -0.005412775 -0.0020150815
-0.05615787 0.08281778 -0.058634967 0.10449669 -0.052502457 -0.041888364 -0.050846618 0.13000242
-0.086229995 -0.07679897 0.002335428 0.08642411 0.052726783 0.105160125 0.10642602 -0.01829089
0.10014978 -0.06281454 0.0820409 -0.015390616 -0.03222344 0.040874824 0.017255584 -0.061707474
-0.0017051253 -0.07356053 -0.021355126 0.04049078 0.10550623 -0.017078439 0.012023023 0.008623085
-0.016469644 -0.009848361 0.016256882 0.06213273 0.08518565 0.049004283 0.0401477 0.086145625
-0.022305349 -0.0048449375 -0.076876454 0.062038206 0.05519003 -0.017399559 0.07261464 -0.03353368
0.028478995 -0.039066765 -0.0039150454 0.012567831 0.04151653 0.01993983 0.055401202 -0.028214402
-0.011117954 0.017209107 -0.0762945 -0.008653119 0.0065094 -0.058599282 -0.07207176 0.011034195
-0.005566123 0.112733744 0.00998962 0.10426889 0.0076674167 0.014348318 -0.00850698 -0.053151377
0.035706423 0.01687911 -0.0880702 0.009654318 0.07834481 0.08350881 0.025498256 -0.017978318
-0.0668847 0.08309233 -0.024788477 -0.068474956 0.05052616 -0.072028615 0.015094287 0.108654045
0.036185957 -0.04004791 -0.0045097866 0.10862767 -0.08692175 -0.058878534 0.0821463 0.017770791
-0.06441292 0.017732697 0.047472335 0.05259127 0.0634487 -0.03082652 0.11520018 0.067420654
-0.06681444 -0.0534151 -0.057658453 0.09924802 -0.07544632 0.036052622 -0.055495817 -0.028293239
0.0076695275 -0.013766226 0.0740614 0.05423191 -0.06520339 -0.01005462 -0.022436796 0.008290999
-0.067874126 0.049677532 -0.08040732 -0.077802666 -0.04776428 0.12586167 -0.011543267 0.007608517
0.05199664 0.002635709 0.03489508 0.008941634 -0.036144394 0.10029 -0.048008922 0.035735674
-0.073202506 -0.052146927 -0.012740885 0.073618494 0.01810816 -0.014215821 0.02918578 -0.03349571
0.04185303 -0.055008728 -0.02362821 0.07393742 0.06198205 -0.0469017 0.059717264 0.08885708
0.06659189 -0.005507756 -0.027826145 0.07951492 -0.06968962 -0.07928507 0.022461182 0.072384894
0.105703086 0.01539799 0.019462157 -0.051006168 0.07894926 -0.036556616 0.04914188 -0.016366502
0.03876199 0.011060287 0.046700045 -0.019632908 -0.032131147 -0.057009757 0.074172646 0.023168376
0.098817065 -0.040631227 -0.023095747 0.0068385703 -0.018989883 0.054575257 0.010389513 0.0123680495
-0.107148476 0.02641879 0.09633738 -0.04953782 -0.02086347 0.019009162 0.09597011 0.10566473
-0.026183 0.080091484 -0.023197273 0.018076014 0.052790858 0.09129607 0.047277037 0.079702504
0.059154097 -0.02094752 0.054664325 -0.1032747 -0.019283457 -0.10659979 0.08075249 -0.015829239
0.08835443 -0.05268138 0.010350609 0.078018345 0.053417176 0.042228848 -0.071691185 -0.06287707
0.043478053 0.028337618 -0.096805096 0.08989674 -0.0020269272 -0.047193684 0.03551447 -0.052626044
0.09059868 0.07605754 0.045858767 0.06997795 -0.07008553 0.10072854 -0.07893878 -0.08942034
00000000: c3d4 9d3d 856b b9bc b072 45bc 2782 b4bc
00000010: a8be c23b 003c 023d d1d6 013c 1d83 8cbd
00000020: 32ed 90bc 0feb cf3d 4b2f aabd 0694 61bd
00000030: c8e0 00bd 7dfd c1bd 7676 6a3d f945 d7bc
00000040: b851 9c3d 3f30 e73c fd03 a63d d28b 03bc
00000050: ed4d b7bd 192f 223d a65d b1bb 750f 04bb
00000060: cb05 66bd 5e9c a93d 382b 70bd 5c02 d63d
00000070: d10c 57bd 2293 2bbd 8b44 50bd 5b1f 053e
00000080: 5a99 b0bd c748 9dbd fb0d 193b 20ff b03d
00000090: 0af8 573d 315e d73d e3f5 d93d c7d6 95bc
000000a0: 541b cd3d e9a4 80bd 0f05 a83d ec28 7cbc
000000b0: bafc 03bd 5c6c 273d 955b 8d3c fac0 7cbd
000000c0: 837e dfba e7a6 96bd f2f0 aebc a9d9 253d
000000d0: a613 d83d 15e8 8bbc 37fc 443c d747 0d3c
000000e0: 59eb 86bc 055b 21bc 272d 853c e47e 7e3d
000000f0: d075 ae3d b7b8 483d ea71 243d 1e6d b03d
00000100: b5b9 b6bc 48c2 9ebb 6771 9dbd c61b 7e3d
00000110: f10e 623d 8589 8ebc fcb6 943d 9d5a 09bd
00000120: c84c e93c 7904 20bd c849 80bb 4ee9 4d3c
00000130: 3d0d 2a3d db58 a33c 5fec 623d e421 e7bc
00000140: 1428 36bc 1dfa 8c3c 4a40 9cbd d0c5 0dbc
00000150: ce4c d53b cd05 70bd 5c9a 93bd c5c8 343c
00000160: 0664 b6bb f3e0 e63d 81ab 233c ee8a d53d
00000170: f43e fb3b 3515 6b3c dc60 0bbc 42b5 59bd
00000180: e640 123d 0f46 8a3c 265e b4bd 252d 1e3c
00000190: 3e73 a03d ab06 ab3d b8e1 d03c 4447 93bc
000001a0: d8fa 88bd 502c aa3d 3411 cbbc 993c 8cbd
000001b0: 85f4 4e3d bd83 93bd 074e 773c 0386 de3d
000001c0: ba37 143d 4709 24bd d5c6 93bb 2f78 de3d
000001d0: 0804 b2bd 9e2a 71bd 523c a83d 0d94 913c
000001e0: ecea 83bd 2944 913c 5a72 423d f269 573d
000001f0: 64f1 813d e687 fcbc 12ee eb3d d713 8a3d
00000200: 02d6 88bd cbc9 5abd 452b 6cbd 8c42 cb3d
00000210: 9a83 9abd eaab 133d 954f 63bd 39c7 e7bc
00000220: a950 fb3b bd8b 61bc 81ad 973d 4722 5e3d
00000230: 5b89 85bd 22bc 24bc 5fcd b7bc f8d6 073c
00000240: 9701 8bbd ab7a 4b3d 98ac a4bd 0157 9fbd
00000250: 7aa4 43bd e2e1 003e f91f 3dbc de50 f93b
00000260: 6efa 543d dcbb 2c3b 25ee 0e3d ee7f 123c
00000270: 250c 14bd d864 cd3d 01a5 44bd 925f 123d
00000280: 32eb 95bd 0498 55bd 25bf 50bc 4bc5 963d
00000290: 9057 943c 7ae9 68bc 0417 ef3c cc32 09bd
000002a0: 156e 2b3d d550 61bd f38f c1bc 816c 973d
000002b0: e4e0 7d3d ff1b 40bd 179a 743d b3fa b53d
000002c0: 5461 883d 687a b4bb a8f3 e3bc b8d8 a23d
000002d0: 6eb9 8ebd 3660 a2bd 8300 b83c 883e 943d
000002e0: dc7a d83d da47 7c3c 1a6f 9f3c d8eb 50bd
000002f0: 26b0 a13d 64bc 15bd ff48 493d 0b13 86bc
00000300: e4c4 1e3d 3536 353c 8c48 3f3d 31d5 a0bc
00000310: f39b 03bd 1083 69bd d4e7 973d 9bcb bd3c
00000320: 9a60 ca3d ee6c 26bd 4b33 bdbc 1616 e03b
00000330: ac90 9bbc 4e8a 5f3d c738 2a3c 5ca3 4a3c
00000340: a970 dbbd 386c d83c 884c c53d 2be8 4abd
00000350: dee9 aabc 1ab9 9b3c fa8b c43d c066 d83d
00000360: bb7d d6bc 0107 a43d 3508 bebc 2614 943c
00000370: 3a3b 583d 6ff9 ba3d 91a5 413d 113b a33d
00000380: 914b 723d 229a abbc b3e7 5f3d b081 d3bd
00000390: 57f8 9dbc fe50 dabd 9061 a53d 52ac 81bc
000003a0: 2bf3 b43d 6ec8 57bd 9a95 293c 15c8 9f3d
000003b0: f8cb 5a3d 28f8 2c3d d4d2 92bd b1c5 80bd
000003c0: 0b16 323d 4b24 e83c c041 c6bd c81b b83d
000003d0: 32d6 04bb 2a4e 41bd 9f77 113d 688e 57bd
000003e0: cd8b b93d 0ec4 9b3d 67d6 3b3d 9950 8f3d
000003f0: 0189 8fbd c44a ce3d a8aa a1bd 0322 b7bd
