models/enhanced_model/model.pth (torch, 205733 bytes, 9 tensors)

lstm_layer.weight_ih_l0 f4 [256, 1]
0.024167838 0.17535545 0.013609597 -0.03310357 -0.082164004 -0.0939721 0.09289116 -0.097400844
0.047738876 -0.100969635 -0.0963804 -0.11634422 -0.15969804 0.0008907782 0.036119636 -0.05578872
-0.07625186 -0.18563452 0.054127004 0.027289983 0.08443635 -0.008659025 -0.058514167 0.08172986
-0.16149524 -0.16585788 0.020577705 -0.102269985 0.22911568 0.033949606 -0.019736242 -0.023022735
0.16646297 0.08577855 -0.14346935 -0.08037925 -0.043186046 -0.054684598 -0.14896987 0.12338078
-0.030401275 -0.16633224 0.10783936 -0.028147934 0.14772038 0.023583878 0.1825094 -0.05653363
-0.18228064 -6.794072e-05 -0.20687178 -0.12527879 -0.0087158885 -0.10990343 -0.091272615 0.09444939
0.12619667 0.04738221 0.08932926 -0.07072964 -0.017076597 -0.107991956 -0.11210353 -0.07952997
0.13491605 0.1112312 -0.09803113 -0.044681873 0.12214796 -0.08241688 0.1712989 -0.026637308
0.038843125 -0.11768273 -0.012602868 0.012463492 0.13780521 0.060191922 -0.007806862 0.050550256
-0.1771647 -0.22223851 -0.026141876 0.14052345 -0.08651206 0.051520195 0.024886914 0.015272657
-0.006224427 -0.16695055 0.11456451 -0.04498027 0.27911386 0.19875209 -0.11154775 -0.07416623
-0.10634475 -0.12988317 -0.09148933 -0.09812541 0.095348224 -0.06576042 0.0343822 0.0019471003
0.102273785 -0.19814913 0.14919814 0.059610873 -0.04204491 0.07044549 0.026172636 0.014972628
0.09152201 0.057182115 0.07115427 -0.2587525 0.11912472 -0.07224679 0.018776702 0.055375885
-0.16385603 0.11091882 0.11345285 0.049238436 -0.15896015 -0.10445518 0.1315471 0.04518108
-0.065395996 0.38015714 -0.29299387 0.2722512 0.2130567 -0.2665556 -0.24832985 0.0650494
-0.034472466 -0.17823464 0.036672074 0.08282052 -0.2273919 0.011072456 0.23378618 0.3100797
-0.1493116 0.042344343 0.027130187 0.062472276 0.046356734 0.21728769 -0.025993355 -0.16538449
0.008509699 -0.1854186 -0.15240385 0.062936254 0.3279036 0.28730536 -0.108973935 0.06643977
0.19412549 -0.14204955 0.21440436 -0.13143967 -0.1672125 -0.20092195 -0.17411616 -0.09428931
-0.13721544 -0.2366581 0.27823284 -0.24597608 -0.0026623586 -0.10117962 -0.16317901 -0.33522028
-0.013062152 -0.00715397 0.18590821 0.28827754 0.11667333 0.14317006 -0.20515905 -0.14003763
-0.006983683 0.27400973 0.05402248 -0.069158114 0.10524127 -0.11045105 -0.1143953 0.20747574
-0.04290672 0.31669977 -0.04918477 0.07667018 -0.0946716 -0.07402504 0.18843383 -0.106968194
0.018558642 -0.094064906 -0.043487333 0.09079086 -0.08996094 -0.13032633 0.10540375 0.0797027
-0.16825393 -0.06488812 0.019601777 0.0042157155 -0.04261723 0.13937356 -0.14830899 0.08514082
0.00954403 -0.01016181 0.005414024 0.062690675 0.19460043 0.052979063 -0.09427495 0.03920512
0.13754036 0.08130682 0.023690674 0.025909062 -0.030347148 0.042688105 -0.07371988 -0.038699236
0.13428432 0.015308973 0.19511092 0.007241716 0.0345365 -0.11950012 0.14202663 -0.041963987
-0.07795333 -0.01825812 -0.014986224 -0.18496984 -0.02242446 -0.1293626 -0.055711504 0.02058347
0.12006759 0.021966856 -0.078008346 -0.09653048 -0.10867016 -0.0030472446 -0.07282612 -0.01728447
00000000: a1fb c53c 6190 333e cafa 5e3c 9c97 07bd
00000010: 9a45 a8bd 7274 c0bd b83d be3d 187a c7bd
00000020: d789 433d 2bc9 cebd 1663 c5bd e145 eebd
00000030: e287 23be 1d83 693a 2ff2 133d b682 64bd
00000040: ef29 9cbd fa16 3ebe 47b4 5d3d 3e8f df3c
00000050: f7ec ac3d 95de 0dbc 8dac 6fbd fc61 a73d
00000060: 025f 25be a6d6 29be 9392 a83c ed72 d1bd
00000070: 4d9d 6a3e be0e 0b3d e6ad a1bc 2d9a bcbc
00000080: 4575 2a3e aaac af3d a1e9 12be e09d a4bd
00000090: dae3 30bd f5fc 5fbd 8f8b 18be 10af fc3d
000000a0: 180c f9bc 0053 2abe e2da dc3d 7f96 e6bc
000000b0: 0344 173e fa32 c13c bfe3 3a3e cf8f 67bd
000000c0: c7a7 3abe 657b 8eb8 32d6 53be 1549 00be
000000d0: 16cd 0ebc 0d15 e1bd 23ed babd af6e c13d
000000e0: b339 013e d913 423d 42f2 b63d b4da 90bd
000000f0: 38e4 8bbc e32a ddbd 8996 e5bd 9ce0 a2bd
00000100: 6f27 0a3e 2fcd e33d 8cc4 c8bd 5704 37bd
00000110: b628 fa3d 2eca a8bd fb68 2f3e 7c36 dabc
00000120: f819 1f3d a503 f1bd 427c 4ebc ad33 4c3c
00000130: cf1c 0d3e ce8b 763d b4d0 ffbb c90d 4f3d
00000140: aa6a 35be 7e92 63be 7d27 d6bc 61e5 0f3e
00000150: 3c2d b1bd d706 533d a4df cb3c 2b3a 7a3c
00000160: 47f6 cbbb 16f5 2abe cca0 ea3d 3b3d 38bd
00000170: 03e8 8e3e ab85 4b3e 2673 e4bd 77e4 97bd
00000180: 47cb d9bd 1800 05be c25e bbbd faf5 c8bd
00000190: ee45 c33d 66ad 86bd 5ad4 0c3d d835 ff3a
000001a0: eb74 d13d 9be7 4abe 66c7 183e 882a 743d
000001b0: 4937 2cbd ba45 903d ff67 d63c c14f 753c
000001c0: e46f bb3d cb37 6a3d 54b9 913d 357b 84be
000001d0: a9f7 f33d 20f6 93bd 99d1 993c d3d1 623d
000001e0: e0c9 27be 6829 e33d f859 e83d 3eae 493d
000001f0: 73c6 22be 99ec d5bd 48b4 063e cc0f 393d
00000200: 56ee 85bd f5a3 c23e 4b03 96be 8264 8b3e
00000210: 892b 5a3e fa79 88be 2e4a 7ebe 9f38 853d
00000220: 0033 0dbd 2483 36be 7535 163d ce9d a93d
00000230: 6cd9 68be 3f69 353c a565 6f3e c4c2 9e3e
00000240: 24e5 18be 4371 2d3d 2040 de3c eee2 7f3d
00000250: 8fe0 3d3d aa80 5e3e 04f0 d4bc 8d5a 29be
00000260: 446c 0b3c 60de 3dbe c10f 1cbe b9e4 803d
00000270: fbe2 a73e b019 933e ba2d dfbd 9311 883d
00000280: d5c8 463e 7075 11be d18c 5b3e 1f98 06be
00000290: c139 2bbe 7cbe 4dbe 824b 32be c11a c1bd
000002a0: 3482 0cbe 8056 72be 8974 8e3e 27e1 7bbe
000002b0: f77a 2ebb 4337 cfbd 6618 27be fea1 abbe
000002c0: a302 56bc da6b eabb b95e 3e3e 1d99 933e
000002d0: 6df2 ee3d 2c9b 123e 3715 52be 0666 0fbe
000002e0: 61d7 e4bb 014b 8c3e ad46 5d3d c5a2 8dbd
000002f0: bc88 d73d 2934 e2bd 1548 eabd 8574 543e
00000300: f5be 2fbd 7926 a23e f875 49bd 4105 9d3d
00000310: 2fe3 c1bd 719a 97bd ccf4 403e 2412 dbbd
00000320: 4b08 983c 1aa5 c0bd c61f 32bd 8ff0 b93d
00000330: 713d b8bd 4474 05be ecdd d73d 2b3b a33d
00000340: c24a 2cbe 10e4 84bd e893 a03c fc23 8a3b
00000350: 688f 2ebd f1b7 0e3e 50de 17be 4f5e ae3d
00000360: 905e 1c3c b87d 26bc 2068 b13b f863 803d
00000370: 5645 473e 9300 593d 3a13 c1bd 8c95 203d
00000380: 61d7 0c3e 3184 a63d f212 c23c 3e3f d43c
00000390: 959a f8bc b9d9 2e3d 73fa 96bd 1783 1ebd
000003a0: d481 093e 7dd2 7a3c 28cb 473e eb4b ed3b
000003b0: 2576 0d3d 7bbc f4bd 6e6f 113e 6ee2 2bbd
000003c0: ffa5 9fbd 0e92 95bc c788 75bc bc68 3dbe
000003d0: 80b3 b7bc a177 04be bf31 64bd aa9e a83c
000003e0: ffe5 f53d d6f3 b33c d7c2 9fbd c6b1 c5bd
000003f0: 768e debd 48b4 47bb dc25 95bd 2998 8dbc

lstm_layer.weight_hh_l0 f4 [256, 64]
-0.09533724 0.269111 0.018558687 0.13896404 -0.0464377 -0.025683125 0.031482894 0.01371085
-0.0033019937 -0.046894323 0.05384703 0.12619402 -0.14958024 -0.104223646 0.081557475 0.16631585
0.057453297 0.10836542 0.052127864 0.117677934 -0.0713762 -0.038686592 0.04990129 -0.1250177
-0.017930843 -0.10176573 0.022427531 0.023201847 0.14538996 0.17393439 -0.11386292 0.032113384
0.026232034 -0.06305392 -0.076743394 -0.063122414 -0.110491805 0.0049050483 -0.09362492 -0.09141756
-0.03838043 -0.011287064 0.08920384 0.091574065 -0.06872509 0.021805119 0.07665038 0.013404399
0.097492225 -0.10246751 -0.13951927 -0.03120132 0.04904941 -0.022916384 0.032031454 -0.13428508
0.1358238 0.14160527 -0.10333938 0.033330362 0.018582497 -0.06314755 -0.034700193 -0.020753484
0.26020068 -0.18425238 0.13969895 -0.254907 0.040794045 0.13763554 -0.037591897 0.23632543
0.09257655 0.23395927 0.18545629 0.15010697 -0.07294535 -0.07940086 -0.014910422 -0.015586162
0.29451787 -0.32101142 0.11285509 0.1195281 0.15492722 0.14556976 0.07079981 -0.12613763
0.10077013 0.115397684 -0.12282436 0.18229562 0.06337472 0.009646273 0.20200598 -0.20298782
-0.004654862 0.14860763 -0.1181126 0.10211628 -0.03230256 0.012178166 0.1534475 -0.11686257
0.012278284 0.22909437 0.016737511 -0.12978333 0.17247993 0.14722377 -0.15681852 0.29921603
-0.12062541 -0.112818055 -0.17524554 -0.141534 0.24558134 -0.1134686 -0.04841049 -0.028600112
0.039205953 -0.06788163 0.15809937 -0.1791389 -0.21875712 0.100903474 0.12082728 -0.31961337
0.1291121 0.021617467 -0.036230274 -0.02381294 -0.044951845 -0.10876982 -0.17908676 0.04763443
-0.08312353 0.059890643 0.01906402 0.10560161 -0.13183603 0.06852633 -0.08164446 0.05296428
-0.063198365 -0.0934168 0.09603074 -0.0995302 -0.0909443 0.047106117 0.03735575 -0.049579002
-0.009843078 0.09890852 -0.10379373 0.015429363 0.17499079 0.13129576 -0.0078020804 -0.11874596
-0.047500048 -0.09272549 -0.044147775 -0.08941649 0.082355864 0.093840204 0.07962711 -0.05806749
-0.034089293 -0.02521214 0.0672111 0.022655927 -0.0052021425 0.07197667 -0.006082112 -0.094441295
0.069064625 -0.12608822 0.12972488 -0.10711126 -0.056372415 -0.058952335 -0.05504211 0.08452572
0.08397435 0.07978798 -0.021378834 -0.00798714 -0.005587453 0.08320764 -0.01835835 0.09939509
0.009886093 0.02908773 -0.008991998 -0.016521437 0.069039874 0.13377027 -0.020434106 0.10845742
0.14946732 0.085929394 0.012636784 0.045606192 0.013329663 0.0036003224 0.09095513 -0.018975139
0.007313674 0.04631485 0.13176161 -0.0079839965 0.012861708 0.055455137 -0.045259446 -0.16305761
0.13485625 0.18512084 0.099427514 0.11157812 -0.0713274 -0.14661522 -0.0014799943 -0.08131632
-0.091538884 0.0038773194 -0.034117978 0.069117 0.12578931 0.13227327 0.05936314 -0.02331896
-0.06345055 0.14325634 -0.052420966 -0.084440626 0.051907424 0.044693086 -0.14597961 0.17047109
0.007991751 -0.0032707471 -0.052382626 -0.16231939 -0.041880585 -0.08104844 0.023764934 0.018663406
0.08204593 -0.12452906 -0.024932733 0.05607712 -0.051932547 0.06600166 0.060816683 0.016144242
00000000: 2c40 c3bd ebc8 893e 6308 983c 974c 0e3e
00000010: 7535 3ebd 6b65 d2bc 35f4 003d 79a3 603c
00000020: 4366 58bb 4314 40bd b48e 5c3d 0139 013e
00000030: 902b 19be 3573 d5bd 9b07 a73d b44e 2a3e
00000040: 2654 6b3d b0ee dd3d 0784 553d 2101 f13d
00000050: af2d 92bd d575 1ebd 4c65 4c3d a404 00be
00000060: b4e3 92bc 8d6a d0bd f1b9 b73c cd11 be3c
00000070: 1be1 143e db1b 323e f630 e9bd 5389 033d
00000080: 90e4 d63c 6a22 81bd a42b 9dbd 5346 81bd
00000090: 8749 e2bd 87ba a03b 6cbe bfbd 2139 bbbd
000000a0: cc34 1dbd 61ed 38bc 81b0 b63d 2f8b bb3d
000000b0: bdbf 8cbd a6a0 b23c e0fa 9c3d 209e 5b3c
000000c0: 01aa c73d 7cda d1bd 24de 0ebe e999 ffbc
000000d0: 09e8 483d 24bb bbbc 6a33 033d 0782 09be
000000e0: 6515 0b3e f900 113e 99a3 d3bd 6b85 083d
000000f0: 523a 983c 8153 81bd ca21 0ebd 3603 aabc
00000100: 0639 853e a8ac 3cbe 3e0d 0f3e 2c83 82be
00000110: a817 273d 55f0 0c3e f6f9 19bd 4bff 713e
00000120: c698 bd3d 0593 6f3e 41e8 3d3e a4b5 193e
00000130: 5f64 95bd eb9c a2bd d84a 74bc 1a5d 7fbc
00000140: 0ccb 963e 9c5b a4be 9220 e73d 26cb f43d
00000150: 3ea5 1e3e 3d10 153e 7eff 903d 392a 01be
00000160: 9260 ce3d 9f55 ec3d 578b fbbd b4ab 3a3e
00000170: 9bca 813d 670b 1e3c a8da 4e3e 0adc 4fbe
00000180: d087 98bb 992c 183e 05e5 f1bd 5722 d13d
00000190: b04f 04bd ee86 473c 5721 1d3e a555 efbd
000001a0: db2a 493c b797 6a3e 1b1d 893c ece5 04be
000001b0: 949e 303e d4c1 163e 0995 20be d832 993e
000001c0: 740a f7bd 270d e7bd 9173 33be 4aee 10be
000001d0: ad79 7b3e 3a62 e8bd 144a 46bd c84a eabc
000001e0: 6c96 203d 8605 8bbd cde4 213e 3070 37be
000001f0: de01 60be 7ba6 ce3d 4b74 f73d 5da4 a3be
00000200: f635 043e 1d17 b13c 3266 14bd 5b13 c3bc
00000210: 6d1f 38bd b6c2 debd 8562 37be 521c 433d
00000220: ab3c aabd e44f 753d 262c 9c3c a845 d83d
00000230: 0600 07be 8857 8c3d 3635 a7bd 13f1 583d
00000240: 256e 81bd 4f51 bfbd c4ab c43d 7dd6 cbbd
00000250: 0141 babd 58f2 403d 5802 193d 5a13 4bbd
00000260: dd44 21bc 8d90 ca3d cf91 d4bd 70cb 7c3c
00000270: c930 333e 6572 063e 98a8 ffbb 1531 f3bd
00000280: 698f 42bd dde6 bdbd 4cd4 34bd fe1f b7bd
00000290: 31aa a83d 4b2f c03d 8a13 a33d 2dd8 6dbd
000002a0: 37a1 0bbd b189 cebc f9a5 893d ec98 b93c
000002b0: bc76 aabb 8168 933d 744c c7bb 706a c1bd
000002c0: c171 8d3d 451d 01be 99d6 043e 265d dbbd
000002d0: c3e6 66bd 0178 71bd d673 61bd d21b ad3d
000002e0: befa ab3d e167 a33d aa22 afbc 7edc 02bc
000002f0: f416 b7bb c468 aa3d 4064 96bc a78f cb3d
00000300: 48f9 213c 6449 ee3c 2c53 13bc f757 87bc
00000310: c764 8d3d 13fb 083e 6d65 a7bc ec1e de3d
00000320: f60d 193e c0fb af3d 840a 4f3c 8fcd 3a3d
00000330: a964 5a3c 63f3 6b3b af46 ba3d c071 9bbc
00000340: 8ba7 ef3b a4b4 3d3d 84ec 063e 4fcf 02bc
00000350: eab9 523c ed24 633d f861 39bd 93f8 26be
00000360: c217 0a3e 5190 3d3e a7a0 cb3d 1283 e43d
00000370: 1a14 92bd 4d22 16be 5efc c1ba 2c89 a6bd
00000380: bd78 bbbd a01a 7e3b 4bbf 0bbd 378d 8d3d
00000390: eace 003e a572 073e c426 733d 6707 bfbc
000003a0: 5df2 81bd cab1 123e 5eb7 56bd 35ef acbd
000003b0: e19c 543d 1910 373d ae7b 15be f98f 2e3e
000003c0: d5ef 023c 085a 56bb 2a8f 56bd 0e37 26be
000003d0: fa8a 2bbd b9fc a5bd aeae c23c 00e4 983c
000003e0: b207 a83d 1809 ffbd bb3f ccbc 1fb1 653d
000003f0: 39b7 54bd e12b 873d ea1a 793d ee40 843c

lstm_layer.bias_ih_l0 f4 [256]
0.06778983 0.3190806 -0.091223806 0.027202718 0.13859606 0.08343653 0.058829207 0.019585922
0.04385814 0.03085701 0.023572924 -0.07806843 -0.058965795 0.05319654 0.03741025 0.079613805
-0.02633777 -0.09985229 -0.01159114 -0.07063276 -0.015905827 -0.036377594 -0.17676531 -0.022492042
-0.13359667 0.07953609 -0.002547161 -0.032227375 0.18086629 0.03203169 -0.11599371 -0.099013306
0.06484526 0.06835542 -0.1070633 0.10082787 -0.08346505 -0.0031998542 -0.07192646 -0.038376737
0.01428853 -0.04882052 0.029094514 0.1251017 0.061438806 -0.073354565 -0.08502958 0.24931136
-0.032396108 0.041656278 0.1172512 -0.09325652 -0.18103771 0.101185 0.041036863 -0.03701423
-0.07777892 0.049545333 -0.036845293 0.08081742 -0.09841697 -0.028943175 -0.063543975 -0.09421675
-0.06850106 0.17068176 -0.0780711 0.06303436 0.055658434 -0.058210652 -0.009047983 -0.1081068
0.055989318 -0.05544325 0.053800076 0.037203565 -0.03615254 -0.035542935 0.069824375 0.06121822
-0.11526076 -0.13164766 -0.077201664 -0.08483047 -0.101296835 0.053307228 0.035877667 -0.12237624
-0.024822606 -0.074055344 -0.097724944 0.01591153 0.016728766 -0.06477492 -0.05908052 0.09365033
-0.039939728 0.010837745 -0.014583745 0.014911045 -0.07539844 0.012204577 0.014061242 -0.02826398
0.04210746 -0.12809008 0.18467912 -0.087240435 -0.05866317 0.1118989 0.09032268 0.12523255
0.0746263 -0.030951891 -0.01995588 -0.22840981 -0.03185284 -0.118166625 -0.09411583 0.08135522
-0.16654705 0.043048967 -0.048271075 0.014131226 -0.12309334 0.04263359 -0.12830147 -0.07562438
0.081066646 -0.12951538 0.11209786 0.023311442 -0.113648735 0.07886728 -0.040536016 0.005656759
-0.05143457 -0.05368793 0.032276325 0.0014989721 -0.055504087 0.052661728 -0.024662059 -0.014570855
0.053727277 -0.023018993 -0.06401674 -0.055083934 0.050577454 0.0456589 -0.014990193 0.06668256
0.04008172 0.0345589 -0.05304134 0.03312916 -0.1467908 -0.10639325 0.07170027 -0.08444259
-0.059857827 -0.011428376 -0.011820954 0.06452735 -0.011780248 0.098589055 0.023221778 -0.07007651
0.07825427 -0.037422597 0.068334356 0.0071534473 0.025947088 0.09557137 -0.033800263 0.017100971
-0.102671444 -0.092780136 -0.027995503 -0.073690645 -0.0234472 -0.09697868 0.059872758 -0.06783861
-0.06620655 -0.06280677 -0.0071573444 -0.05569561 -0.116293505 0.0021426673 0.00057503826 0.045029067
0.0037020163 0.17816265 0.098503925 0.17737798 -0.0130338045 0.16337268 -0.02048618 0.012071717
-0.005144402 0.014933234 -0.04753855 -0.14997785 0.052424833 -0.012804938 0.014231265 0.091657095
-0.16838032 0.065402366 0.053921416 -0.05700775 -0.058438633 0.023055987 -0.16222638 -0.0020716803
-0.018449586 0.049576033 -0.096644156 -0.07404386 0.11834434 0.16661812 0.0698705 -0.07709111
0.07351454 0.10768707 -0.08152802 -0.047043268 -0.14002094 -0.07569284 -0.15851061 0.037288513
0.015417744 -0.012381752 0.1765311 0.07215953 -0.02600331 0.025670936 0.042456593 0.027516106
-0.1516537 0.0793436 0.0037435573 0.14796914 -0.16703096 -0.013808143 -0.10619567 0.011237155
-0.012804125 0.12916669 -0.044549227 -0.060207322 -0.09193091 0.05329894 -0.10720251 0.041982368
00000000: 65d5 8a3d 885e a33e 8cd3 babd 3cd8 de3c
00000010: 20ec 0d3e c5e0 aa3d e5f6 703d a872 a03c
00000020: 98a4 333d d7c7 fc3c 011c c13c 57e2 9fbd
00000030: 1e86 71bd 9de4 593d 7e3b 193d 900c a33d
00000040: 4fc2 d7bc 5b7f ccbd c4e8 3dbc e9a7 90bd
00000050: f04c 82bc ac00 15bd f701 35be 3b41 b8bc
00000060: 91cd 08be d1e3 a23d 45ee 26bb da00 04bd
00000070: 0335 393e a933 033d 1c8e edbd 7dc7 cabd
00000080: 97cd 843d edfd 8b3d 0144 dbbd d87e ce3d
00000090: b9ef aabd a5b4 51bb 2e4e 93bd ed30 1dbd
000000a0: 701a 6a3c 07f8 47bd 9e57 ee3c a91a 003e
000000b0: 42a7 7b3d eb3a 96bd fd23 aebd 7a4b 7f3e
000000c0: c8b1 04bd c69f 2a3d 6621 f03d 46fd bebd
000000d0: f361 39be 153a cf3d 4516 283d 3c9c 17bd
000000e0: 8e4a 9fbd 0cf0 4a3d 17eb 16bd 9a83 a53d
000000f0: d68e c9bd 3d1a edbc 5823 82bd b6f4 c0bd
00000100: 494a 8cbd 33c7 2e3e bee3 9fbd 2918 813d
00000110: 19fa 633d 4b6e 6ebd fe3d 14bc 1967 ddbd
00000120: 0e55 653d 7618 63bd 785d 5c3d c462 183d
00000130: b014 14bd 7895 11bd 1500 8f3d f5bf 7a3d
00000140: d50d ecbd a5ce 06be e81b 9ebd 99bb adbd
00000150: b774 cfbd ae58 5a3d 76f4 123d 65a0 fabd
00000160: c758 cbbc 54aa 97bd 0424 c8bd e658 823c
00000170: c40a 893c b7a8 84bd 6afe 71bd bfcb bf3d
00000180: d797 23bd cc90 313c a9f0 6ebc 754d 743c
00000190: 7f6a 9abd b5f5 473c 2061 663c dd89 e7bc
000001a0: df78 2c3d 0c2a 03be 861c 3d3e 1dab b2bd
000001b0: cb48 70bd 402b e53d 19fb b83d f63c 003e
000001c0: acd5 983d d28e fdbc 837a a3bc 43e4 69be
000001d0: 2078 02bd 5801 f2bd cdbf c0bd 919d a63d
000001e0: 4f8b 2abe 1d54 303d e4b7 45bd a886 673c
000001f0: 5c18 fcbd 8fa0 2e3d 7661 03be f4e0 9abd
00000200: 4506 a63d ae9f 04be 9093 e53d a3f7 be3c
00000210: abc0 e8bd 2b85 a13d 1809 26bd 555c b93b
00000220: 0ead 52bd e0e7 5bbd 2e34 043d 2879 c43a
00000230: 4158 63bd d3b3 573d 1608 cabc 98ba 6ebc
00000240: 2211 5c3d 5492 bcbc 351b 83bd b19f 61bd
00000250: 4e2a 4f3d d404 3b3d 6d99 75bc de90 883d
00000260: bb2c 243d a28d 0d3d e041 59bd 71b2 073d
00000270: 5450 16be b4e4 d9bd 97d7 923d 3df0 acbd
00000280: 7b2d 75bd 153e 3bbc adac 41bc ea26 843d
00000290: f101 41bc 0fe9 c93d 993b be3c 4684 8fbd
000002a0: c643 a03d 7048 19bd e2f2 8b3d 7767 ea3b
000002b0: fd8e d43c ecba c33d 2572 0abd 5617 8c3c
000002c0: 6845 d2bd 8303 bebd d356 e5bc 1feb 96bd
000002d0: 5814 c0bc c29c c6bd 233d 753d f8ee 8abd
000002e0: 4d97 87bd d6a0 80bd 2888 eabb 1421 64bd
000002f0: 4a2b eebd fe6b 0c3b 2abe 163a 6670 383d
00000300: 879d 723b 4570 363e 6dbc c93d 93a2 353e
00000310: bd8b 55bc 2b4b 273e a2d2 a7bc 73c8 453c
00000320: 5f92 a8bb 86aa 743c c8b7 42bd cb93 19be
00000330: 6cbb 563d cdcb 51bc 402a 693c b7b6 bb3d
00000340: e46b 2cbe adf1 853d b4dc 5c3d f580 69bd
00000350: 595d 6fbd e9df bc3c ac1e 26be 07c5 07bb
00000360: 9623 97bc 3d10 4b3d 5fed c5bd 4fa4 97bd
00000370: 845e f23d f19d 2a3e 4418 8f3d f2e1 9dbd
00000380: cb8e 963d 0a8b dc3d 2af8 a6bd 71b0 40bd
00000390: a661 0fbe d904 9bbd 9b50 22be d7bb 183d
000003a0: b59a 7c3c d5dc 4abc 92c4 343e 60c8 933d
000003b0: e504 d5bc db4b d23c f7e6 2d3d 7569 e13c
000003c0: 1c4b 1bbe e67e a23d 7856 753b 3985 173e
000003d0: 2a0a 2bbe 8d3b 62bc 1e7d d9bd 0b1c 383c
000003e0: 65c8 51bc 4644 043e 4079 36bd f49b 76bd
000003f0: 4646 bcbd fd4f 5a3d fd8c dbbd b4f5 2b3d

lstm_layer.bias_hh_l0 f4 [256]
-0.1283549 0.13462585 0.1020001 0.24348651 0.12405853 0.03052711 0.041038267 -0.13543431
0.069349214 -0.06870516 -0.113105685 -0.04409153 -0.027600093 -0.12415144 0.11484943 0.14236423
-0.05337211 -0.018395739 -0.039272588 -0.07767891 -0.04886111 -0.061143905 0.008821829 -0.09648658
-0.09452612 -0.025484322 -0.08023116 -0.11332294 0.13138491 -0.03325521 -0.074899375 -0.017219113
0.013761257 -0.002771529 0.02823957 0.011171976 0.063104466 -0.020629501 -0.14032033 -0.103804804
-0.18197216 0.035859425 0.058398843 -0.020320622 -0.0064466274 -0.06132433 -0.0064033293 0.06546877
0.04499464 -0.02755348 -0.021456368 0.06815398 -0.024291407 -0.020572577 0.11258841 0.07923862
0.038725626 0.019072719 0.06224964 -0.10434267 -0.094959825 0.019844381 -0.023767728 0.05001493
0.04365095 0.36018795 0.026376309 0.13479991 -0.061778516 -0.07995482 0.09291827 -0.06728592
0.0013767862 -0.0014988434 -0.061000545 -0.081266955 -0.015398125 -0.057442054 0.085133396 -0.035000894
-0.090247385 -0.03621664 0.06185324 0.041490026 -0.13326414 0.012138452 -0.16945778 -0.10150566
0.031003084 0.049173284 -0.02586975 -0.079551265 0.15120931 -0.008227607 -0.12802552 0.066891305
-0.10705003 0.0150935985 0.024852643 -0.008278494 -0.06537357 0.0038046502 0.07339807 0.15129428
0.012708147 0.07797071 0.21946418 -0.016603982 -0.0033391537 0.056593478 0.05597981 0.18901573
-0.07590769 -0.054577015 0.032462526 -0.09331251 -0.060216736 -0.11738859 -0.11293738 0.0994034
-0.08695856 -0.04382628 -0.057455175 -0.11759162 0.037700802 0.001407983 0.08921144 -0.018943964
0.07364875 -0.035408426 0.017916776 -0.14005403 0.030040404 0.03596215 0.11227515 -0.015240386
0.06799125 0.13296689 -0.029661883 -0.0016877536 0.13278875 -0.058910113 -0.077837564 -0.106565766
0.029244604 -0.02314458 0.057921372 0.052297045 -0.013910315 -0.07639815 0.0388926 -0.013948064
0.0060417354 0.07052434 0.11135295 0.0076329564 0.05226123 0.008806435 -0.013289167 0.024812186
-0.014742245 0.08123574 -0.081694685 0.01103892 0.09150599 -0.01602074 0.061168592 0.08880071
-0.034676433 0.14359902 -0.15906172 0.07901888 -0.0234601 -0.008398674 0.08201926 0.1299593
0.09979452 -0.07294341 -0.03900936 -0.07218584 -0.00050905417 0.018993875 0.019849306 0.13516758
0.07030187 -0.05015809 0.0073079597 0.07543615 0.07797764 0.054836392 0.10311923 -0.12740432
-0.03173495 0.16586907 0.038728353 0.054118488 0.10645205 -0.05701511 0.08246845 0.037586328
0.09588333 0.06880668 -0.11613582 0.040057972 0.09711355 -0.088215835 0.027327815 0.1791444
-0.011390375 0.010311343 0.011712442 -0.09511462 0.03906996 0.020955173 -0.07774993 -0.03906896
0.0086499555 -0.102896556 -0.02374715 -0.0900638 0.23716858 -0.030335564 0.080962926 -0.07258135
-0.091981016 0.020512043 0.058338687 -0.037617583 -0.0833982 -0.026642237 -0.13049008 0.035422903
-0.0707894 -0.025658997 0.11005815 0.08242102 -0.012363947 0.07191148 0.09233342 0.022984233
-0.15497297 0.090085834 0.16605361 -0.07829047 -0.085746385 0.068154365 -0.09696162 0.106226295
0.065620765 0.14826018 -0.17371069 -0.13592887 0.078301534 -0.00032719734 0.03924601 0.10702735
00000000: 786f 03be 5cdb 093e 6ee5 d03d 8754 793e
00000010: 6612 fe3d fd13 fa3c be17 283d 4baf 0abe
00000020: f606 8e3d 4ab5 8cbd f4a3 e7bd 5299 34bd
00000030: 9719 e2bc 1c43 febd 2e36 eb3d eec7 113e
00000040: b79c 5abd a9b2 96bc 4bdc 20bd 1f16 9fbd
00000050: 9622 48bd 0872 7abd 6f89 103c c29a c5bd
00000060: e996 c1bd 7fc4 d0bc 3c50 a4bd dc15 e8bd
00000070: c489 063e 9d36 08bd d864 99bd 190f 8dbc
00000080: e576 613c 8aa2 35bb ac56 e73c aa0a 373c
00000090: ea3c 813d 33ff a8bc 22b0 0fbe 9d97 d4bd
000000a0: e956 3abe 55e1 123d a033 6f3d 6f77 a6bc
000000b0: 3b3e d3bb 382f 7bbd 05d3 d1bb 7e14 863d
000000c0: 4d4c 383d d6b7 e1bc 44c5 afbc 5094 8b3d
000000d0: c6fe c6bc d287 a8bc c194 e63d dc47 a23d
000000e0: c39e 1e3d 643e 9c3c 7af9 7e3d 9cb1 d5bd
000000f0: 4c7a c2bd af90 a23c 8ab4 c2bc 75dc 4c3d
00000100: 57cb 323d 8e6a b83e 2113 d83c fd08 0a3e
00000110: 780b 7dbd 5abf a3bd ef4b be3d 33cd 89bd
00000120: 4775 b43a d774 c4ba b5db 79bd 4a6f a6bd
00000130: 6b48 7cbc 5c48 6bbd 6b5a ae3d 195d 0fbd
00000140: 9fd3 b8bd e657 14bd d359 7d3d 72f1 293d
00000150: 6576 08be 5ce0 463c 5786 2dbe 33e2 cfbd
00000160: 2efa fd3c ed69 493d ccec d3bc c6eb a2bd
00000170: 9dd6 1a3e 16cd 06bc 1f19 03be 4ffe 883d
00000180: 0c3d dbbd 244b 773c c597 cb3c 85a2 07bc
00000190: 94e2 85bd 7057 793b ba51 963d e3ec 1a3e
000001a0: d535 503c 1caf 9f3d 38bb 603e 1305 88bc
000001b0: b4d5 5abb 90ce 673d 164b 653d 578d 413e
000001c0: 7e75 9bbd 268c 5fbd 6df7 043d a11a bfbd
000001d0: d3a5 76bd 6e69 f0bd b74b e7bd 0394 cb3d
000001e0: 5417 b2bd 2f83 33bd 1e56 6bbd e0d3 f0bd
000001f0: 286c 1a3d 128c b83a 7db4 b63d 5f30 9bbc
00000200: 28d5 963d 6d08 11bd 34c6 923c 536a 0fbe
00000210: 4b17 f63c 0c4d 133d 84f0 e53d d0b2 79bc
00000220: ff3e 8b3d 7928 083e 7afd f2bc 9d37 ddba
00000230: c6f9 073e bb4b 71bd 4d69 9fbd 273f dabd
00000240: 6192 ef3c b499 bdbc f63e 6d3d 6d35 563d
00000250: 17e8 63bc a276 9cbd d94d 1f3d 6c86 64bc
00000260: c0f9 c53b 116f 903d 040d e43d e11d fa3b
00000270: df0f 563d de48 103c ceba 59bc ed42 cb3c
00000280: 7589 71bc ec5e a63d 8b4f a7bd 96dc 343c
00000290: 7e67 bb3d ed3d 83bc eb8b 7a3d 26dd b53d
000002a0: e008 0ebd 9f0b 133e 13e1 22be a7d4 a13d
000002b0: 652f c0bc 989a 09bc b7f9 a73d 0d14 053e
000002c0: 1261 cc3d 5b63 95bd 47c8 1fbd 2bd6 93bd
000002d0: 0c72 05ba 0b99 9b3c 039b a23c 5f69 0a3e
000002e0: 6dfa 8f3d 9272 4dbd 9c77 ef3b 457e 9a3d
000002f0: beb2 9f3d 209c 603d 2d30 d33d 4776 02be
00000300: 82fc 01bd 95d9 293e 9fa1 1e3d 59ab 5d3d
00000310: 8803 da3d ad88 69bd 38e5 a83d 1ff4 193d
00000320: 7b5e c43d 84ea 8c3d 9ed8 edbd d413 243d
00000330: 78e3 c63d 81aa b4bd 95de df3c a171 373e
00000340: b29e 3abc e8f0 283c 8be5 3f3c 74cb c2bd
00000350: d307 203d 2faa ab3c 5b3b 9fbd c606 20bd
00000360: 8bb8 0d3c 6ebb d2bd 6289 c2bc 5f73 b8bd
00000370: 52dc 723e 4a82 f8bc e4cf a53d 88a5 94bd
00000380: 8b60 bcbd df08 a83c 8cf4 6e3d e514 1abd
00000390: adcc aabd d240 dabc 319f 05be 9b17 113d
000003a0: 08fa 90bd d132 d2bc 2b66 e13d 5acc a83d
000003b0: 2792 4abc 5346 933d 4e19 bd3d 6e49 bc3c
000003c0: 3cb1 1ebe ec7e b83d f509 2a3e c156 a0bd
000003d0: cd9b afbd 8494 8b3d d093 c6bd 2c8d d93d
000003e0: 2e64 863d 84d1 173e 37e1 31be f030 0bbe
000003f0: 8e5c a03d af8b abb9 6dc0 203d 2831 db3d

lstm_layer.weight_ih_l1 f4 [256, 64]
-0.00062937895 -0.1155141 0.020498293 -0.047070343 -0.17226239 -0.08827978 0.075764254 -0.09359758
-0.03924717 -0.029864449 -0.031203587 0.0222995 0.040616475 0.031704348 -0.08203336 -0.08395581
0.023011703 -0.09139035 0.015597387 0.0011915227 -0.013035908 -0.14132118 -0.032568358 0.1211077
0.039740425 0.0058195614 -0.030637642 0.024806442 -0.29855832 -0.055230487 -0.11935369 -0.05520263
0.0074239285 0.12128084 -0.0330346 -0.10054716 0.09970846 0.13023269 0.040751178 0.11924529
-0.051993832 0.07715426 -0.10986996 -0.06806725 -0.1749014 -0.13592571 -0.0013457324 0.016369872
-0.058350295 0.014112323 0.015193994 0.09315459 -0.11191597 -0.13207783 -0.09323499 -0.049735606
-0.154419 0.049389765 -0.010755585 -0.055165544 0.091390945 -0.10448566 0.057197478 0.15768328
0.05215251 0.07699153 -0.110215545 0.04853648 -0.05369493 0.052175313 0.1404581 -0.07453832
0.043752562 -0.08279392 -0.068044856 -0.045851637 0.14327979 0.058773562 -0.02701641 0.03792401
0.03805541 0.063302666 -0.10449741 -0.115759924 -0.12146955 -0.06821031 0.005332226 -0.038593013
0.015896903 0.094365425 -0.09716884 -0.12707691 -0.20660128 0.02046429 -0.081504814 0.07978125
-0.043247145 0.0784961 -0.111623734 -0.053798147 0.09667608 -0.1024927 0.047082447 0.027101059
0.099159546 0.12593009 -0.011715958 0.04436114 -0.09277329 0.000332775 -0.08853388 -0.04567312
0.073114604 -0.069415554 0.0838651 0.066070996 -0.042183507 -0.08476562 0.08655109 0.12756798
-0.09772757 -0.10120464 -0.0138103515 0.040252484 -0.022802508 0.03364993 -0.07893601 0.119139485
0.03871327 -0.055554215 -0.009265967 -0.120267086 -0.045936357 -0.07080912 0.10639306 -0.020156084
0.034871023 -0.0045505418 0.056742694 0.051978268 0.16205837 0.07813183 -0.03780891 -0.12639722
-0.0010663774 -0.12521802 0.019035509 -0.027330857 -0.089863166 -0.09917553 0.055466827 -0.018044004
-0.006488895 0.096024975 0.06456958 0.08724668 -0.061848417 0.029583111 -0.025443526 -0.07744129
-0.041270554 0.009884518 -0.07515488 0.11596476 -0.097548865 -0.07111797 -0.051296383 0.027792985
0.07188219 0.033236448 0.058536228 0.06895783 -0.039523374 -0.12725052 0.026936661 0.07081942
-0.04629595 -0.029837888 0.060179923 0.12443626 -0.059909277 -0.03373595 0.09798323 0.017953109
0.06494868 0.062766425 -0.10260573 0.04343674 0.09674664 -0.053893007 0.023727808 0.0696835
0.06527754 0.15505044 -0.09451441 -0.11166514 -0.09936399 -0.08261076 -0.05323764 0.09130607
-0.0720201 0.11406479 -0.10310804 -0.0058869375 0.10458183 -0.07328476 0.07008053 0.051637623
-0.0032320719 -0.092625186 0.004744642 0.102865085 -0.03887471 0.0973116 -0.09160982 -0.022223046
0.006475406 0.0903491 -0.02170248 -0.09042182 -0.124617025 0.005080545 -0.01807948 -0.060129527
0.04979419 0.045436863 0.002575365 -0.04603211 0.05301071 0.061902966 0.05173754 -0.0071818097
0.090069085 0.14310755 0.08289573 -0.026823156 -0.07876498 0.08021973 -0.11307064 -0.0832651
-0.022510925 0.015805427 0.036182437 -0.05854611 0.055785894 -0.09829029 0.100963145 0.034568127
-0.14725396 0.08680864 0.016067583 0.10005055 -0.09895538 0.075366095 0.050002173 -0.11449079
00000000: e8fc 24ba a892 ecbd 09ec a73c d5cc 40bd
00000010: 8d65 30be 07cc b4bd 4a2a 9b3d 17b0 bfbd
00000020: a4c1 20bd 4aa6 f4bc aa9e ffbc 71ad b63c
00000030: 765d 263d 6bdc 013d 1b01 a8bd 06f1 abbd
00000040: 0a83 bc3c dd2a bbbd 2f8c 7f3c de2c 9c3a
00000050: 9094 55bc 80b6 10be 6666 05bd 5007 f83d
00000060: dbc6 223d 05b2 be3b cbfb fabc e136 cb3c
00000070: a3dc 98be 5d39 62bd b56f f4bd 271c 62bd
00000080: 6d44 f33b 1762 f83d 4a4f 07bd abeb cdbd
00000090: f333 cc3d b85b 053e b5ea 263d e036 f43d
000000a0: 7cf7 54bd 0d03 9e3d 8003 e1bd d866 8bbd
000000b0: 5a19 33be 1c30 0bbe 4963 b0ba 1c1a 863c
000000c0: b800 6fbd 5f37 673c 3bf0 783c d5c7 be3d
000000d0: 3334 e5bd 693f 07be fdf1 bebd 90b7 4bbd
000000e0: 0420 1ebe ec4c 4a3d 3138 30bc 44f5 61bd
000000f0: 2d2b bb3d 94fc d5bd e747 6a3d ba77 213e
00000100: df9d 553d bcad 9d3d b0b8 e1bd 30ce 463d
00000110: 37ef 5bbd c8b5 553d 40d4 0f3e 8ca7 98bd
00000120: e335 333d dc8f a9bd 1a5b 8bbd edce 3bbd
00000130: f0b7 123e 8cbc 703d 8551 ddbc 3556 1b3d
00000140: fddf 1b3d d4a4 813d bd02 d6bd 8a13 edbd
00000150: 07c5 f8bd d9b1 8bbd f4b9 ae3b b513 1ebd
00000160: 393a 823c a942 c13d 7500 c7bd 7320 02be
00000170: 498f 53be baa4 a73c ffeb a6bd 5a64 a33d
00000180: eb23 31bd 90c2 a03d fc9a e4bd 725b 5cbd
00000190: 1cfe c53d b1e7 d1bd 86d9 403d 0a03 de3c
000001a0: 2914 cb3d d1f3 003e 4af4 3fbc 07b4 353d
000001b0: ecff bdbd 4e78 ae39 4051 b5bd bd13 3bbd
000001c0: 1cbd 953d be29 8ebd 77c1 ab3d 3b50 873d
000001d0: 9dc8 2cbd 9999 adbd b341 b13d 2ea1 023e
000001e0: 6425 c8bd 6144 cfbd d044 62bc cadf 243d
000001f0: 53cc babc 82d4 093d 34a9 a1bd 67ff f33d
00000200: ce91 1e3d d18c 63bd 48d0 17bc 974e f6bd
00000210: c327 3cbd 5f04 91bd 9be4 d93d 5f1e a5bc
00000220: ebd4 0e3d b61c 95bb 076b 683d 2ae7 543d
00000230: a1f2 253e 9503 a03d 84dd 1abd 466e 01be
00000240: b0c5 8bba 2739 00be 5bf0 9b3c f6e4 dfbc
00000250: 2e0a b8bd 8a1c cbbd 2f31 633d 05d1 93bc
00000260: cca0 d4bb bea8 c43d 0e3d 843d 63ae b23d
00000270: c454 7dbd 4858 f23c f16e d0bc 8a99 9ebd
00000280: 500b 29bd acf2 213c cdea 99bd ef7e ed3d
00000290: b3c7 c7bd 4ca6 91bd 281c 52bd 1dae e33c
000002a0: f836 933d f122 083d afc3 6f3d c339 8d3d
000002b0: 43e3 21bd f64d 02be 46aa dc3c c609 913d
000002c0: d2a0 3dbd 966e f4bc 397f 763d 70d8 fe3d
000002d0: 6e63 75bd b52e 0abd 6fab c83d 6612 933c
000002e0: d003 853d af8b 803d f422 d2bd b9ea 313d
000002f0: 1a23 c63d eabe 5cbd d260 c23c 39b6 8e3d
00000300: 3bb0 853d 8bc5 1e3e c590 c1bd b1b0 e4bd
00000310: 597f cbbd d52f a9bd b60f 5abd adfe ba3d
00000320: 467f 93bd cd9a e93d 4f2a d3bd 36e7 c0bb
00000330: 002f d63d 5216 96bd 6286 8f3d f981 533d
00000340: 2bd1 53bb 46b2 bdbd f178 9b3b eeaa d23d
00000350: 173b 1fbd 4e4b c73d ee9d bbbd 1b0d b6bc
00000360: a42f d43b f308 b93d 66c9 b1bc 132f b9bd
00000370: 3637 ffbd b37a a63b 6b1b 94bc 614a 76bd
00000380: fef4 4b3d 011c 3a3d 74c7 283b 2a8c 3cbd
00000390: c221 593d f78d 7d3d beea 533d 6355 ebbb
000003a0: 2476 b83d c98a 123e 3dc5 a93d 3cbc dbbc
000003b0: 894f a1bd 3e4a a43d 9491 e7bd e586 aabd
000003c0: d568 b8bc 627a 813c 0934 143d 0cce 6fbd
000003d0: c07f 643d 6b4c c9bd c4c5 ce3d 4f97 0d3d
000003e0: bec9 16be bac8 b13d 2aa0 833c 4ee7 cc3d
000003f0: 1ea9 cabd 8a59 9a3d 14cf 4c3d 267a eabd

lstm_layer.weight_hh_l1 f4 [256, 64]
0.036015693 0.15345046 -0.018143712 -0.07280727 -0.03770127 -0.04179396 -0.067322314 0.07890654
0.01100566 -0.12674016 0.06374772 -0.027851187 0.06742388 0.04709342 0.15384406 0.066993356
0.17490865 -0.1019945 0.029984072 0.056516077 -0.03499533 0.08335374 -0.09438572 0.14766221
-0.060470633 -0.12667744 0.059469596 0.15535104 -0.1497517 -0.040835682 -0.06472852 -0.10637446
-0.10301053 -0.106252 0.06684519 0.10536364 -0.09719414 -0.039611313 -0.05291144 -0.06981236
-0.013174292 0.1480954 0.07448538 0.011612803 0.13031809 -0.048647296 0.0021638717 0.07626245
0.031009179 -0.020906901 0.14935231 0.042639647 0.089687705 -0.034969036 -0.109489106 0.0061884783
0.061252713 0.11591784 -0.102809615 0.12452084 -0.027207479 0.016271321 -0.01698022 0.04541264
-0.10845853 -0.06930723 -0.1021614 -0.039103836 0.015540382 -0.10793453 -0.13015246 0.04037544
-0.022588732 -0.1006109 -0.061024804 -0.028282296 -0.015786584 -0.06725995 -0.0063830204 0.01412256
-0.049649402 0.07910091 -0.012875724 -0.025693553 0.10911998 0.09030055 -0.13059285 -0.010054844
-0.13321002 -0.03146773 -0.09967161 0.12625314 -0.047990426 0.15176904 0.086172126 -0.018888209
-0.10939453 -0.053785115 -0.07488401 -0.10348199 0.059830688 -0.09752039 0.041982584 -0.069236286
0.0051000533 0.083249964 0.1072642 0.05210399 0.10785689 -0.040330477 0.060634945 0.101551466
-0.082425855 0.12671569 0.091368206 -0.060733855 -0.06955018 -0.040386807 -0.06846615 0.03389804
0.06176343 -0.13323888 -0.031934045 0.10464106 0.016659394 0.0030485934 -0.08602588 0.04833806
-0.13178271 0.11280565 0.07317899 0.11291527 0.015383876 0.07901458 0.054805297 0.08845749
-0.13263994 0.065134406 0.13701378 0.021364123 0.01718363 -0.027327996 -0.043259613 0.13494535
0.068266876 -0.021936873 -0.042114332 -0.09687952 -0.024491664 -0.010864706 -0.008907767 -0.05784745
-0.12610461 -0.029555755 -0.07247831 -0.024909452 -0.07127756 0.0764812 0.13354576 0.045201775
0.015231546 0.12743223 -0.043400563 0.1146033 0.08751118 -0.11122003 -0.08983144 -0.044195283
-0.057215616 0.033189822 0.10392238 -0.17649436 0.15754128 0.0004800952 0.12826739 0.056927014
-0.06197185 0.024710301 0.06985297 -0.14298719 0.09179587 0.18174784 0.053894415 -0.054929256
-0.04235185 0.07865565 0.058586963 0.015215777 -0.0035705222 0.013703825 0.001398647 -0.09256421
-0.10730533 -0.0708579 -0.07911643 0.02544385 0.03540849 0.043797005 0.10426275 0.17522918
-0.040193353 -0.07884653 0.014375915 -0.10061084 -0.01162047 -0.072345234 -0.0059764786 0.056245543
0.06778102 0.006230367 0.09178367 0.009080296 0.09814434 0.09008991 0.09039174 0.01081242
-0.0127498675 0.038227543 -0.07466153 -0.11210481 -0.058602847 0.11078581 0.08637443 -0.04527747
0.07632211 -0.048147276 -0.05025225 0.0693524 -0.07174115 -0.0049266727 0.045846187 -0.10590529
-0.10684111 -0.0922585 -0.02164165 -0.18275279 0.026306681 0.045630552 0.10815301 -0.06733554
-0.007229957 0.119023226 0.004415018 -0.09030717 0.09220375 -0.042371944 -0.0026778083 -0.023709467
0.055843286 -0.16362461 -0.054870013 0.14974521 0.039648652 -0.10149728 0.15348665 -0.04890596
00000000: 3185 133d 1e22 1d3e 1fa2 94bc fa1b 95bd
00000010: a66c 1abd 2530 2bbd 48e0 89bd c199 a13d
00000020: 1551 343c 2cc8 01be 2a8e 823d 2c28 e4bc
00000030: 8815 8a3d 08e5 403d 4c89 1d3e d033 893d
00000040: 411b 333e 7ee2 d0bd 28a1 f53c 677d 673d
00000050: 4357 0fbd 5eb5 aa3d 4d4d c1bd c334 173e
00000060: 0eb0 77bd bbb7 01be 6496 733d 5814 1f3e
00000070: 8258 19be 5143 27bd 6390 84bd dada d9bd
00000080: 2ff7 d2bd a69a d9bd 22e6 883d e4c8 d73d
00000090: b90d c7bd 793f 22bd abb9 58bd c8f9 8ebd
000000a0: fcd8 57bc 52a6 173e ca8b 983d a043 3e3c
000000b0: 1b72 053e 6342 47bd becf 0d3b 7d2f 9c3d
000000c0: f606 fe3c f344 abbc d0ef 183e e9a6 2e3d
000000d0: 30ae b73d b13b 0fbd d33b e0bd b8c8 ca3b
000000e0: 20e4 7a3d 5566 ed3d d98d d2bd c804 ff3d
000000f0: 38e2 debc 6f4b 853c 1a1a 8bbc 9b02 3a3d
00000100: 811f debd f3f0 8dbd ff39 d1bd 582b 20bd
00000110: 169d 7e3c c70c ddbd b046 05be b860 253d
00000120: 010c b9bc 160d cebd 25f5 79bd 46b0 e7bc
00000130: de52 81bc 96bf 89bd a828 d1bb 4f62 673c
00000140: 2c5d 4bbd a8ff a13d b3f4 52bc 497b d2bc
00000150: 4c7a df3d 7fef b83d 22ba 05be 13bd 24bc
00000160: 3568 08be 4ee4 00bd a120 ccbd 8148 013e
00000170: 9c91 44bd 5869 1b3e 037b b03d 72bb 9abc
00000180: 3d0a e0bd c84d 5cbd ca5c 99bd 5eee d3bd
00000190: 0611 753d c5b8 c7bd eef5 2b3d c1cb 8dbd
000001a0: 591e a73b f57e aa3d 55ad db3d fe6a 553d
000001b0: 13e4 dc3d 9231 25bd 595c 783d 37fa cf3d
000001c0: e3ce a8bd c2c1 013e 411f bb3d 10c4 78bd
000001d0: 5370 8ebd a36c 25bd fb37 8cbd acd8 0a3d
000001e0: a6fb 7c3d c66f 08be 46cd 02bd 0d4e d63d
000001f0: 4879 883c e9ca 473b 562e b0bd 21fe 453d
00000200: 0cf2 06be a606 e73d dede 953d 1f40 e73d
00000210: a70c 7c3c 65d2 a13d 857b 603d 3329 b53d
00000220: c4d2 07be 3065 853d 574d 0c3e d003 af3c
00000230: afc4 8c3c f6de dfbc fe30 31bd 1d2f 0a3e
00000240: 81cf 8b3d f5b4 b3bc 1480 2cbd c568 c6bd
00000250: bea2 c8bc e101 32bc e2f1 11bc 73f1 6cbd
00000260: 9121 01be e91e f2bc 826f 94bd e80e ccbc
00000270: f8f9 91bd 2da2 9c3d 38c0 083e 7f25 393d
00000280: bc8d 793c 987d 023e cac4 31bd 23b5 ea3d
00000290: 1039 b33d 54c7 e3bd 8cf9 b7bd 1d06 35bd
000002a0: ec5a 6abd 0df2 073d 42d5 d43d f0ba 34be
000002b0: 8052 213e 49b5 fb39 8758 033e 4d2c 693d
000002c0: 32d6 7dbd 426d ca3c 130f 8f3d 3c6b 12be
000002d0: 79ff bb3d 1b1c 3a3e 64c0 5c3d 80fd 60bd
000002e0: 2279 2dbd 3716 a13d e2f8 6f3d 984b 793c
000002f0: 6cff 69bb 0286 603c ce52 b73a 4e92 bdbd
00000300: e6c2 dbbd f21d 91bd cb07 a2bd 9f6f d03c
00000310: 7e08 113d 7d64 333d b587 d53d 476f 333e
00000320: c9a1 24bd 4a7a a1bd f588 6b3c 0e0d cebd
00000330: c963 3ebc bd29 94bd 56d6 c3bb ba61 663d
00000340: c7d0 8a3d 1b28 cc3b 14f9 bb3d 86c5 143c
00000350: e6ff c83d 0f81 b83d 4e1f b93d 9426 313c
00000360: d2e4 50bc 7c94 1c3d 25e8 98bd 3597 e5bd
00000370: 8a09 70bd ace3 e23d 14e5 b03d de74 39bd
00000380: c44e 9c3d 1436 45bd 4ed5 4dbd a208 8e3d
00000390: 06ed 92bd ed6f a1bb 36c9 3b3d dfe4 d8bd
000003a0: 83cf dabd 06f2 bcbd d449 b1bc 8c23 3bbe
000003b0: 1c81 d73c 1ae7 3a3d 537f dd3d 37e7 89bd
000003c0: 46e9 ecbb 73c2 f33d dbab 903b f7f2 b8bd
000003d0: 52d5 bc3d 348e 2dbd 2b7e 2fbb 5b3a c2bc
000003e0: eebb 643d 368d 27be 61bf 60bd cf56 193e
000003f0: a066 223d cedd cfbd 9b2b 1d3e 9e51 48bd

lstm_layer.bias_ih_l1 f4 [256]
-0.09471371 0.025243955 -0.054130595 -0.027536368 0.1404511 0.011790116 0.04624559 0.01990609
-0.08904764 -0.050835412 -0.04261136 -0.09719621 -0.07211182 -0.01622267 0.050108243 0.0120218005
0.011326188 0.06055158 -0.0094801 0.05286354 0.09093238 0.073474705 0.12764859 0.009211237
-0.100266725 -0.04021481 -0.097854055 0.07284175 0.10012307 -0.0023895018 0.061823502 0.019693822
-0.03822685 -0.09539436 -0.05195613 -0.0027233162 0.030506417 -0.05049072 0.0059865434 0.06364733
-0.11799554 -0.11462792 0.04607213 0.05146828 0.02068186 0.08999055 0.0010867135 0.104679324
-0.0052293004 -0.11980381 -0.026976112 0.025647778 -0.09774095 0.078541346 0.059494797 0.1397562
-0.06616507 -0.034111165 0.0712137 -0.09748228 0.03696134 -0.12439309 0.04106638 0.0069332807
0.05084196 -0.0074232393 0.096657224 -0.048588574 0.031535827 -0.012430254 -0.09846432 -0.05216891
0.10887266 -0.026505915 -0.076877914 0.036004838 0.078253955 -0.11955463 -0.10230896 0.034259852
0.0936018 -0.12554486 -0.021486916 0.08649478 -0.05056627 0.09120798 0.085196 -0.018514026
-0.0047747497 -0.08415827 -0.029895822 0.060061086 -0.1221801 -0.10547955 -0.077340186 0.054116387
-0.0441105 -0.14954583 0.06439376 0.048061993 -0.09961742 -0.030187178 -0.06909415 -0.1875139
0.07820669 -0.10577732 -0.024094997 0.07285496 0.063713744 -0.12231287 -0.013473229 0.09814597
0.06575432 0.028616885 0.1035214 0.06338353 0.050664384 -0.00649868 0.073301576 -0.103923716
-0.0015032934 -0.13023329 -0.09513639 -0.024369316 -0.07744194 -0.13008784 0.04490324 -0.06563593
0.055208866 -0.022491358 0.075988084 -0.12958533 -0.01782787 0.06698949 0.016856559 0.05562547
0.12151676 0.017676402 -0.06900599 -0.009996762 0.0050104703 0.062192235 -0.082933314 -0.021451434
-0.12364874 0.014788986 -0.07912651 0.13547003 0.031458814 0.042366125 0.118225046 -0.003854273
-0.010166203 0.03077688 0.13458931 -0.0029294782 0.05104892 -0.069194 0.09062168 0.043264672
0.15971224 0.06354177 0.024092231 -0.02276256 -0.09088519 0.108234204 -0.07149945 -0.041155305
-0.016221099 0.048495535 -0.096471965 0.13758138 0.0074626785 0.04924115 -0.13153902 -0.12468955
-0.04663162 -0.024913916 -0.03678089 0.13210839 0.05914309 0.0057178745 6.8258894e-05 0.010434404
-0.08832617 0.039069172 0.07516317 0.047767777 -0.1341635 -0.029892951 0.066310585 0.046260092
-0.016465934 -0.097122036 -0.016741611 -0.099618115 0.10232009 -0.022064451 -0.016375514 0.019977214
-0.07308027 -0.055400115 -0.08876441 -0.07131659 -0.029131707 -0.13717575 -0.11054226 -0.02265364
0.028099224 -0.059111845 0.14586627 -0.037097372 0.032239117 -0.08288055 -0.1110658 0.09278815
-0.08725529 0.073183976 -0.06257897 -0.10209714 -0.13853654 0.10543547 0.12133013 0.020067899
0.08727698 0.055279244 0.04449426 -0.015299207 -0.01970878 0.010887839 -0.0932816 -0.13041283
-0.07754329 -0.024164287 0.0094337305 -0.045257725 0.08792654 -0.07055418 0.10723699 -0.08711526
0.11067328 0.054569025 0.16206843 -0.09390068 0.022378374 -0.020559823 0.086642586 -0.04524853
-0.0642509 -0.11074088 0.0627792 0.008798372 -0.020001814 -0.019396756 -0.07073901 0.01242928
00000000: 43f9 c1bd 69cc ce3c 0bb8 5dbd f393 e1bc
00000010: 6ad2 0f3e 552b 413c 046c 3d3d 1912 a33c
00000020: 9c5e b6bd cb38 50bd 4089 2ebd ce0e c7bd
00000030: 5daf 93bd 68e5 84bc 4d3e 4d3d 16f7 443c
00000040: 7a91 393c ef04 783d 6c52 1bbc 7087 583d
00000050: c13a ba3d e879 963d 50b6 023e baea 163c
00000060: a458 cdbd 49b8 24bd b567 c8bd 0e2e 953d
00000070: 530d cd3d 3099 1cbb a43a 7d3d f054 a13c
00000080: c293 1cbd 1e5e c3bd f3cf 54bd aa79 32bb
00000090: 98e8 f93c 5bcf 4ebd c42a c43b 8859 823d
000000a0: a5a7 f1bd 0bc2 eabd 21b6 3c3d 67d0 523d
000000b0: 016d a93c f74c b83d 0e70 8e3a 1d62 d63d
000000c0: 8d5a abbb b35b f5bd 02fd dcbc 4a1b d23c
000000d0: 682c c8bd 49da a03d d1b0 733d 401c 0f3e
000000e0: 8d81 87bd 26b8 0bbd 7dd8 913d caa4 c7bd
000000f0: c664 173d cec1 febd 3835 283d 9330 e33b
00000100: a93f 503d a53e f3bb 39f4 c53d d004 47bd
00000110: b62b 013d 44a8 4bbc a9a7 c9bd 11af 55bd
00000120: a1f8 de3d ef22 d9bc 2b72 9dbd cf79 133d
00000130: 9c43 a03d 0fd9 f4bd 5c87 d1bd 0f54 0c3d
00000140: 4db2 bf3d d58e 00be 5405 b0bc 2d24 b13d
00000150: 941e 4fbd 40cb ba3d 3e7b ae3d baaa 97bc
00000160: 8175 9cbb 2c5b acbd 15e8 f4bc 9d02 763d
00000170: 8f39 fabd aa05 d8bd 8864 9ebd 25a9 5d3d
00000180: 36ad 34bd 8b22 19be e0e0 833d a7dc 443d
00000190: 3804 ccbd 1a4b f7bc 3c81 8dbd a503 40be
000001a0: d42a a03d c8a1 d8bd df62 c5bc fb34 953d
000001b0: 5a7c 823d 2c7f fabd d1be 5cbc c100 c93d
000001c0: 33aa 863d f56d ea3c 0703 d43d 39cf 813d
000001d0: 7585 4f3d e1f2 d4bb 231f 963d f5d5 d4bd
000001e0: 280a c5ba e05b 05be ded6 c2bd 29a2 c7bc
000001f0: e199 9ebd bf35 05be 76ec 373d 216c 86bd
00000200: b122 623d cc3f b8bc a49f 9b3d 04b2 04be
00000210: c10b 92bc c931 893d c416 8a3c 88d7 633d
00000220: c7dd f83d 1ace 903c 0353 8dbd 75c9 23bc
00000230: df2e a43b 49bd 7e3d f1d8 a9bd ebba afbc
00000240: 8d3b fdbd 814d 723c 140d a2bd a8b8 0a3e
00000250: f5da 003d 1a88 2d3d f91f f23d f897 7cbb
00000260: 2590 26bc cc1f fc3c c8d1 093e 7dfc 3fbb
00000270: ac18 513d 95b5 8dbd dc97 b93d 4c36 313d
00000280: 9b8b 233e 3022 823d 125d c53c 8c78 babc
00000290: 0422 babd e5a9 dd3d 4e6e 92bd 7792 28bd
000002a0: 1ce2 84bc 41a3 463d 1893 c5bd 22e2 0c3e
000002b0: 7c89 f43b 17b1 493d 2ab2 06be 3c5d ffbd
000002c0: cc00 3fbd 4518 ccbc 8fa7 16bd 6c47 073e
000002d0: 0640 723d 025d bb3b 3726 8f38 10f5 2a3c
000002e0: 5ae4 b4bd ff06 203d 26ef 993d 25a8 433d
000002f0: 2862 09be 10e2 f4bc d8cd 873d 397b 3d3d
00000300: 91e3 86bc ebe7 c6bd b425 89bc 9504 ccbd
00000310: 328d d13d 82c0 b4bc f125 86bc 41a7 a33c
00000320: 1cab 95bd 3beb 62bd 1dca b5bd 6f0e 92bd
00000330: 9ea5 eebc cd77 0cbe fb63 e2bd 2094 b9bc
00000340: 5830 e63c 431f 72bd f85d 153e 6af3 17bd
00000350: 2a0d 043d 47bd a9bd 7776 e3bd b707 be3d
00000360: e7b2 b2bd 7be1 953d 6729 80bd 4e18 d1bd
00000370: 86dc 0dbe 8dee d73d ee7b f83d 6f65 a43c
00000380: 46be b23d 7d6c 623d 9d3f 363d 86a9 7abc
00000390: 4f74 a1bc e862 323c 6c0a bfbd f18a 05be
000003a0: 04cf 9ebd 2ff4 c5bc ef8f 1a3c 2a60 39bd
000003b0: d412 b43d b67e 90bd 119f db3d 7c69 b2bd
000003c0: aca8 e23d c583 5f3d 44f5 253e 004f c0bd
000003d0: da52 b73c 136d a8bc ab71 b13d 8656 39bd
000003e0: fa95 83bd 1dcc e2bd 6292 803d 0c27 103c
000003f0: d8da a3bc f2e5 9ebc 9ddf 90bd 2ea4 4b3c
