models/enhanced_model/model.pth (torch, 205733 bytes, 9 tensors)

lstm_layer.weight_ih_l0 f4 [256, 1]
0	0xbc58d901	-0.0132353315
1	0x3e640958	0.2226919
2	0x3e9c02af	0.30470797
3	0xbd8c9a40	-0.06865358
4	0x3db90a1d	0.09035132
5	0x3d474019	0.048645113
6	0xbe840a7f	-0.25789258
7	0xbcbec5c5	-0.023287663
8	0x3bbc3707	0.0057438645
9	0xbdb1fe47	-0.08691078
10	0xbe4fddbe	-0.20299432
11	0x3e6a3baa	0.22874323
12	0xbe278251	-0.16358306
13	0x3dfb672c	0.12275538
14	0xbe31b8e1	-0.17355682
15	0x3c829a47	0.015942706
16	0xbd1c4efa	-0.038161255
17	0xbdd9e2b8	-0.10638946
18	0x3c364d7e	0.011126874
19	0x3dfab005	0.12240604
20	0xbc1a045d	-0.009400454
21	0xbc8925ef	-0.016741721
22	0x3dfe7d84	0.12426284
23	0x3e4573db	0.19282477
24	0x3b52fdd0	0.003219474
25	0xbda654ee	-0.08121668
26	0xbe678c31	-0.22612073
27	0xbe1c0e53	-0.1523984
28	0x3e3ead87	0.18620883
29	0x3de407fb	0.11134335
30	0x3d326f52	0.043563195
31	0xbda06f3d	-0.07833717
32	0xbe267276	-0.16254601
33	0xbd83c035	-0.06433145
34	0x3dcbee54	0.09957567
35	0xbcd1efc9	-0.025627034
36	0xbc3b797e	-0.01144254
37	0xbbf4d7eb	-0.0074720285
38	0xbd7d2e1d	-0.061811555
39	0xbd57df34	-0.052703097
40	0x3d85cd7d	0.065333344
41	0x3e0ff0f0	0.14056754
42	0xbd287bfd	-0.04113387
43	0xbdfd3a88	-0.123646796
44	0x3d33759f	0.043813344
45	0xbe066955	-0.13126118
46	0x3e4fe194	0.20300895
47	0x3d84b386	0.06479554
48	0x3dba1ef0	0.09087932
49	0x3d6ca4d2	0.057774372
50	0x3c99ee4b	0.018790385
51	0x3b2da7d6	0.0026497743
52	0xbde24818	-0.11048907
53	0x3da975a6	0.08274393
54	0x3db947e3	0.090469144
55	0xbdefec3f	-0.11714982
56	0x3e3f8be8	0.18705714
57	0x3e198353	0.14991502
58	0x3d824d6e	0.06362425
59	0xbd53cf22	-0.05171121
60	0xbdbe25b2	-0.092845336
61	0x3d454a7f	0.048166748
62	0xbdc7dab6	-0.09758513
63	0x3dddd0e0	0.10830855
64	0x3c3c8cf4	0.011508215
65	0x3e81d939	0.2536104
66	0x3e854510	0.26029253
67	0x3d889d6e	0.06670652
68	0x3e0c4348	0.13697541
69	0x3d6dbb7f	0.05804014
70	0xbea0f81c	-0.31439292
71	0xbd68ffdc	-0.05688463
72	0x3c8454e9	0.01615377
73	0xbe1d6aa8	-0.15372717
74	0xbe27ceb2	-0.16387442
75	0x3e59f752	0.21285751
76	0x3db8e7d4	0.09028593
77	0x3e09e030	0.13464427
78	0xbdaef9b3	-0.0854372
79	0xbb819f93	-0.0039557903
80	0xbb9e92e2	-0.004839287
81	0x3d767c8a	0.060177363
82	0x3de78f46	0.11306624
83	0xbd813656	-0.06309192
84	0x3e1246da	0.1428484
85	0x3b9bafef	0.0047511975
86	0x3e011198	0.12604368
87	0x3c8b121b	0.016976407
88	0x3e0591a8	0.13043845
89	0xbd60f5e8	-0.054922014
90	0xbd841be8	-0.06450635
91	0x3e0fe85d	0.14053483
92	0x3dcf8477	0.101326875
93	0x3e5d266c	0.21596688
94	0x3d1d1f49	0.038359914
95	0xbd0b4e03	-0.034009945
96	0xbe0f40e9	-0.13989605
97	0x3df7e356	0.12103908
98	0x3cea2574	0.028582312
99	0xbcb2fad4	-0.02184812
100	0xbcaadbe9	-0.020856814
101	0x3e3925f2	0.18080881
102	0x3b9fbdbb	0.0048749126
103	0x3daeb157	0.08529919
104	0x3d2f72dc	0.042834148
105	0x3e7836e6	0.24239692
106	0x3d08792d	0.033318687
107	0xbd672808	-0.05643466
108	0x3ce75b6b	0.028241834
109	0xbba899b6	-0.005145277
110	0x3dcc4ed8	0.09975976
111	0x3d619d30	0.055081546
112	0x3dc26af7	0.09493058
113	0xbcf4937b	-0.02985548
114	0xbd99b2bd	-0.07504795
115	0xbbd97e6e	-0.006637386
116	0xbbeee5c1	-0.0072905724
117	0x3e777849	0.24166979
118	0x3dd613ca	0.10452993
119	0xbce20b36	-0.027593236
120	0xbe1a6f62	-0.15081552
121	0x3e0eac47	0.13932906
122	0xbd7e976a	-0.06215612
123	0xbcbbb5c0	-0.022913814
124	0x3e28075d	0.16409059
125	0x3db006fa	0.08595081
126	0x3db82f6d	0.08993421
127	0x3e5334f9	0.20625676
128	0xbead496f	-0.33845088
129	0x3e8bc86b	0.27301344
130	0xbeba4260	-0.36378765
131	0xbdcdb1b9	-0.100436635
132	0x3e1a8a01	0.15091707
133	0xbd829974	-0.06376925
134	0x3e8f7aaf	0.28023288
135	0xbd99d132	-0.07510604
136	0xbe243023	-0.16033988
137	0xbe3d11ed	-0.1846387
138	0xbde3d9ab	-0.11125501
139	0x3e71b36a	0.23603597
140	0x3dbdf5f1	0.09275425
141	0xbdf2dee6	-0.11858921
142	0x3ce5554f	0.02799478
143	0xbe26001d	-0.1621098
144	0xbe0131e2	-0.12616685
145	0x3df9a39e	0.121894106
146	0x3dd379a6	0.10325937
147	0x3d506612	0.05087859
148	0xbd7d13b6	-0.061786376
149	0xbe3c65f0	-0.18398261
150	0x3e2c16e3	0.16805606
151	0xbe5619bf	-0.20908259
152	0xbdb9b0eb	-0.090669475
153	0xbd4dd5e6	-0.050252818
154	0xbe6ec0be	-0.23315713
155	0xbdcf3606	-0.10117726
156	0x3e5ca617	0.21547733
157	0xbe672ae3	-0.22574954
158	0x3b4ae32a	0.0030958154
159	0x3dd78a55	0.105244316
160	0xbe835713	-0.2565237
161	0xbe4865d8	-0.195701
162	0x3e69742d	0.22798224
163	0x3d9aa4bb	0.07550951
164	0xbd76ee7a	-0.060286023
165	0xbdef7555	-0.11692301
166	0x3d5f7cac	0.054562256
167	0xbe2d2a91	-0.16910769
168	0x3e967bb9	0.29391268
169	0xbea380d0	-0.31934214
170	0x3e1aaf5f	0.15105961
171	0x3e97f17a	0.2967642
172	0xbe7fb4d0	-0.24971318
173	0x3e2e39d3	0.17014246
174	0x3e616b53	0.22013597
175	0x3e01e559	0.12685145
176	0x3cfc0bb1	0.030767294
177	0x3e160613	0.14650755
178	0xbe226ec9	-0.15862574
179	0xbe02d0dc	-0.12774986
180	0xbe20a3a1	-0.1568742
181	0x3ebb3a71	0.36568025
182	0x3e9b4441	0.3032551
183	0xbd86144f	-0.06546842
184	0xbdf9b606	-0.12192921
185	0x3e2d6a09	0.1693498
186	0xbd9b0005	-0.07568363
187	0xbe39bdf4	-0.18138868
188	0xbea10aa2	-0.31453425
189	0xbe00028e	-0.12500975
190	0x3db6a2da	0.0891778
191	0x3ec6613f	0.38746068
192	0xbb621f40	-0.003450349
193	0x3e6301a2	0.22168592
194	0x3e531d9f	0.20616768
195	0xbae25a13	-0.0017269276
196	0x3db1170a	0.086469725
197	0xbc3d015b	-0.011535968
198	0xbe8074d1	-0.25089124
199	0xbdc068da	-0.09394999
200	0x3e0ea552	0.13930252
201	0xbe037810	-0.12838769
202	0xbea34992	-0.31892067
203	0xbd2f597c	-0.04280995
204	0xbd946c5b	-0.0724723
205	0x3db226b5	0.08698789
206	0xbcc42a0f	-0.023945836
207	0x3db1cae4	0.086812764
208	0xbd48e48f	-0.049046095
209	0x3ceb9fbe	0.028762694
210	0xbd729a4d	-0.059229184
211	0x3d981886	0.074265525
212	0x3def868e	0.11695586
213	0x3d8a23e7	0.06745129
214	0x3df437de	0.11924718
215	0x3e24e73f	0.16103838
216	0xbddbee6a	-0.10738833
217	0x3d20004b	0.03906278
218	0xbea3cb29	-0.31990936
219	0x3d83c864	0.06434706
220	0x3dadadc4	0.08480409
221	0x3cc3cb48	0.023900643
222	0xbda0a453	-0.07843842
223	0x3a8b63a3	0.0010634552
224	0xbdc30fa1	-0.09524465
225	0x3da556a2	0.080731645
226	0x3dcccfb2	0.10000552
227	0xbb03ffc4	-0.0020141462
228	0xbe13b1e6	-0.14423332
229	0x3e098da6	0.13432941
230	0xbe3dfc81	-0.18553354
231	0xbdf4d291	-0.11954225
232	0x3e50a437	0.20375143
233	0x3e7e9e20	0.24865007
234	0x3d946bb2	0.07247104
235	0xbe21f52c	-0.15816182
236	0x3d30fddb	0.043210845
237	0xbe3f6d3a	-0.1869401
238	0x3ddf3c86	0.10900216
239	0x3d41bd50	0.047299683
240	0x3c58ee0f	0.013240351
241	0xbd046c84	-0.03233005
242	0xbdb1df68	-0.086851895
243	0xbdb33025	-0.08749417
244	0xbd802e9f	-0.06258892
245	0x3e5d6628	0.21621001
246	0x3d6ca91d	0.057778466
247	0xbd1acc31	-0.03779239
248	0x3c84c171	0.016205521
249	0x3dd03843	0.10166981
250	0x3d240344	0.040042177
251	0x3d992df0	0.07479465
252	0xbc0bcab8	-0.008532219
253	0x3c0cba26	0.008589303
254	0xbd7e62a2	-0.062105782
255	0x3e54597d	0.20737262

lstm_layer.weight_hh_l0 f4 [256, 64]
0	0xbd3c694b	-0.045998853
1	0xbcb6e9f7	-0.02232836
2	0x3c0f01ed	0.0087284865
3	0x3d909843	0.070602916
4	0x3d869c9a	0.06572838
5	0x3dabcdc9	0.0838886
6	0xbe27a612	-0.16371945
7	0x3d8f703f	0.07003831
8	0xbd928cec	-0.07155785
9	0x3d0d1bfc	0.034450516
10	0x3dab0bda	0.0835187
11	0x3c6c9842	0.014440598
12	0x3c2c918f	0.010532751
13	0x3dc7be5b	0.09753104
14	0xbca3090d	-0.019901777
15	0xbd301575	-0.042989213
16	0x3e10fbdd	0.14158578
17	0x3bca45e2	0.0061728815
18	0x3b95587e	0.004557668
19	0xbd9cc2b2	-0.07654323
20	0xbdb09077	-0.086213045
21	0xbd1fc0b0	-0.03900212
22	0xbdc2b827	-0.095077805
23	0xbd8ea64f	-0.069653146
24	0xbdcf3725	-0.1011794
25	0xbc29d435	-0.0103655355
26	0x3daafa64	0.083485395
27	0x3dffb5f9	0.124858804
28	0xbdd66bb2	-0.1046976
29	0x3e0b0dc4	0.1357947
30	0x3e0c6d5b	0.13713591
31	0xb99fd44d	-0.0003048502
32	0xbdbe8397	-0.093024425
33	0xbd6b7593	-0.057485174
34	0xbc454b1c	-0.012041833
35	0xbddbd662	-0.1073425
36	0x3cf03b56	0.029325169
37	0x3ca221d4	0.019791521
38	0xbc838799	-0.016055869
39	0xbdbe0b2d	-0.09279475
40	0x3ccc7ce0	0.024961889
41	0xbe1d0458	-0.15333688
42	0xbded0881	-0.115738876
43	0xbe773462	-0.24141076
44	0x3da44e11	0.080227025
45	0xbce5d181	-0.028054
46	0xbc98002e	-0.018554773
47	0xbdfed4cd	-0.12442932
48	0xbd7aeb65	-0.061259646
49	0x3da7fcf8	0.08202547
50	0x3d9a234f	0.07526266
51	0x3e08b912	0.13351849
52	0xbb4a47c0	-0.003086552
53	0xbd4bcb3d	-0.04975437
54	0xbde76088	-0.11297709
55	0x3d85a3ae	0.0652536
56	0xbdfcd077	-0.12344449
57	0x3d6d8f1e	0.057997815
58	0xbdc34c71	-0.095360644
59	0xbcc81788	-0.024425283
60	0xbd5c3759	-0.05376372
61	0xbdb81fc5	-0.089904346
62	0x3d7f9735	0.06240006
63	0xbdd44e08	-0.10366446
64	0x3c74d4bc	0.014943298
65	0xbd420706	-0.04736998
66	0xbe31bedb	-0.17357962
67	0xbe180f54	-0.14849597
68	0xbdd33aa3	-0.103139184
69	0xbd06e5a4	-0.032933846
70	0xbdfd1231	-0.12356985
71	0xbdcaa506	-0.09894757
72	0x391dfc24	0.00015066616
73	0xbd81f0a5	-0.063447274
74	0x3db1d6b6	0.08683531
75	0xbd81e291	-0.06342042
76	0x3d6b3c61	0.05743063
77	0x3ba729e2	0.0051014284
78	0x3d003ba5	0.03130688
79	0x3d85c126	0.06530981
80	0x3dce3981	0.10069562
81	0xbd880236	-0.06641047
82	0x3d138fcb	0.036025804
83	0x3dc5f1e0	0.096652746
84	0xbd99e6a7	-0.075146966
85	0x3d02d1fe	0.031938545
86	0xbde5579f	-0.11198353
87	0xbb9b2600	-0.0047347546
88	0xbe0dc169	-0.13843311
89	0xbdb6b41a	-0.089210704
90	0xbc919b44	-0.017774232
91	0x3c864b3f	0.016393302
92	0xbdc31d68	-0.09527093
93	0xbde922a8	-0.11383563
94	0x3d9c6c95	0.07637898
95	0x3db5c0a8	0.08874637
96	0x3cc32fc9	0.023826497
97	0xbdb8f0dd	-0.09030316
98	0xbcb47cc8	-0.022032157
99	0xbdcaf110	-0.0990926
100	0x3d0d75f0	0.034536302
101	0xbbc17edc	-0.0059050154
102	0x3dbc0d10	0.09182179
103	0x3d786568	0.060643584
104	0xbce7c9e7	-0.028294517
105	0xbe4edc8b	-0.20201318
106	0xbdb2e5d2	-0.08735241
107	0x3d43b3d2	0.047778912
108	0x3e0114e6	0.12605628
109	0x3da3125d	0.07962487
110	0xbdb8a335	-0.09015504
111	0x3e018bea	0.12651029
112	0x3cd04f38	0.0254284
113	0xbdc580a3	-0.09643676
114	0xbc529344	-0.012852494
115	0x3dbc5c42	0.09197284
116	0xbda505a4	-0.080577165
117	0x3e812d63	0.2522994
118	0x3b99a1de	0.0046884855
119	0x3da1efc1	0.079070576
120	0x3d54490a	0.051827468
121	0x3d412146	0.047150873
122	0x3d4c80af	0.04992741
123	0xbde76d01	-0.11300088
124	0xbdbe09a8	-0.092791855
125	0x3d64fbda	0.055904247
126	0xbc5619b3	-0.013067651
127	0x3e6b2aa0	0.22965479
128	0xbc45cfed	-0.012073499
129	0x3d6f1575	0.058370072
130	0xbe28629e	-0.1644387
131	0xbdccfc5b	-0.100090705
132	0xbdc90aa3	-0.09816482
133	0xbc35f6bd	-0.01110619
134	0xbd8c9943	-0.0686517
135	0x3d97c60f	0.074108236
136	0xbe234c3c	-0.1594705
137	0x3dc54395	0.09632031
138	0x3e00b824	0.12570244
139	0xbcfae08f	-0.030624656
140	0xbd46dcff	-0.048550602
141	0xbe217f23	-0.15771155
142	0x3de276a0	0.11057782
143	0x3d3e9e74	0.04653783
144	0x3e241870	0.16024947
145	0xbd903987	-0.070422225
146	0x3d56b5ef	0.0524196
147	0x3e0031bb	0.1251897
148	0xbe20fa73	-0.15720539
149	0x3cd16663	0.025561517
150	0x3daf0621	0.08546091
151	0xbe063576	-0.13106331
152	0xbbaaa60e	-0.0052077835
153	0x3dd429d7	0.10359543
154	0xbd162842	-0.036659487
155	0x3e237d7b	0.15965836
156	0xbdaee056	-0.085388824
157	0x3cda1357	0.02662055
158	0xbdc3d0c9	-0.09561307
159	0x3d3ba5ec	0.045812532
160	0xbd3c5307	-0.04597762
161	0x3dcb53cb	0.099280916
162	0xbbd63abb	-0.006537763
163	0x3d8b9783	0.06816008
164	0x3d940f49	0.07229478
165	0x3d7f36f0	0.06230825
166	0xbceb1346	-0.028695714
167	0x3da53023	0.08065822
168	0x3dbdf425	0.092750825
169	0xbd66a94c	-0.056313798
170	0xbd12211f	-0.035676118
171	0xbc0027d2	-0.007821994
172	0x3d5851e9	0.05281249
173	0xbc71659e	-0.0147337
174	0x3e073528	0.13203871
175	0xbd8cb148	-0.06869751
176	0x3ca16067	0.019699289
177	0xbd2b576d	-0.041831423
178	0x3da6facb	0.08153304
179	0xbe05836a	-0.13038412
180	0xbc9a3c80	-0.018827677
181	0x3dbbdbba	0.09172769
182	0x3e239991	0.1597655
183	0x3e128487	0.14308368
184	0x3c86b8c5	0.016445527
185	0xbba30f59	-0.004976195
186	0x3c99a983	0.018757587
187	0xbd5ab0e7	-0.053391363
188	0xbd82c360	-0.06384921
189	0xbd6fe9a7	-0.058572438
190	0x3cb82f52	0.022483502
191	0xbce933f2	-0.028467152
192	0xbe1cda91	-0.15317751
193	0xbdaba575	-0.08381168
194	0xbe044c50	-0.12919736
195	0x3dcdc6ed	0.10047708
196	0x3d9fad1d	0.077966906
197	0x3d95fe83	0.07323935
198	0xbd983fc5	-0.07434038
199	0xbdcf90d9	-0.101350494
200	0x3c81e98f	0.01585844
201	0xbd653164	-0.055955306
202	0x3d6b9ca3	0.057522427
203	0x3d8114ec	0.06302819
204	0x3d9cad12	0.07650198
205	0xbd63fda0	-0.055661798
206	0x3c936005	0.017990122
207	0x3d9549bd	0.07289455
208	0x3c93248c	0.017961763
209	0x3d4db9e6	0.050226115
210	0xbddbfe72	-0.10741891
211	0x3dd13e11	0.10216916
212	0x3dabe969	0.08394129
213	0xbda868b0	-0.082230926
214	0xbda5c771	-0.08094681
215	0x3d64adc8	0.055829793
216	0xbc9d5b78	-0.019208655
217	0xbdead953	-0.114672326
218	0xbdf94d56	-0.12172954
219	0xbe003755	-0.12521107
220	0xbb28e468	-0.0025770906
221	0x3af8534a	0.001894572
222	0x3bbf1bac	0.005832156
223	0x3df0bd1d	0.117548205
224	0xbddc7c32	-0.10765876
225	0x3dc87a8a	0.097889975
226	0x3d2764fa	0.040867783
227	0x3de0a209	0.10968406
228	0xbd5ea671	-0.05435795
229	0x3db251c9	0.087070055
230	0x3c9e9433	0.019357776
231	0xbe0cba7b	-0.13743012
232	0x3e347216	0.17621645
233	0xbe0733e9	-0.13203396
234	0x3cba1504	0.0227151
235	0x3d639dd6	0.055570446
236	0xbca02d35	-0.019552806
237	0xbd81af38	-0.063322484
238	0xbd5f2b04	-0.054484382
239	0x3d29275c	0.0412973
240	0xbd8f8d7a	-0.070094064
241	0xbd7e67c9	-0.062110696
242	0x3d86e424	0.06586483
243	0xbcedda6e	-0.02903482
244	0x3d88fb9e	0.06688617
245	0x3e124d13	0.14287214
246	0x3e49d524	0.19710213
247	0xbe0894c4	-0.13338
248	0xbd37bfef	-0.044860777
249	0x3d358318	0.044314474
250	0xbcc542ef	-0.024079768
251	0x3dcebf43	0.10095074
252	0x3d52143d	0.051288832
253	0xbdc471dc	-0.095920295
254	0x3d20a1d1	0.03921682
255	0x3e104f5b	0.14092772

lstm_layer.bias_ih_l0 f4 [256]
0	0x3d28bbc7	0.041194703
1	0xbd0e814a	-0.03479127
2	0x3e48f188	0.19623387
3	0x3c91220f	0.017716436
4	0xbdea9419	-0.11454029
5	0xbdb8ff02	-0.09033014
6	0xbdb0458a	-0.086070135
7	0x3d04b5ff	0.032400128
8	0xbde23d8a	-0.11046894
9	0xbdee2dbc	-0.11629817
10	0x3c9fda0f	0.019513158
11	0x3d1fc640	0.039007425
12	0xbc6eb331	-0.01456909
13	0x3cd084aa	0.025453884
14	0x3c5bfbae	0.013426704
15	0x3c460cac	0.012087982
16	0xbdfe092e	-0.12404095
17	0x3afe42f0	0.0019398611
18	0x3d9e833b	0.07739874
19	0xbde2c7a5	-0.110732354
20	0xbd15f8f8	-0.03661439
21	0x3d1ddb4f	0.038539227
22	0xbd881178	-0.06643957
23	0x3dbe469e	0.09290813
24	0xbdd363fe	-0.10321806
25	0xbc94f222	-0.018181864
26	0xbe10e3b2	-0.14149359
27	0x3cfd5d0b	0.030928155
28	0xbbba82da	-0.0056918683
29	0xbdb0738d	-0.086157896
30	0xbd96977b	-0.07353111
31	0xbd085f6d	-0.03329413
32	0x3daff326	0.08591299
33	0xbddea4c8	-0.10871273
34	0xbd8427b3	-0.064528845
35	0xbd6d8d5d	-0.057996143
36	0xbe1f5c26	-0.15562496
37	0xbdf0d80f	-0.1175996
38	0x3dbc2b43	0.09187939
39	0x3bfc80c0	0.007705778
40	0x3e2da192	0.16956165
41	0x3e2b82ff	0.1674919
42	0xbc113a20	-0.008863956
43	0xbd2c5052	-0.042068787
44	0x3d4e3e7e	0.050352566
45	0x3c8a7c8f	0.016905097
46	0xbd51e814	-0.051246718
47	0x3db7757e	0.08957957
48	0x3db13ef3	0.08654585
49	0xbdc83bb6	-0.09777014
50	0x3c9b7228	0.018975332
51	0xbdecc921	-0.115618
52	0x398fb369	0.00027408756
53	0x3de7d64f	0.11320173
54	0xbca98737	-0.020694358
55	0xbdf48697	-0.119397335
56	0x3df9f2c4	0.12204507
57	0x3d3648f6	0.044503175
58	0xbdf233ec	-0.118263096
59	0x3d730f22	0.059340604
60	0x3e0333e3	0.12812762
61	0xbda5f03c	-0.08102462
62	0x3d48dbd5	0.049037773
63	0x3eab6be1	0.33480743
64	0x3cdf4675	0.027255276
65	0x3e3697ba	0.17831317
66	0x3d73f956	0.059563957
67	0x3dcade5f	0.09905695
68	0xbdd370c1	-0.103242405
69	0x3dc6e094	0.09710804
70	0xbd3ccd1e	-0.046094052
71	0x3cc39cd7	0.023878498
72	0xbd9a03cc	-0.075202554
73	0x3d92df6e	0.07171522
74	0xbd29f5c8	-0.04149416
75	0x3e1e78e1	0.15475799
76	0xbdd8f31d	-0.10593245
77	0xbd81158e	-0.06302939
78	0xbdacb585	-0.084330596
79	0xbda4c73c	-0.080458134
80	0xbe066812	-0.13125637
81	0x3d3ecd95	0.046582777
82	0xbd8bfd76	-0.06835453
83	0xbdbbb02f	-0.09164464
84	0x3d13110e	0.035904936
85	0x3d41d489	0.04732183
86	0xbc81336b	-0.015771588
87	0x3dc2aec5	0.09505991
88	0xbd9aec50	-0.07564604
89	0xbda6f3db	-0.081519805
90	0x3d8de711	0.06928838
91	0xbd95af19	-0.07308788
92	0x3d86a8e3	0.06575181
93	0x3ca13c8e	0.019682195
94	0xbc1a10eb	-0.009403448
95	0xbd065ec3	-0.032805216
96	0x3d82cd98	0.0638687
97	0x3dc39456	0.09549777
98	0x3d0c35d2	0.034231015
99	0x3dc6d7c0	0.0970912
100	0x3d0d1f1c	0.034453496
101	0xbd85db4e	-0.0653597
102	0x3d43f1ae	0.047837906
103	0x3da17426	0.07883482
104	0xbd9b77c8	-0.07591206
105	0x3ce584df	0.02801746
106	0xbd866608	-0.0656243
107	0x3e5808be	0.21097085
108	0x3c67335f	0.014111369
109	0xbd58b79a	-0.05290947
110	0x3e0e3a02	0.13889316
111	0x3d7950a8	0.060867935
112	0x3c30c6cc	0.010789584
113	0xbdc37a57	-0.09544819
114	0x3d0053dc	0.031329975
115	0x3d053e18	0.03252992
116	0x3d8ff973	0.070300005
117	0x3d6d6688	0.05795911
118	0x3e70617d	0.23474689
119	0xbc8f037f	-0.017457722
120	0xbe5f6202	-0.21814731
121	0xbdd3cd54	-0.103418976
122	0x3da812fe	0.082067475
123	0x3da1581c	0.07878134
124	0xbe0619d7	-0.13095795
125	0xbd78d292	-0.06074769
126	0x3d2bcfe9	0.041946325
127	0x3e9a190a	0.30097228
128	0xbbd9b0a5	-0.006643372
129	0x3d81b4d5	0.06333319
130	0x3cfc6565	0.030810067
131	0x3da70d6f	0.08156859
132	0xbcd81aa8	-0.026379898
133	0x3d96f0c5	0.07370142
134	0xbd9534b3	-0.07285442
135	0x3db8ea6d	0.09029088
136	0xbcc92e2f	-0.024558155
137	0xbd067667	-0.03282776
138	0x3d974742	0.07386638
139	0x3d8e9ac9	0.06963117
140	0x3d0a42a3	0.033754956
141	0x3d90fdae	0.070796356
142	0xbcc3b026	-0.023887705
143	0x3d37889a	0.044808008
144	0x3d2af1a4	0.041734353
145	0x3d5cd8a4	0.053917542
146	0x3c9e8d63	0.019354528
147	0x3a85ad35	0.0010198714
148	0x398ff060	0.0002745418
149	0xbd365751	-0.044516865
150	0x3cb85f6f	0.022506444
151	0x3d19d4ae	0.037556343
152	0xbd8ef357	-0.06980007
153	0x3d7fbb1c	0.0624343
154	0x3d38f86f	0.0451588
155	0x3d6ec14c	0.05828981
156	0x3d3e4b58	0.046458572
157	0xbdbe4aba	-0.09291597
158	0xbda7ad35	-0.081873335
159	0x3d11b8e3	0.035576712
160	0x3d2142ff	0.039370533
161	0x3c9a11a5	0.018807242
162	0xbd7d3419	-0.061817262
163	0x3db7406d	0.08947835
164	0x3c485d9c	0.012229349
165	0xbdb2c997	-0.087298565
166	0xbd9b95d8	-0.0759694
167	0xbcdc5457	-0.026895685
168	0xbd1d6764	-0.03842868
169	0xbd2d63c2	-0.042331465
170	0xbd4643e4	-0.04840459
171	0xbd6c2938	-0.057656497
172	0x3d5c3c49	0.05376843
173	0xbdb18ae7	-0.08669072
174	0x3dc995d3	0.0984303
175	0xbc7291c8	-0.014805265
176	0xbc511964	-0.012762401
177	0xbd9f7a63	-0.07787015
178	0x3dcb4a46	0.09926276
179	0xbc26db96	-0.010184189
180	0x3da9047c	0.082528085
181	0xbc130c16	-0.0089750495
182	0xbd49ba00	-0.04924965
183	0x3d08e1bd	0.033418406
184	0x3dfc476a	0.12318309
185	0x3d54c5fa	0.051946618
186	0xbc78c074	-0.015182603
187	0x3d8fe920	0.07026887
188	0x3da0528a	0.07828243
189	0x3d6256d2	0.05525858
190	0x3c826ae6	0.015920114
191	0xbda4175a	-0.080122665
192	0x3c9ded90	0.019278318
193	0x3dda4c4f	0.10659086
194	0x3c245a2f	0.010031267
195	0x3dc312b8	0.09525055
196	0x3cbe8dcb	0.023260972
197	0xbe15ea15	-0.14640076
198	0xbdffc179	-0.12488074
199	0xbc3470fb	-0.011013265
200	0xbd18a6ae	-0.037268333
201	0xbdba3392	-0.090918675
202	0xbd68dccf	-0.056851204
203	0xbbbd5e47	-0.005779061
204	0x3dc539ba	0.09630151
205	0x3bef32fd	0.0072997794
206	0xbd302e63	-0.043012988
207	0xbdd8e560	-0.10590625
208	0xbd3e9445	-0.04652812
209	0x3da7139e	0.081580386
210	0xbe0e3604	-0.13887793
211	0xbe001a0b	-0.12509935
212	0x3ca7e9d7	0.020497246
213	0x3d9b434f	0.075811975
214	0xbe1a17ea	-0.15048185
215	0xbda861be	-0.08221768
216	0x3d30212e	0.043000393
217	0xbe225fcc	-0.15856856
218	0xbcd6dfb9	-0.026229726
219	0x3dda5ce3	0.10662248
220	0xbdc70532	-0.09717788
221	0xbbdbc016	-0.006706248
222	0xbda4cacf	-0.08046495
223	0x3dcb0fe7	0.099151425
224	0xbcd4bf76	-0.025970202
225	0xbdfe53bf	-0.12418317
226	0xbdadf716	-0.084943935
227	0xbda502ca	-0.080571726
228	0xbd9ff1d1	-0.07809795
229	0xbdb7b5e7	-0.08970242
230	0x3bb2b315	0.005453477
231	0xbd45bd75	-0.048276383
232	0xbd396355	-0.045260746
233	0x3dc8664a	0.09785135
234	0xbbe7f2d4	-0.007078508
235	0xbc6d070c	-0.014467012
236	0x3dbfead9	0.093709655
237	0xbdcd6b56	-0.10030238
238	0xbdfc7cc9	-0.123284884
239	0xbd6def04	-0.05808927
240	0xbd118573	-0.035527658
241	0xbd913049	-0.07089288
242	0x3cedb6fc	0.029017918
243	0x3cad254d	0.02113595
244	0xbb179a63	-0.0023132793
245	0x3de5127a	0.11185165
246	0xbaffb259	-0.0019508108
247	0x3dae587b	0.0851297
248	0x3cd9b732	0.026576612
249	0xbd2280a7	-0.039673474
250	0xbe023970	-0.12717223
251	0xbb9e67f5	-0.00483417
252	0x3e30d1ee	0.17267582
253	0x3dcaa644	0.09894994
254	0xbcb8690f	-0.022511033
255	0x3e6a1205	0.22858436

lstm_layer.bias_hh_l0 f4 [256]
0	0x3e006369	0.12537922
1	0x3dec6b8b	0.1154395
2	0x3e1d3e00	0.15355682
3	0x3aed4882	0.0018103274
4	0x3cc9794a	0.024593968
5	0x3d26e29d	0.04074346
6	0xbdb5b36c	-0.08872113
7	0x3d4bf0ab	0.049790066
8	0x3cbb791b	0.022884896
9	0xbb015dcf	-0.0019739752
10	0xbd241c50	-0.040066063
11	0x3de08506	0.10962872
12	0xbe055121	-0.1301923
13	0xbd3a4b55	-0.045482
14	0xbc82065b	-0.015872171
15	0xbd808183	-0.062747024
16	0xbe05db3c	-0.13071913
17	0xbd55531b	-0.05208121
18	0xbdea940b	-0.11454018
19	0x3c990a10	0.018681556
20	0xbd173f9c	-0.036925897
21	0xbde4ef0d	-0.11178408
22	0xbc17e6ac	-0.009271305
23	0xbd64c71a	-0.05585394
24	0x3c52dc40	0.0128698945
25	0xbd80954d	-0.06278477
26	0xbc880a39	-0.016606437
27	0x3d9de750	0.07710135
28	0xbdf35dd0	-0.11883128
29	0x3d26cbdc	0.04072176
30	0x3d0a6587	0.03378823
31	0x3d52fbbd	0.051509608
32	0x3e0cb3b9	0.13740434
33	0xbd92ab0b	-0.0716153
34	0xbc13f1da	-0.00902983
35	0x3cebdc9c	0.028791718
36	0xbe0f53b6	-0.13996777
37	0xbdda7f43	-0.106688045
38	0x3d40aa29	0.047037277
39	0xbd177e9a	-0.03698597
40	0x3e140638	0.14455497
41	0x3e0d5dd2	0.13805321
42	0x3c3efb6a	0.0116566215
43	0x3d8c368e	0.06846343
44	0xbdf7a928	-0.12092811
45	0x3dbddff8	0.09271234
46	0x3d3ed514	0.046589926
47	0xbcea6157	-0.028610868
48	0xba7a3045	-0.0009543936
49	0xbc877b77	-0.016538365
50	0xbc851dac	-0.0162495
51	0xbae76a45	-0.0017655572
52	0x3df84e08	0.12124258
53	0x3e3f404d	0.18676873
54	0x3d224cfc	0.0396242
55	0x3dc5645b	0.09638282
56	0x3dc91afa	0.098195985
57	0x3bd6fcd0	0.0065608993
58	0xbdc35864	-0.095383435
59	0x3cf50556	0.029909771
60	0x3c8f94c9	0.017527001
61	0xbbe782bf	-0.0070651467
62	0xbe153365	-0.14570387
63	0x3de1cae4	0.110250264
64	0xbd542e41	-0.051801924
65	0x3dc1942f	0.09452092
66	0x3e224222	0.1584554
67	0x3d97cb9d	0.07411883
68	0xbc927c08	-0.017881408
69	0xbd0b5a5d	-0.034021724
70	0xbd9a9821	-0.075485475
71	0xbc504468	-0.012711622
72	0x3dc625f2	0.09675206
73	0xbdd0d814	-0.10197464
74	0xbcc58cc3	-0.024114972
75	0xbcaa5b88	-0.020795599
76	0xbb8d3d6b	-0.0043103
77	0xbd654b91	-0.05598027
78	0xbb493049	-0.0030698946
79	0x3dc64130	0.09680402
80	0xbdbfe6b5	-0.09370176
81	0x3c3b2acc	0.011423778
82	0xbd7bd1d8	-0.06147942
83	0x3db03b09	0.0860501
84	0xbddc89b0	-0.10768449
85	0xbddd2326	-0.1079772
86	0xbd1a2135	-0.037629325
87	0x3db2eddd	0.08736775
88	0xbd266e14	-0.040632322
89	0xbcc43de6	-0.023955297
90	0xbe1f964f	-0.15584682
91	0x3db7c827	0.08973723
92	0x3d93eb57	0.07222622
93	0x3cc4a9a4	0.024006672
94	0x3d659496	0.056049906
95	0x3d94fe44	0.0727506
96	0x3d2c5bae	0.04207962
97	0xbdc965f6	-0.09833901
98	0xbd5469b6	-0.051858626
99	0x3ca36e4d	0.019950056
100	0xbc618308	-0.01376415
101	0x3c4ff978	0.012693755
102	0xbd34fc66	-0.04418602
103	0x3c253ae6	0.010084843
104	0xbc825f82	-0.015914682
105	0x3e1d67a7	0.15371571
106	0xbd341921	-0.043969277
107	0x3e3f485c	0.18679947
108	0x3c467381	0.012112499
109	0x3d8ec4f8	0.069711626
110	0x3d540c4a	0.051769532
111	0xbd05ee8b	-0.032698195
112	0x3d8c3d03	0.068475746
113	0x3cd19e5d	0.025588209
114	0xbe02c8b4	-0.12771875
115	0x3d9d57e8	0.076827824
116	0x3d9e2891	0.07722581
117	0x3e23dc27	0.1600195
118	0x3e3dd463	0.1853805
119	0xbdf4e22c	-0.11957201
120	0xbe90cdff	-0.28282163
121	0x3dd310b4	0.1030592
122	0xbb5d33be	-0.0033752765
123	0x3c73f38b	0.014889608
124	0xbdf505cf	-0.119639985
125	0x3ce8a999	0.028401183
126	0x3cbdbc47	0.023161067
127	0x3ea38640	0.31938362
128	0x3de0feb4	0.10986081
129	0xbdd4377e	-0.10362147
130	0x3d546775	0.051856477
131	0xbc8558d4	-0.016277708
132	0xbb977d7e	-0.004623114
133	0x3c1f1d9c	0.009711649
134	0xbd4505f0	-0.048101366
135	0x3d4a40b6	0.04937812
136	0xbc84d532	-0.01621494
137	0x3de6fc1c	0.11278555
138	0xbc45ea5d	-0.012079802
139	0xbca84f79	-0.020545708
140	0xbd4f1c63	-0.05056418
141	0xbceeef1b	-0.029166749
142	0x3cdf79f6	0.027279835
143	0xbcfab1e9	-0.030602412
144	0x3c2a49b4	0.010393549
145	0xbd00c222	-0.03143514
146	0x3d65a8d0	0.056069195
147	0x3d15f098	0.0366064
148	0xbd4b0b5b	-0.049571376
149	0xbd888c57	-0.06667393
150	0xbc2dedfd	-0.010615823
151	0xbd9c7939	-0.07640309
152	0x3d7563bd	0.05990957
153	0xbcb30b9d	-0.021856124
154	0x3db5fe00	0.08886337
155	0x3d3d47f8	0.046211213
156	0xbdadf951	-0.08494819
157	0x3d97f286	0.074193045
158	0x3db02e7f	0.086026184
159	0xbdad43bb	-0.08460184
160	0x3d609a0f	0.05483442
161	0x3d306c1e	0.04307186
162	0xbb1d1ef0	-0.002397474
163	0xbdc01407	-0.0937882
164	0x3d12434e	0.035708718
165	0x3b9f4e92	0.0048616612
166	0x3d8577fb	0.06517025
167	0x3d984383	0.07434752
168	0xbd7069f7	-0.058694806
169	0x3dfe4fbc	0.12417552
170	0x3d89b467	0.06723862
171	0xbd905511	-0.07047475
172	0x3cffbc4b	0.031217715
173	0xbd7e7f1b	-0.062132936
174	0xbd1db0b9	-0.038498614
175	0xbc7c88d7	-0.015413485
176	0xbd4f468a	-0.05060438
177	0x3d2cb9dd	0.04216944
178	0x3d723c36	0.059139453
179	0x3c85b3f0	0.016321152
180	0xbcb95b61	-0.02262658
181	0xbda07bd9	-0.07836122
182	0xbcb97b17	-0.022641702
183	0xbc715bb6	-0.014731338
184	0xbdbd8138	-0.09253162
185	0x3d91efcb	0.07125815
186	0xbd2a0d80	-0.04151678
187	0x3c92b8b2	0.017910335
188	0x3c8bd6b9	0.017070161
189	0xbc4c1f17	-0.012458584
190	0xbd93ed88	-0.0722304
191	0xbd52b34c	-0.051440522
192	0x3df7cfb4	0.12100163
193	0x3dd25739	0.10270543
194	0x3e064144	0.13110834
195	0xbdca5250	-0.09878981
196	0x3d71c196	0.05902251
197	0x3d861cd6	0.06548469
198	0x3d186266	0.037203215
199	0x3d9bdc8e	0.07610427
200	0xbe0b4278	-0.13599575
201	0xbe0a363a	-0.13497248
202	0xbd1efde5	-0.03881635
203	0x3db5b9b5	0.088733114
204	0x3da10dc8	0.07863957
205	0x3c34896c	0.011019092
206	0xbdd713a0	-0.1050179
207	0x3da1ea30	0.07905996
208	0xbc421b1f	-0.0118472865
209	0xbb3ee5cc	-0.0029128669
210	0x3cd5a863	0.02608127
211	0x3cf6b230	0.030114263
212	0xbd35774e	-0.04430323
213	0x3d99c0e7	0.07507496
214	0x3db3b5cf	0.087749116
215	0xbe0b7124	-0.13617378
216	0xbd98a7dc	-0.07453892
217	0xbdf5802f	-0.1198734
218	0x3d1b6519	0.03793821
219	0xbdc34f33	-0.095365904
220	0x3de22a7e	0.11043261
221	0xbd3174d1	-0.043324295
222	0xbc90aa79	-0.017659413
223	0xbdde4985	-0.108538665
224	0x3dcd9e11	0.100399144
225	0x3cb1bca1	0.02169639
226	0xbde86974	-0.113482386
227	0xbdb6b84c	-0.089218706
228	0xbd997c41	-0.07494403
229	0xbd4d780b	-0.05016331
230	0xbd1718f1	-0.03688902
231	0xbd99db27	-0.07512503
232	0x3d85faad	0.06541953
233	0x3da46d9a	0.08028717
234	0xbdbb0b3f	-0.091330044
235	0xbcd9075a	-0.026492763
236	0xbd7aed0c	-0.06126122
237	0x3ddf75d0	0.10911143
238	0x3d2f32bb	0.04277299
239	0x3c31194d	0.010809255
240	0xbc886c55	-0.01665322
241	0xbd422e05	-0.04740717
242	0x3de9b699	0.11411781
243	0xbd5bd955	-0.05367406
244	0xbdea88f8	-0.11451906
245	0x3e643aae	0.2228801
246	0x3dce7af0	0.10082042
247	0x3d822010	0.06353772
248	0x3c644c7d	0.013934252
249	0xbd8f4bf4	-0.06996909
250	0x3d94414d	0.07239018
251	0xbd47883e	-0.048713915
252	0x3e367be2	0.17820695
253	0xbd351669	-0.044210825
254	0xbd028a1e	-0.03187
255	0x3e35763f	0.17720889

lstm_layer.weight_ih_l1 f4 [256, 64]
0	0xbce86ec2	-0.028373126
1	0xbd970be5	-0.073753156
2	0x3dc2c29a	0.095097736
3	0xbdf2cd89	-0.11855609
4	0xbd95921c	-0.07303259
5	0x3d79497e	0.060861103
6	0x3d897d82	0.06713392
7	0x3d870f23	0.06594684
8	0x3dce5d26	0.100763604
9	0xbde6aae6	-0.11263065
10	0x3d857bd7	0.06517761
11	0xbcb98b33	-0.022649383
12	0x3de4af57	0.11166256
13	0x3c8de9ab	0.017323336
14	0xbd86ec87	-0.06588083
15	0xbd41ed1b	-0.047345262
16	0x3db2db79	0.08733267
17	0xbca59d16	-0.020216506
18	0x3d063730	0.032767475
19	0xbcd42af6	-0.025899392
20	0xbdbf1139	-0.09329457
21	0x3d70b7c1	0.05876899
22	0xbc000c40	-0.007815421
23	0x3da4542b	0.08023866
24	0x3d781c56	0.0605739
25	0xbd8b4d76	-0.06801884
26	0x3ca0d4f4	0.019632794
27	0xbdb31fe7	-0.08746319
28	0x3d188d9b	0.03724442
29	0x3c68f57c	0.014218684
30	0xbae1afd3	-0.0017218537
31	0x3d8f7e2b	0.070064865
32	0x3baf4e4f	0.0053499113
33	0xbd5aa7b4	-0.05338259
34	0x3e11e21b	0.14246409
35	0xbd97b7b3	-0.07408085
36	0x3d03055f	0.031987544
37	0xbd97fb95	-0.07421032
38	0xbdb0ade6	-0.086269185
39	0x3bfbe650	0.0076873675
40	0xbd73c1fb	-0.059511166
41	0xbd7828f0	-0.060585916
42	0x3cfd822d	0.030945862
43	0x3df94f2e	0.121733055
44	0x3de65b9a	0.1124794
45	0x3cc23920	0.02370888
46	0x3d13d24a	0.03608922
47	0x3dfc39ed	0.12315736
48	0xbdf158ca	-0.11784513
49	0x3d923316	0.0713865
50	0x3d670b45	0.05640723
51	0x3d48ff8e	0.04907184
52	0xbdd013db	-0.10160037
53	0xbe00da2f	-0.1258323
54	0x3c5a9735	0.013341715
55	0xbdacc1df	-0.084354155
56	0x3c9c113f	0.019051192
57	0x3d53b2fb	0.05168436
58	0xbd363665	-0.04448547
59	0xbc9ae368	-0.018907264
60	0x3d8a662b	0.06757768
61	0x3c4aabb8	0.0123700425
62	0x3d94c847	0.07264762
63	0x3d019115	0.0316325
64	0x3bdcc2c9	0.0067370874
65	0x3cec5a47	0.028851641
66	0x3df09c75	0.11748592
67	0x3d9807ba	0.07423349
68	0x3e03f62e	0.12886879
69	0xbe097482	-0.1342335
70	0xbde37e48	-0.111080706
71	0xbcf81e0b	-0.030287763
72	0xbdb182d7	-0.08667534
73	0x3dcab436	0.09897654
74	0x3c8e0429	0.017335968
75	0xbdfe457b	-0.12415596
76	0xbc9c70a6	-0.019096684
77	0x3cf5383e	0.029934045
78	0x3dca9889	0.09892375
79	0x3d252625	0.04031958
80	0x3ca3af41	0.019981029
81	0xbe176df5	-0.14788039
82	0x3bf2bfea	0.007408132
83	0x3c65a67e	0.014016746
84	0x3cf9126e	0.030404296
85	0xbda75e09	-0.08172233
86	0xbd87bedf	-0.06628203
87	0xbd81f38d	-0.06345282
88	0x3d8fe82d	0.07026706
89	0x3b5b5253	0.0033465817
90	0x3db14e61	0.08657528
91	0xbd401d2d	-0.046902824
92	0x3cc61751	0.02418104
93	0xbc29d7f3	-0.010366428
94	0xbd87d495	-0.06632344
95	0xbd479f54	-0.04873593
96	0x3da8393e	0.08214043
97	0x3e021157	0.12701927
98	0xbd066622	-0.032812245
99	0x3da62c54	0.08113924
100	0xbd3cf06d	-0.046127725
101	0x3d8c2923	0.06843784
102	0x3dd7f0ed	0.10544
103	0x3d8d10db	0.068879806
104	0xbd96c04a	-0.07360895
105	0x3ca1e4be	0.019762393
106	0xbd90d161	-0.07071186
107	0xbe0891ea	-0.13336912
108	0xbd1591fe	-0.036516182
109	0x3dfd009d	0.123536326
110	0xbd3a41d1	-0.045472924
111	0xbe11fd8e	-0.1425688
112	0xbd8eb958	-0.06968945
113	0xbdb0e452	-0.08637299
114	0x3d3a879f	0.045539495
115	0x3e0c555e	0.1370444
116	0xbda21633	-0.079143904
117	0xbda28261	-0.07935024
118	0x3bf8e3ec	0.00759553
119	0xbdaeab0d	-0.08528719
120	0xbb2c457a	-0.0026286528
121	0xbe0077fa	-0.12545767
122	0x3cec3586	0.028834116
123	0xbd81f29b	-0.063451014
124	0x3cbbe3a2	0.022935692
125	0xbd5f1f7a	-0.054473378
126	0x3ddfb286	0.109227225
127	0xbd73b28e	-0.059496455
128	0xbd363817	-0.044487085
129	0x3e011fa6	0.12609729
130	0xbe12f69d	-0.14351888
131	0xbd2922f0	-0.041293085
132	0xbb839586	-0.0040156273
133	0xbdd2603d	-0.10272262
134	0xbdc8c684	-0.09803489
135	0xbd544b19	-0.05182943
136	0xbd3fce35	-0.046827514
137	0xbd1a5ba6	-0.03768506
138	0x3dc99a24	0.09843853
139	0xbc74c7c3	-0.014940205
140	0x3dd5c2af	0.104375236
141	0x3cef17ba	0.029186118
142	0xbd855b08	-0.065115035
143	0xbd119ded	-0.035551
144	0xbdaea84c	-0.08528194
145	0x3be4d454	0.0069833193
146	0xbd346160	-0.044038177
147	0x3be5a2ca	0.0070079314
148	0x3dfe79e7	0.12425595
149	0xbc5e87e0	-0.0135822
150	0xbdd18fe8	-0.10232526
151	0xbdee1214	-0.11624542
152	0xbd9fce30	-0.07802999
153	0x3d6e071b	0.058112245
154	0xbb68fba1	-0.0035550373
155	0xbcb8b29e	-0.022546109
156	0x3da36fc8	0.07980305
157	0x3d96e86a	0.07368548
158	0xbdb12f2c	-0.086515754
159	0x3d9997e5	0.07499675
160	0xbd960c19	-0.07326526
161	0x3e0be641	0.13662054
162	0xbd2c0cde	-0.04200446
163	0x3d8a91fc	0.067661256
164	0xbd072ab1	-0.032999698
165	0x3db3e2ef	0.087835185
166	0x3e1d9afd	0.15391155
167	0xbe025f0e	-0.12731573
168	0x3dcac39b	0.0990059
169	0xbd9f4293	-0.0777637
170	0xbe0606c1	-0.13088514
171	0xbd63c0d2	-0.05560381
172	0xbe136019	-0.14392127
173	0xbdc6b168	-0.09701806
174	0xbd9ecd36	-0.07753985
175	0xbe162f2a	-0.14666429
176	0xbd4c0a09	-0.049814258
177	0x3cb3d914	0.021954097
178	0x3bf43f0e	0.0074538058
179	0xbd49fe33	-0.04931469
180	0xbd77a6bf	-0.060461756
181	0x3db3b457	0.087746315
182	0x3d391e4f	0.04519492
183	0xbe00a626	-0.1256338
184	0xbc286eb8	-0.010280304
185	0x3dd43923	0.103624605
186	0x3d558bd2	0.052135296
187	0x3c98837c	0.018617384
188	0xbbcfe43c	-0.0063443463
189	0x3d60e503	0.054905903
190	0x3e29f6bb	0.16598026
191	0xbca4e5bb	-0.020129075
192	0xbb7202c6	-0.0036927923
193	0x3dbece94	0.093167454
194	0x3d496ab5	0.04917403
195	0x3dcc0978	0.099627435
196	0x3c150a51	0.009096698
197	0x3c6cf26d	0.014462096
198	0x3d3f624b	0.0467246
199	0xbc9477f8	-0.018123612
200	0xbc9ada65	-0.018902967
201	0xbc0df4fe	-0.008664368
202	0xbd5de8e0	-0.054177165
203	0xbdbf0a29	-0.0932811
204	0xbc06ac9a	-0.008219862
205	0xbdc3505f	-0.09536814
206	0x3e0c413b	0.13696758
207	0xbdee25c5	-0.11628298
208	0xbc830933	-0.015995597
209	0xbdec77a5	-0.11546258
210	0x3daa9ce2	0.08330704
211	0x3df45cc6	0.11931758
212	0xbd247988	-0.040154964
213	0xbd5bfe36	-0.05370923
214	0xbc1009cf	-0.008791401
215	0xbb0f818a	-0.002189728
216	0x3d4fab21	0.05070031
217	0xbd52155a	-0.051289894
218	0x3deeebe7	0.116660886
219	0x3ccad1c9	0.024758236
220	0xbda1da6a	-0.07902987
221	0x3ddf82a2	0.10913588
222	0x3d6ffb4e	0.058589272
223	0xbd944f56	-0.07241695
224	0x3d0204a6	0.031742714
225	0xbd88ac9a	-0.06673546
226	0x3dd29d57	0.102839164
227	0x3d80e010	0.062927365
228	0xbccc6f5d	-0.024955446
229	0x3d4b42b4	0.04962416
230	0x3d4b4d4b	0.04963426
231	0xbde8cb4b	-0.113669
232	0xbdecc263	-0.11560514
233	0xbddaea2a	-0.106891945
234	0xbde8c7e7	-0.11366253
235	0x3e0c4bf0	0.13700843
236	0xbdd1d241	-0.10245181
237	0x3d43a23c	0.04776214
238	0xbda52a9f	-0.0806477
239	0xbdf1d458	-0.118080795
240	0x3df28e10	0.118435025
241	0x3d4989f0	0.049203813
242	0xbc4ef3c8	-0.012631364
243	0x3dbdbb6a	0.09264262
244	0x3da7dd36	0.081964895
245	0xbbdce4bb	-0.006741134
246	0x3dc8431d	0.09778426
247	0x3dbb31fa	0.09140392
248	0x3cd40358	0.0258805
249	0x3dd8c8fe	0.10585211
250	0x3d625ea2	0.05526603
251	0x3dcc1023	0.09964015
252	0x3d1d67de	0.038429134
253	0x3df68f1a	0.12039013
254	0x3c887669	0.016658025
255	0xbd412dcc	-0.047162816

lstm_layer.weight_hh_l1 f4 [256, 64]
0	0x3dcf3cef	0.10119044
1	0xbc4a5d02	-0.012351276
2	0x3de7d66d	0.11320195
3	0x3c40c942	0.011766734
4	0x3de28fa2	0.11062552
5	0x3d9ab951	0.075548775
6	0xbdbd81c1	-0.09253264
7	0xbd4092d5	-0.04701503
8	0xbc302432	-0.010750817
9	0x3e2bce2e	0.1677787
10	0x3ddde603	0.10834887
11	0xbdb2eabb	-0.087361775
12	0x3da497a4	0.08036736
13	0xbdf7f302	-0.12106897
14	0x3d60c95c	0.05487953
15	0x3cd15789	0.025554435
16	0xbdad139b	-0.08451005
17	0x3b6c8e6a	0.0036095628
18	0xbb381369	-0.0028087741
19	0x3e0849f0	0.13309455
20	0x3d0fb32d	0.035082985
21	0x3e6a12c3	0.2285872
22	0xbdd393d6	-0.10330932
23	0x3c934815	0.017978707
24	0xbd5500de	-0.05200278
25	0x3d951757	0.07279842
26	0xbd5d2aca	-0.053995885
27	0xbde0071d	-0.10938857
28	0x3ca7629f	0.020432768
29	0x3daa54cf	0.08316957
30	0x3db7dc2f	0.089775436
31	0xbc70475f	-0.014665454
32	0xbd308a95	-0.043100912
33	0x3dc47a37	0.09593623
34	0xbd14b6e3	-0.036307227
35	0xbd1b86dc	-0.03797041
36	0x3cb35784	0.021892317
37	0xbcfbe4b0	-0.030748695
38	0xbd9f1ec8	-0.07769543
39	0xbdc30222	-0.09521891
40	0xbdc640bf	-0.09680318
41	0x3e0adf1a	0.13561669
42	0x3e029d3a	0.1275529
43	0xbd17e7fa	-0.037086464
44	0x3df512ed	0.119665004
45	0x3e06e582	0.13173488
46	0xbcf4afc6	-0.029868972
47	0xbe099943	-0.13437371
48	0x3d1075df	0.03526866
49	0xbd2fe9a4	-0.042947426
50	0xbe3aeef8	-0.18255222
51	0x3d124e2b	0.035719078
52	0xbdc3a6cc	-0.09553298
53	0xbddde3b6	-0.10834448
54	0xbe2e977e	-0.17049977
55	0xbc0ea028	-0.008705176
56	0xbd23b383	-0.039966118
57	0x3ccf84d0	0.025331885
58	0x3d95e07a	0.07318206
59	0x3d8d7bd2	0.069083825
60	0xbd790436	-0.06079503
61	0xbdf0ea1f	-0.11763405
62	0x3e442be4	0.19157368
63	0x3d685d99	0.056729887
64	0x3de9779d	0.113997675
65	0xbdde16d2	-0.108441964
66	0x3cf8ba01	0.030362131
67	0xbd56fa6b	-0.05248491
68	0x3d618977	0.055062737
69	0x3d45b87a	0.048271634
70	0xbdcdfbbf	-0.100577824
71	0xbd431ce6	-0.04763498
72	0xbca12232	-0.019669626
73	0x3e20107b	0.15631287
74	0x3e1da52e	0.15395042
75	0x3c1bf955	0.009519895
76	0x3e27958e	0.16365644
77	0x3daf9d7f	0.08574962
78	0xbc8a4c3b	-0.016882053
79	0x3ca0e215	0.019639054
80	0xbdd6157c	-0.104533166
81	0xbd3a5d21	-0.04549897
82	0x3d964c3e	0.07338761
83	0x3c1d4b50	0.009600475
84	0x3b36c349	0.0027887395
85	0x3cfec026	0.031097483
86	0xbd71bf23	-0.059020173
87	0xbb9d203c	-0.0047951024
88	0xbd9599c2	-0.073047176
89	0x3d13be1a	0.036069967
90	0xbd88538e	-0.06656562
91	0xbdc10322	-0.09424426
92	0xbaf4e4ef	-0.001868395
93	0xbdd37e02	-0.103267685
94	0xbe0e968f	-0.13924621
95	0x3d374ef7	0.04475304
96	0x3c55d37a	0.013050908
97	0x3ddaccad	0.1068357
98	0xbd39d621	-0.045370225
99	0xbe1c4035	-0.15258868
100	0xbba7447f	-0.005104601
101	0xbd581a00	-0.05275917
102	0xbe08fbfb	-0.13377373
103	0x3caf9268	0.021432117
104	0xbcbc93f1	-0.023019763
105	0x3db1271e	0.08650039
106	0xbe0e64af	-0.13905595
107	0x3cb1fa7f	0.021725891
108	0xbd72811f	-0.05920517
109	0xbd023d8a	-0.03179697
110	0xbc470db4	-0.012149263
111	0xbddc2660	-0.10749507
112	0xbdaaf404	-0.083473235
113	0xbd120746	-0.035651468
114	0x3d8727ee	0.06599413
115	0xbde3b197	-0.11117857
116	0xbb2f3932	-0.0026736972
117	0xbdb0ce5d	-0.08633111
118	0xbd8ae233	-0.06781425
119	0x3db16d46	0.086634204
120	0x3d13745b	0.035999637
121	0x3d0d41e2	0.03448666
122	0xbd9d7d86	-0.07689957
123	0xbd65d087	-0.05610707
124	0xba87ffd7	-0.0010375929
125	0x3d732d03	0.0593691
126	0x3d7eeeec	0.062239572
127	0xbc627dcf	-0.01382394
128	0x3d99c1e7	0.07507687
129	0xbc832cbd	-0.016012544
130	0xbdb60449	-0.08887536
131	0xbdcd5947	-0.10026794
132	0x3d62eb6e	0.055400304
133	0xbd8d353a	-0.06894918
134	0xbdc4e1d9	-0.096133895
135	0x3e069c39	0.13145532
136	0xbe0c8343	-0.13721947
137	0x3dc0a6a5	0.09406785
138	0x3d2ffce6	0.042965792
139	0x3e059f22	0.13048986
140	0x3d8b84df	0.068124525
141	0xbdd99a80	-0.10625172
142	0x3dbd186a	0.09233172
143	0xbcd4caf9	-0.025975691
144	0xbddbd9ab	-0.10734876
145	0xbd53504d	-0.051590253
146	0x3d960d20	0.07326722
147	0x3cb95392	0.022622857
148	0xbd5ed085	-0.05439808
149	0x3c92b6f5	0.017909506
150	0x3daeb1f8	0.085300386
151	0xbdf66f93	-0.12033
152	0xbc00229f	-0.007820754
153	0xbd489a58	-0.04897532
154	0x3d9a58bc	0.07536456
155	0xbde363ed	-0.11103044
156	0x3d80e71d	0.06294081
157	0x3d87e3b8	0.06635231
158	0x3cbfe5d7	0.023425026
159	0x3dbd6d18	0.092493236
160	0x3da58e5a	0.08083792
161	0xbde90e11	-0.11379636
162	0xbd9c959e	-0.07645725
163	0xbdb5a46b	-0.08869251
164	0xbe03be46	-0.12865552
165	0xbd55b4ca	-0.052174367
166	0xbd18661a	-0.037206747
167	0xbdef7e53	-0.11694016
168	0xbd58e307	-0.052950885
169	0x3e27203a	0.16320887
170	0x3dbdb9a8	0.09263927
171	0xbdfb6eb3	-0.122769736
172	0x3d4cfd9f	0.05004656
173	0x3c11a233	0.008888769
174	0xbd36ce16	-0.044630133
175	0xbd9912bd	-0.07474277
176	0xbd68463b	-0.056707602
177	0xbda55c7e	-0.08074282
178	0xbd4b77ac	-0.049674675
179	0x3cb05e5b	0.021529367
180	0x3bdad5a2	0.006678299
181	0xbd80e051	-0.06292785
182	0xbdcbc488	-0.09949595
183	0xbd841e04	-0.064510375
184	0xbd465794	-0.048423365
185	0x3cffd850	0.031231076
186	0x3ca49e91	0.020095142
187	0x3d5cfe2e	0.053953342
188	0x3b53ced5	0.0032319326
189	0x3d19b048	0.03752163
190	0x3df034b6	0.11728804
191	0xbe0492ab	-0.12946574
192	0xbc9867e5	-0.018604228
193	0xbe195037	-0.14972006
194	0x3e266481	0.16249277
195	0xbd84a714	-0.0647718
196	0x3d940832	0.07228126
197	0x3e19d308	0.15021908
198	0x3d2e551f	0.042561647
199	0xbdd823ee	-0.10553728
200	0xbd8f2f85	-0.069914855
201	0x3ddf9fa6	0.109191224
202	0x3d0b3493	0.033985686
203	0xbd45f23e	-0.048326723
204	0x3c5e9d89	0.013587364
205	0x3d7406ae	0.059576683
206	0x3dc21630	0.09476888
207	0x3d928b0b	0.071554266
208	0xbc919cff	-0.017775057
209	0xbd955676	-0.07291882
210	0x3e16462c	0.14675206
211	0x3da27f55	0.07934443
212	0x3dbb7bf4	0.091545016
213	0x3e67f6d6	0.22652754
214	0xbe0d3dbd	-0.13793083
215	0xbdceca42	-0.10097171
216	0xbc11cbc6	-0.008898681
217	0x3acc3ac3	0.0015581477
218	0x3cea6161	0.028610887
219	0xbd4cc9c3	-0.049997102
220	0xbd8bb922	-0.06822421
221	0xbc74bcc9	-0.014937588
222	0x3d75918f	0.05995327
223	0xbd209e6f	-0.039213594
224	0x3d93ae20	0.07210946
225	0x3ce96e77	0.028495057
226	0xbd3559cc	-0.04427509
227	0x3ce36231	0.027756782
228	0xbdeb8fc6	-0.11502032
229	0x3e04e358	0.1297735
230	0xbdf9f39f	-0.1220467
231	0xbcd29595	-0.025706092
232	0xbb7330ca	-0.0037107938
233	0x3e104be3	0.14091448
234	0x3d91e783	0.071242355
235	0xbd1af2c7	-0.037829187
236	0x3d153e1f	0.036436196
237	0xbd05fa5f	-0.032709476
238	0xbd6b3a29	-0.057428513
239	0x3d342b14	0.043986395
240	0x3d4973d6	0.049182735
241	0x3daeb258	0.0853011
242	0x38ff6d98	0.00012179761
243	0x3d62d7a7	0.055381443
244	0x3c23cb08	0.009997137
245	0x3d140ed7	0.036146965
246	0xbcd13bcc	-0.025541209
247	0xbd3ee603	-0.046606075
248	0xbe00bc6c	-0.12571877
249	0xbdd3b512	-0.10337271
250	0x3d06fdd6	0.03295692
251	0x3db3206a	0.08746417
252	0x3cf0a685	0.029376278
253	0xbda52d22	-0.08065249
254	0x3d028856	0.0318683
255	0x3d0af21c	0.0339223

lstm_layer.bias_ih_l1 f4 [256]
0	0x3dbeb7a3	0.0931237
1	0xbdc9c03c	-0.09851119
2	0x3d3760ee	0.044770174
3	0x3c850703	0.016238695
4	0xbc61ca9b	-0.013781215
5	0x3da753db	0.08170291
6	0x3d926a23	0.0714915
7	0xbe2ba517	-0.16762196
8	0xbd05e112	-0.032685347
9	0x3d4c69df	0.049905654
10	0xbd8d5e5e	-0.06902765
11	0xbb80b291	-0.003927537
12	0xbd7e0fac	-0.062026665
13	0xbdf22163	-0.11822774
14	0x3dd33c26	0.10314207
15	0x3d8189b6	0.063250944
16	0xbd8e2bed	-0.06941972
17	0x3ce9c880	0.028537989
18	0x3db3afca	0.087737635
19	0xbdbe47c5	-0.09291033
20	0x3b12bb9a	0.0022389651
21	0x3b52ba06	0.0032154336
22	0x3db2fc20	0.08739495
23	0xbe0a8f0c	-0.1353113
24	0xbd90e2c4	-0.07074502
25	0x3d4e98b2	0.05043859
26	0xbdabcb65	-0.08388404
27	0xbd69793b	-0.05700038
28	0xbbbf82af	-0.005844436
29	0x3dc622de	0.09674619
30	0xbdebfc17	-0.11522692
31	0x3e07c19e	0.13257453
32	0xbb8eb55a	-0.004355115
33	0x3d6ae90e	0.057351165
34	0xbd4d4ab1	-0.05012006
35	0x3cf790b1	0.030220361
36	0xbe3a0bf2	-0.1816862
37	0x3dd2edb8	0.102992475
38	0x3e01e51f	0.12685059
39	0x3cda2d05	0.026632795
40	0x3d290748	0.04126671
41	0x3da7613b	0.08172842
42	0x3dcdd8db	0.100511275
43	0x3cbdc2e3	0.023164218
44	0x3c807abe	0.015683528
45	0x3c9ece5f	0.019385515
46	0x3dc6f14f	0.09713995
47	0xbc3f55b2	-0.011678146
48	0xbda59651	-0.08085311
49	0x3c800530	0.015627474
50	0x3d3b0c3b	0.04566596
51	0xbda62374	-0.08112231
52	0x3cdaedaf	0.026724664
53	0x3dd1e8dc	0.102494925
54	0xbd666911	-0.056252543
55	0xbbb81163	-0.005617307
56	0x3b310430	0.0027010553
57	0x3b0b6b0e	0.0021273526
58	0xbd77a03f	-0.060455557
59	0x3de7e92a	0.113237694
60	0x3c709b9a	0.014685536
61	0xbd8dc5c6	-0.06922488
62	0x3de7f458	0.11325902
63	0xbdc9d053	-0.09854188
64	0x3d968955	0.07350413
65	0x3d990559	0.07471723
66	0x3d8cce1a	0.06875248
67	0xbde493f8	-0.11161035
68	0xbdb4a820	-0.0882113
69	0x3d4eacdc	0.05045782
70	0x3cb862a8	0.02250798
71	0xbd32a84f	-0.043617543
72	0x3ca20101	0.01977587
73	0x3c3e4ebe	0.011615453
74	0x3c807c45	0.015684256
75	0x3d8c766e	0.06858526
76	0x3d1fd6d7	0.039023247
77	0xbc33cb57	-0.010973773
78	0xbda91855	-0.08256594
79	0x3d9c8d47	0.07644134
80	0xba8183e0	-0.0009881221
81	0xbd94d371	-0.07266892
82	0x3d09d63f	0.033651587
83	0x3d39a285	0.045321006
84	0x3c8d0da1	0.017218413
85	0xbd496c1b	-0.049175363
86	0x3dc28485	0.09497932
87	0x3ca9c8f8	0.020725712
88	0xbd25adaf	-0.04044884
89	0xbc92859b	-0.017885974
90	0xbdc86f64	-0.09786871
91	0xbc83c30f	-0.016084222
92	0xbd924cd6	-0.071435615
93	0xbd9f3620	-0.077739954
94	0xbd6be48b	-0.057591002
95	0x3d40b1c7	0.04704454
96	0xbd620846	-0.05518367
97	0x3d730c69	0.059338007
98	0xbdc59e9d	-0.09649394
99	0x3b810e97	0.003938507
100	0xbc95d695	-0.018290797
101	0xbd0eb3cf	-0.034839448
102	0xbd495485	-0.04915287
103	0xbe04fb1d	-0.12986417
104	0xbe24d9d0	-0.16098714
105	0xbce4df55	-0.027938524
106	0x3d661ccb	0.056179803
107	0xbc46c778	-0.012132518
108	0xbdcdc4f8	-0.100473344
109	0xbe04b7e7	-0.12960778
110	0x3d1591a1	0.036515836
111	0xbda0a4c2	-0.07843925
112	0x3c0ffd0f	0.008788361
113	0xbdad21c1	-0.08453704
114	0xbe077658	-0.13228738
115	0xbd9f3600	-0.077739716
116	0xbd954a29	-0.072895356
117	0x3d943a6c	0.072377056
118	0xbc9e2b0c	-0.019307636
119	0xbca46c61	-0.02007121
120	0x3ba9e710	0.0051850155
121	0xbd49cdd8	-0.049268574
122	0x3d5d1b7b	0.053981286
123	0xbcfeede4	-0.031119294
124	0x3da4c93e	0.080461964
125	0x3dda64b6	0.1066374
126	0xbcb19ac7	-0.021680249
127	0xbd9ec78a	-0.07752903
128	0xbe0fba1b	-0.14035837
129	0x3b3dbbc4	0.0028951028
130	0x3d122465	0.03567924
131	0x3ba747d0	0.0051049963
132	0xbe1b8f78	-0.15191448
133	0xbe38e05d	-0.18054338
134	0x3d1a7776	0.037711583
135	0xbc3afe46	-0.011413163
136	0xbd2a58c2	-0.041588552
137	0xbdf11fba	-0.117736295
138	0x3d392cad	0.04520862
139	0xbce77710	-0.028255016
140	0x3d956376	0.07294361
141	0x3d82f3e9	0.063941784
142	0x3deeae0d	0.11654291
143	0xbbbae6c4	-0.005703779
144	0xba36d6a1	-0.0006974731
145	0xbd354ad9	-0.044260833
146	0xbdb5fced	-0.088861324
147	0xbdd53dbc	-0.104121655
148	0x3d6538eb	0.055962484
149	0x3d96140f	0.073280446
150	0xbd31406d	-0.04327433
151	0x3d239032	0.039932437
152	0x3c657bac	0.014006536
153	0x3bf65dfa	0.007518527
154	0xbda0f2da	-0.0785882
155	0xbd9ede22	-0.07757212
156	0x3d5afd6d	0.053464342
157	0x3ae5f0a4	0.001754303
158	0x3d634961	0.0554899
159	0x3e2e3c3e	0.17015168
160	0xbbd46543	-0.006481798
161	0xbd21b9da	-0.039483882
162	0xbc8c8aa5	-0.017155955
163	0x3e38c652	0.18044403
164	0x3ce4a1e4	0.027909227
165	0x3c50cb66	0.0127438065
166	0x3dc35df8	0.095394075
167	0xbc84d710	-0.016215831
168	0x3d32ec64	0.04368247
169	0xbdf7d4f3	-0.12101164
170	0x3cda0968	0.026615813
171	0x3e041a7b	0.12900726
172	0xbe0072d6	-0.12543806
173	0x3c238332	0.00998001
174	0xbdb995de	-0.09061788
175	0x3da5c246	0.08093695
176	0xbc30218d	-0.010750187
177	0x3d5a65ef	0.053319868
178	0x3ca9fb6e	0.020749774
179	0x3dc10f49	0.094267435
180	0x3cf4b15c	0.029869728
181	0x3d21e6d2	0.039526768
182	0x3d9038a1	0.07042051
183	0xbe24e294	-0.16102058
184	0xbd9e1131	-0.07718123
185	0x3db6d118	0.089266
186	0x3e2e578f	0.17025588
187	0xbdbfb8a3	-0.093613885
188	0xbd9ce653	-0.07661118
189	0x3c34c675	0.011033644
190	0x3bbb149b	0.0057092435
191	0xbd1076f6	-0.0352697
192	0xbb8ec87c	-0.0043573957
193	0xbe186025	-0.14880426
194	0xbd1bc5f3	-0.038030576
195	0xbced3378	-0.028955206
196	0xbc3019b1	-0.010748313
197	0xbdaf662a	-0.08564408
198	0xbc989bd6	-0.018628996
199	0xbd9c6bb2	-0.07637729
200	0x3cc52b19	0.024068402
201	0x3d2fd8d8	0.042931408
202	0xbdf8eab8	-0.12154144
203	0x3dce8a68	0.10084993
204	0x3d5a3c81	0.053280357
205	0x3d7d911b	0.06190596
206	0x3b80cc59	0.00393061
207	0xbe090adf	-0.13383053
208	0xbbb174c7	-0.0054155323
209	0xbcb719f9	-0.022351252
210	0x3e1619db	0.146583
211	0x3c578b6e	0.013155801
212	0xbdbceb2c	-0.09224543
213	0x3decbfea	0.11560042
214	0xbd374e3d	-0.04475235
215	0xbcd1b41f	-0.025598584
216	0x3d2ed07e	0.042679302
217	0xbd0da58b	-0.034581702
218	0xbd6f2b41	-0.05839086
219	0x3d46b690	0.04851395
220	0xbd37bcfc	-0.044857964
221	0x3c9bb31a	0.0190063
222	0xbdf00c4c	-0.117210954
223	0xbc84d305	-0.016213903
224	0x3d29b8b1	0.0414359
225	0xbd753200	-0.059862137
226	0x3c9f93e2	0.019479696
227	0xbd33a0f7	-0.04385468
228	0xbe0d6ee8	-0.13811839
229	0xbba78352	-0.00511209
230	0xbd1fc03a	-0.03900168
231	0xbd9f9d4e	-0.07793675
232	0xbdd63c04	-0.10460666
233	0x3c8a93fb	0.016916266
234	0xbe0228fd	-0.12710948
235	0xbd899f03	-0.06719782
236	0xbdb7c904	-0.089738876
237	0xbd2e4ea5	-0.04255547
238	0xbd0f071d	-0.034918893
239	0xbc565000	-0.013080597
240	0x3cd4e67d	0.025988812
241	0x3d06df2f	0.03292769
242	0xbdc7a865	-0.097489156
243	0xbd166883	-0.036720764
244	0x3db0bcb4	0.08629742
245	0x3d9d9dc4	0.07696107
246	0xbdd3b89b	-0.10337945
247	0xbd29733a	-0.041369654
248	0xbc259493	-0.010106224
249	0x3acb1f4b	0.0015496997
250	0x3c1ed428	0.009694137
251	0x3c483b81	0.012221218
252	0x3caa6f14	0.02080492
253	0x3c972160	0.018448532
254	0xbd45e8e1	-0.048317794
255	0xbdcf9b15	-0.101370014
