models/enhanced_model/model.pth (torch, 353573 bytes, 9 tensors)

lstm_layer.weight_ih_l0 f4 [336, 4]
00000000: 158a 363d b707 8d3d 1967 ad3d 5ac0 2a3c
00000010: 00ca febb 6530 6ebc 5d0c ef3b 6779 813d
00000020: 03ce 283d 215c b23c 5d71 4cbd ae0c bcbc
00000030: b2b3 98bd df60 8b3c 0f1a 09be 84a0 c73d
00000040: cac5 f1bc 6d2d adbd 4857 38bd 7045 2c3d
00000050: 696c 283c a377 003e 3009 b1bd 405d 8ebb
00000060: 914d 773d ef95 303d a463 963d 009c 89bd
00000070: 8cb2 e43d d9fc b73d 75eb 033d 1a7d 3cbd
00000080: e3de 9e3b 2d23 da3d d547 0a3e 4dde 7c3d
00000090: a730 f53d f3a7 cd3d 6fb6 103e 726c a2bc
000000a0: 155b b13d 283c 1dbd 5e05 10bd 4b17 013d
000000b0: e57d b63d a511 8e3c 0f75 5b3d 2369 243d
000000c0: 0c36 ef3d 1781 14bb b692 2b3d c356 c63c
000000d0: 60f5 a9b8 5f1d c93d ac09 d2bd bbb0 313c
000000e0: ddaf 833c 76c2 7dbd 2a6b 94bc ee6b a3bd
000000f0: d090 903d 6d03 5cbd 4d0d 9fbd d644 953c
00000100: caa0 6e3d 08f1 aebd 85bc 803d fd1b b73d
00000110: 5250 923d 72a5 f23d 7743 c83d 6509 b63c
00000120: 762a 553d 5239 8abc e3db 193d 0c3c c2bc
00000130: 3d16 9fbb 5292 88bd d9c8 a73d e362 cc3d
00000140: 12e1 2dbd 8004 3f3d 053a 763c f4b6 52bd
00000150: f4b1 d33b dab8 ffbc 2d1d 933d 9730 c93d
00000160: e57a cdbd 5683 873c 284e 47bc 6423 06bd
00000170: 7bab 013e 85a3 b13d 6a8b c13c 73f6 5fbd
00000180: 70ff c63d 2176 b5bd 3749 d5bd 1609 d23d
00000190: 5de8 f53d 71bb 9fbd 7893 b63d c914 d53c
000001a0: 8e35 82bd 123e c1bc 4953 edba 9d8c 4fbc
000001b0: 6160 aa3d 4b74 2fbd 2244 7bbd fbc0 2fbc
000001c0: 7bf6 04bd 4d17 7ebd cb5b babd d3ae b0bd
000001d0: f3af a4bc 882a 1fbd ada0 9abc d69b ab3d
000001e0: 224e 253e 0434 de3d 3ae8 b2bd 3586 213c
000001f0: 12eb 19bc 136b e93d 8f66 4e3d c790 7e3c
00000200: a46a b53d abe1 293d 9ec8 8f3d b4f1 67bd
00000210: 7117 933d e5ff 013e 3e7a 423e de5e 023e
00000220: 4d16 d7bd a9fc ce3d 622a 7a3d b377 1ebd
00000230: d990 acbc ea57 e3bd 195c f4bb e697 163d
00000240: e807 b93d 0b35 ae3d ecec 59bd 45d3 b4bd
00000250: f786 cd3d 6c58 5c3d 5b98 693e 293e 1b3e
00000260: 0ea0 f4bc b58d bbbd 4a15 5b3c b731 bc3d
00000270: 7390 d93d 7ebc 083e 4c5d 873d dd2d 103e
00000280: 368c 0a3c 5fd6 133d 7566 d9bc a6fe 0a3e
00000290: 0844 00bb 2417 30bd 8cba d2bb d744 9a3d
000002a0: ab2b 13bd 48fe 86bc 33f7 af3d 7d5e 87bd
000002b0: b7f9 b7bd e2f7 273d fafb 5ebd b9d6 9dbd
000002c0: 9bfd 1d3c 2851 f53c d1c1 0e3d 2c49 d23d
000002d0: 8304 b23c 60b0 64bd ec0a f33d 1906 1dbd
000002e0: 8e33 453d cfa9 3dbb da8d 9e3b 55aa 9e3c
000002f0: 7640 083e 7c6c 893c 6afa d73d a7de f33d
00000300: ad47 483d 006b 6a3d 6a93 0e3e 4a02 b23d
00000310: 1c62 103e 7276 e83c f894 a53d 0012 8c3d
00000320: 4c01 a03d 89e1 45bd 5b38 9c3d da9d b5bd
00000330: c9fb 3bba 423e b63c b537 afbd a5f2 793d
00000340: c5b1 013e 73ea 3a3d 5d5d be3d ef9f 3bbd
00000350: c362 cb3c c0e4 093d f185 59bd 7f72 a23d
00000360: 51b1 f73c b781 f23d c173 133e 62d3 bdbc
00000370: 2a4c 3c3d d435 a43d 4719 07bd 67b6 49bd
00000380: ba37 2dbd ce8d 043e c4a2 ec3d c07b 4ebd
00000390: 1697 053d 91e2 6bbc 82f3 8f3d 0b17 ae3d
000003a0: fbf0 5e3d 65ab e03d d7af 523b 492d a93d
000003b0: a5f4 673a 2499 8bbc 0832 7b3c d897 a13d
000003c0: ba7a 903d f3c0 a23c 9cd3 abbd 937e 923d
000003d0: d0f7 863c ece4 85bd 3fc2 acbc 9d4a 853d
000003e0: 57a4 86bc 8a0f 093d b3e0 acbd ba73 813d
000003f0: 1213 b23c cb45 8dbd 71f3 8fbc bcd9 9c3d
0.04456528 0.06886237 0.0846693 0.010421837 -0.007775545 -0.014537905 0.007295175 0.06321984
0.041212093 0.021772446 -0.0499128 -0.022955265 -0.07456149 0.017013965 -0.13388847 0.09747413
-0.029513258 -0.0845593 -0.045005113 0.04205841 0.010279753 0.12545638 -0.086443305 -0.0043446124
0.060376707 0.043111738 0.07343224 -0.06719208 0.111668676 0.08983774 0.03220697 -0.046017744
0.0048483475 0.106512405 0.13503964 0.06173544 0.1197217 0.100417994 0.14132093 -0.019827101
0.08659951 -0.038387448 -0.03516137 0.031516355 0.08910731 0.017342398 0.053578433 0.04013933
0.116802305 -0.0022659951 0.04188796 0.024211293 -8.1042526e-05 0.09820055 -0.10255751 0.0108453585
0.01607507 -0.06195303 -0.018117506 -0.0797957 0.07058871 -0.053714205 -0.07766209 0.0182213
0.05825881 -0.08542067 0.06285957 0.08940885 0.07144226 0.118479624 0.09778493 0.022221277
0.052042447 -0.016873036 0.037563216 -0.023710273 -0.004854946 -0.066685334 0.081926055 0.09979799
-0.042450972 0.04663515 0.015028481 -0.05144401 0.0064604226 -0.031216074 0.07183299 0.09823721
-0.10033206 0.016542118 -0.01216463 -0.032748595 0.12663071 0.08673767 0.023626048 -0.05467839
0.097166896 -0.08860422 -0.10414355 0.10255639 0.120072104 -0.077994235 0.08914846 0.026010888
-0.06357871 -0.023589168 -0.0018106486 -0.012667802 0.08319164 -0.042835515 -0.061344273 -0.0107271625
-0.032461625 -0.06203394 -0.09099539 -0.08627095 -0.02010343 -0.03885892 -0.018875444 0.08379333
0.16143087 0.10849765 -0.087357 0.009858658 -0.009394424 0.11397376 0.050390776 0.015537447
0.08858231 0.04147498 0.070206866 -0.05662699 0.071822055 0.12695272 0.18991944 0.12731501
-0.105023004 0.10106785 0.061075576 -0.038688373 -0.021065162 -0.11100753 -0.007457268 0.036765955
0.09034711 0.08506211 -0.053204462 -0.08829359 0.10035508 0.053795263 0.22812025 0.15160431
-0.029861476 -0.09157888 0.013371775 0.0918917 0.106232546 0.13353154 0.06609592 0.14079995
0.00845628 0.036093112 -0.026538113 0.13573703 -0.00195718 -0.04299082 -0.0064309295 0.075326614
-0.035930317 -0.016478673 0.085920714 -0.06609819 -0.08983176 0.041007884 -0.054439522 -0.07706971
0.009642984 0.029945925 0.034852806 0.10267863 0.021730667 -0.055832267 0.118673176 -0.038335893
0.04814487 -0.0028940325 0.0048386874 0.01936833 0.1330584 0.016775362 0.105458096 0.11907702
0.04889648 0.05723095 0.13923422 0.08691843 0.14099926 0.028376792 0.08085054 0.06839371
0.07812747 -0.04831079 0.076279365 -0.088679984 -0.0007171003 0.022246484 -0.08555547 0.06102242
0.1266547 0.045633744 0.092951514 -0.04580682 0.024827367 0.03366542 -0.053106252 0.07931995
0.030235918 0.118411474 0.14399625 -0.023172084 0.045971073 0.080180794 -0.03298309 -0.049246218
-0.042289473 0.12944719 0.115544826 -0.050410986 0.03261479 -0.014397279 0.07028867 0.08500489
0.054429036 0.10970191 0.0032148266 0.082605906 0.00088484056 -0.017040797 0.015331753 0.0789029
0.07054658 0.019867396 -0.08389971 0.07153048 0.016475588 -0.06537804 -0.021088718 0.06508372
-0.016435785 0.033462085 -0.084412955 0.06320901 0.021737609 -0.068980776 -0.017572137 0.07658717

lstm_layer.weight_hh_l0 f4 [336, 84]
00000000: d186 bcbd d454 b53d 151d 293d a395 36bd
00000010: be16 bbbd d22e a13b 1840 073d 6035 6e3d
00000020: 0676 c93c 3563 c53d a4fa ce3d 26fe a4bd
00000030: 6811 d2bd 24eb 6dbd 6bf4 70bc 0a2d f23b
00000040: 729b 8fbd 2380 2cbd ba28 663c f044 863d
00000050: aa65 8cbd 354a d63d f46a b5bd f9f3 853d
00000060: b733 e2bc de79 e53d 976c eb3d 56c3 f9bd
00000070: d56a a4bd f67f 603d 4cf7 293c 0259 353d
00000080: 17fe 663d 1504 b23d 2bbe b43d f674 b6bc
00000090: 6d2d cabd 1db6 343b d7ea 653d 586a e6bb
000000a0: 05bc 723c 7a3d a4bc 345b c0bd 1059 3ebd
000000b0: cc15 a4bb da76 fcba 5b20 ff3c 297c 0dbd
000000c0: 74e8 f83d 3266 bbbc a60d 1cbd 6961 803c
000000d0: 35c7 713b 2c8f c6bd e7f3 cb3d 1c12 bdbd
000000e0: 2964 423c cb71 5fbd 0039 53bd 2f8b d13c
000000f0: f54a 493d 68b3 713d ecd6 43bd d737 d0bc
00000100: 7d1b 90bd 321d 1dbe 4dc3 c93d d75c 06be
00000110: 8249 3f3d aee8 5d3d 569d fbbc fb41 2a3d
00000120: e5db 313d 7581 f1bc 3bdc 9fbd 668f 913d
00000130: d5cd c13d b9af c1bd 67b6 28bd cf38 2bbd
00000140: 0a1b 07bc a532 a03c b0ae a33d 7f94 ac3c
00000150: ce28 bd3b 1f28 963c 006a 193d 89c4 8cbd
00000160: 385a fcbd e81f aabd 06e7 0cbd bf20 e93d
00000170: 930e 2cbd 0caa 153d 50cd 173d 5a91 e93d
00000180: 2645 2abd 8be9 8cbd 59ec bfbd d8ec 033c
00000190: 72f9 d9bd c5a3 e83d f62c 623d 0df9 323b
000001a0: 7f69 b33d b9b9 eb3d 488f 2f3d b64d 003e
000001b0: 68cf 65bd 0626 a83b 17e7 abbd 29b0 753d
000001c0: 285f b6bc f37a 15bd 34fe 16bd 5c53 5c3d
000001d0: 8a27 683c 9984 69bd 0f6f 7cbc 9c2b c4bd
000001e0: 5871 503c bdd2 463c 53fa 8cbd 1c7c 3b3d
000001f0: 028e 00be 4c75 29bd b175 ccbd 044d 743c
00000200: 961f 6bbd 6911 173e d602 903d 453f f63c
00000210: 6ee4 063e 366c cc3d d488 a33d 9987 073d
00000220: cc45 31bd d8de 12bd c0c6 c53d a570 86bd
00000230: dc3d f73d 2354 3ebc a4b0 d6bc 5265 b6bd
00000240: 7037 083e 30f1 283c 127a 7d3d 6d52 abbd
00000250: cc44 6b3d 2dd2 fe3c 0ee1 65bd 5aa2 193d
00000260: 97df 873d c7ce 8bbd 5759 113d 33eb 84bd
00000270: 60e8 81bd 597e 9cbc 4f13 1abd ef69 bebd
00000280: ec26 0f3c 2b61 3cbd 9756 f9bd 5036 d9bd
00000290: 9c0a 54bd e3c9 a8bd 60f3 b13d f44f 993d
000002a0: 7b73 36bd 50c0 eabd 55ce 01bd 4441 153d
000002b0: 35d8 5ebd b6f1 1bbd a4ad e43c f65a db3c
000002c0: b6a1 12be c28d 41ba beac 31bd 4596 ac3d
000002d0: ad9e a0bd a7a2 123d 472f 89bd ba9d c93c
000002e0: 7ff6 da3c 1864 43bc 2fc0 b63b 3257 4bbc
000002f0: 3db6 f23c 845e b73d 1667 c73d f9be 2b3d
00000300: c92d f13c f6d6 48bd a636 c43d ac51 6c3d
00000310: 0c33 0f3c 9b3a d8bd 8c55 13bd 8156 a2bd
00000320: fb9c dbbc 4aa3 793c b18c 7fbc d3a5 2e3d
00000330: 566a 34bd ad94 2f3d 4c4f 123c 5839 12bd
00000340: ef6e 49bd aa7e 5d3d b0ec 793d b4b9 95bd
00000350: 17c2 bfbd 7607 233e 3493 69bd 210f b1bd
00000360: 8d9f 113d 5fd1 513d 1058 b13c d640 8ebd
00000370: 883a 82bd fb6c d9bd ea98 7bbc 84e0 a4bd
00000380: 4e2a 853c ddd2 99bd 47e1 933d 69fb a23d
00000390: e308 b1bc cd08 6bbd 5da7 a4bd 20d4 21bd
000003a0: 939b 023d 9891 113d c2e0 393d 5a99 80bd
000003b0: 2458 553d c673 d2bc 6c7b 803b 10e7 95bd
000003c0: be25 eebd 983a 6c3d ab1a 14bd d0d1 6dbc
000003d0: 7b23 d43c d4af cabd 33a5 ffbd 9aac 38bd
000003e0: 55a7 553d b642 e63b 07f1 a93d f4f6 e1bd
000003f0: c426 c13c 03e1 16bc 5ef5 c53d 35e1 c53d
-0.09205402 0.0885407 0.0412875 -0.0445763 -0.09135197 0.0049189115 0.03302011 0.05815637
0.02459241 0.09638063 0.101064 -0.080562875 -0.10257226 -0.058085576 -0.014706711 0.007390623
-0.07012071 -0.04211439 0.014047796 0.065561175 -0.068553284 0.104633726 -0.0885829 0.06540675
-0.02761255 0.11204885 0.11495321 -0.121954605 -0.08028189 0.054809533 0.010373902 0.044274338
0.056394663 0.08692185 0.08825334 -0.022272568 -0.098719455 0.0027574368 0.056132164 -0.00703172
0.014815335 -0.020048846 -0.093923956 -0.046471655 -0.005007481 -0.0019261495 0.031143358 -0.034542236
0.12153712 -0.022875879 -0.038098954 0.015671449 0.0036892418 -0.096952766 0.0995863 -0.0923197
0.0118647 -0.05455188 -0.05156803 0.025579063 0.04914375 0.059008986 -0.047812387 -0.025417252
-0.07036493 -0.15343168 0.09851704 -0.13121353 0.046700962 0.05417698 -0.030714672 0.04156683
0.0434226 -0.029480675 -0.078056775 0.07107429 0.094630875 -0.094573446 -0.041189577 -0.041802224
-0.008246193 0.0195554 0.07992303 0.021066902 0.0057726866 0.018329678 0.037454605 -0.068734236
-0.12321895 -0.08306867 -0.03440001 0.11383199 -0.042006087 0.036539122 0.037061036 0.11404677
-0.04156985 -0.06880482 -0.093712516 0.008052073 -0.10643281 0.113593616 0.05521866 0.002730909
0.08760356 0.11510033 0.042861253 0.12529644 -0.056106 0.005131486 -0.08393686 0.059982453
-0.02226217 -0.036494207 -0.03686352 0.053790435 0.014169583 -0.05701122 -0.015407338 -0.0957863
0.012722336 0.012135205 -0.06883683 0.045772657 -0.12554172 -0.04137163 -0.09983385 0.01491094
-0.05740317 0.14752735 0.07031791 0.030059466 0.13173077 0.09981577 0.07985082 0.0330883
-0.043279454 -0.03585705 0.09657049 -0.06564454 0.120723456 -0.011616739 -0.026207276 -0.08906044
0.13302398 0.01031141 0.061883993 -0.08365331 0.057438657 0.031106079 -0.056122832 0.037508346
0.06634443 -0.06826549 0.03548559 -0.06490173 -0.0634315 -0.019103216 -0.03761607 -0.09297549
0.008737307 -0.045991104 -0.12174719 -0.106060624 -0.05176793 -0.08241632 0.08688998 0.07485953
-0.044543725 -0.11462462 -0.031690914 0.036439195 -0.05440541 -0.03807231 0.02791483 0.026776772
-0.143195 -0.0007383489 -0.04337763 0.08427099 -0.07842765 0.03579965 -0.066984706 0.024611343
0.026728867 -0.01192572 0.0055771093 -0.012410926 0.029627914 0.08953574 0.09736459 0.041930173
0.029440777 -0.049033128 0.09580736 0.057695076 0.008740198 -0.10558053 -0.035970256 -0.079266556
-0.026808253 0.015236685 -0.015597508 0.04263861 -0.044046722 0.042866398 0.008930039 -0.03569922
-0.04917806 0.054075874 0.06101674 -0.07310811 -0.093631916 0.15920815 -0.05702515 -0.08645464
0.03555255 0.051225062 0.021648437 -0.0694596 -0.0635882 -0.106164895 -0.015356282 -0.080506355
0.016255524 -0.07510922 0.072207026 0.07958109 -0.021610683 -0.05738144 -0.080397345 -0.03950894
0.03188665 0.03553924 0.04538036 -0.062792495 0.05208601 -0.02568997 0.003920963 -0.07319462
-0.116282925 0.057673067 -0.036158245 -0.014515355 0.025895825 -0.09896818 -0.12482681 -0.04508648
0.052161533 0.0070269955 0.082979254 -0.11033431 0.023578055 -0.00920892 0.09665941 0.096620955

lstm_layer.bias_ih_l0 f4 [336]
00000000: 06da b83d dddf dc3d 7e48 b3bd 978c b3bd
00000010: 83c7 923d 168a a33b 3987 c3bd f381 69bd
00000020: 1a30 0c3e edee cb3d 75f6 8abb 4316 473d
00000030: 2de1 943d 18e0 dc3d a82e 7d3d 54db 0d3e
00000040: 47fb e03d 8220 d63c 2722 0ebd 9271 013e
00000050: 62c4 2a3d cd6b e5ba fc71 cb3b d1d6 a9bd
00000060: e274 d5bb 6aae a33d 4ec7 33bc 1000 4f3d
00000070: 7376 bbbd c61e 133e 0011 82bc f599 e8bc
00000080: 0fe7 4a3d b443 d73d 6a55 b73d 96fc 543d
00000090: 454c 5c3d 08a4 593e 34fe bd3d 0905 b83d
000000a0: 39d6 a8bc b9a8 e93d d840 0cbd 14dd 263d
000000b0: 4e85 19bb fe46 213c b082 91bd 7f75 dfbc
000000c0: c7bf 6e3d 4629 d1bd 9ae4 073d 34d1 c4bd
000000d0: 2d84 4d3d 86c2 80bb 998c 3f3e 116e 6abd
000000e0: 07ca e2bc f0ae 873c 8276 9abd 1c11 a13d
000000f0: 7f1e 47bd f8a6 db3d 4992 c13b 0b3c 85bc
00000100: bca1 81bd c989 053e a0a9 c43c e9fd 64bd
00000110: 22aa f13d 8d2e bd3d bef4 373d 063f 023e
00000120: 145d 44bd edb2 fa3c 273e 093d 37fc 7ebd
00000130: 0bb0 b7bd 6a05 7abc 15b3 16bc 85e6 083e
00000140: ba5f a2bc c3a9 2dbd 735e 313c adfe a8bd
00000150: f041 633c 3045 0a3d 059e 843d 02c3 433d
00000160: 3468 6dba eb4e 29bd eab0 183d 82f2 653d
00000170: 2f73 063d b336 ec3d 5b67 9fbd cbca 95bc
00000180: e15c eb3c 1d53 68bd 2f7d ffbc b5c0 f83d
00000190: ecaa 1fbd 9455 c4bd b5d4 6fbd ab80 17bd
000001a0: 317b 633c 05a4 a33d 826b e33d 922a b63d
000001b0: cb46 8ebd ee28 a03d a2d9 b33d fdd2 063d
000001c0: 9e39 a53b 6e38 ecbc dd84 723d 7f89 6c3d
000001d0: 4d3c 093c a460 b13d a02b 033e 5eee 7f3d
000001e0: af4c 5bbc eacd bd3d dcde 6dbd a6c0 563d
000001f0: ef1b cf3d 48fe dc3d bda9 2ebd 5bc0 223d
00000200: 1d1f d9bd a952 8f3d cdee 9b3d 7d7a b2bd
00000210: 6ff0 29bd 01b1 80bd 1114 aebd c7f6 0a3d
00000220: cf8e 52bb 6a50 1f3d 89a5 0c3e 0586 053e
00000230: 0a59 b83d b34b 75bd 7e9e f23d c88e 67bd
00000240: 4af4 3cbd e242 b5bd 4da8 9b3d f159 3cbd
00000250: 3eb2 fe3c af33 193e 7102 acbb 77cd a63a
00000260: 7087 d53d 861b 82bd 024e 1f3d b9c7 933d
00000270: dddd ad3d 5646 ddbd 40d2 ffbc 1d17 f33d
00000280: d4b2 f9bb 1166 8abd e98d 0f3c 0f35 993d
00000290: 8e5d 1fbd 4c7b 833d 3bd1 0e3e e0a0 f2bc
000002a0: 1fe5 ddbd c702 343d 2a87 a73c 8f36 243c
000002b0: 37c3 92bd 1305 32bc 260e 873d f7d8 b1bd
000002c0: 9deb de3d 9962 b43b 1e3e 1f3d 89c7 cd3c
000002d0: 720a ad3c 0856 0bbd 3835 b63d 0223 ce3a
000002e0: 7ba9 383c 2d90 efbc 917b 93bd 8633 ea3c
000002f0: 5981 573d 760b b13d 56ff 14bd e050 4e3d
00000300: ae2b 833d 4b3d 843c 1784 c5bc 3e67 5c3d
00000310: 40f6 e93c ee1f 38bd 747e d1bd 25e1 9abd
00000320: 50f3 e2bb c0d2 c23d fb78 d2bd d2dc 5fbc
00000330: b280 e43a 9388 71bd 53bb bc3b f00e c73d
00000340: 59b5 d33b aa39 923b 5bbc 96bd 89ae 39bd
00000350: 0ffd 5b3d dbfe 273d 7550 babd 2c23 d43c
00000360: 8bc3 123d 99c9 f03b 744b 9f3d fa61 d7bc
00000370: 76db 2e3d 0258 753c a81e 203b 6619 af3b
00000380: 3dda 83bc b1a7 f0bc bd97 8abd d7de 8a3d
00000390: 2a07 9a3d c4a7 8a3d 036c b23d 9e75 9bbd
000003a0: f603 c93d 8449 4f3d 2f84 bdbb 3fe2 893d
000003b0: 9fc6 833d 9d98 0e3d 7873 103d ec8a 003d
000003c0: 3d75 aebd bea1 883d 8b9d ccbd 4ca4 b5bc
000003d0: 0580 903d 0f04 a53d 8a4f 59bd 7706 b93d
000003e0: a5fa 80bd 9685 1a3d d039 9d3d 1bef 40bd
000003f0: 9f7a 5cbd 8338 36bd e64e b13d 0d8b 7abd
0.0902596 0.10784886 -0.08754061 -0.0876705 0.0716696 0.0049908264 -0.09547276 -0.057008695
0.13690224 0.09957681 -0.0042408057 0.048605215 0.07269511 0.1078493 0.061812073 0.13853198
0.10985427 0.026138548 -0.03470054 0.1264098 0.04169119 -0.0017503441 0.0062086564 -0.08292926
-0.0065141777 0.07992251 -0.010972811 0.05053717 -0.09153452 0.14367208 -0.015877247 -0.028393725
0.04953676 0.1051096 0.08951838 0.051998697 0.053783674 0.21253979 0.09277001 0.089853354
-0.020609962 0.114091344 -0.034241527 0.04073818 -0.0023425403 0.009843586 -0.07105005 -0.027277706
0.058288362 -0.102129504 0.033176996 -0.09610215 0.05017488 -0.003929439 0.18705977 -0.057233874
-0.027684225 0.016562909 -0.07542135 0.078645915 -0.048613068 0.10725206 0.005907331 -0.016263982
-0.063296765 0.13040842 0.024006665 -0.05590621 0.118000284 0.092373945 0.04491114 0.12719354
-0.04794033 0.030602897 0.03350654 -0.06225225 -0.089691244 -0.01526008 -0.00919797 0.13369186
-0.019821037 -0.042398226 0.010825741 -0.082517006 0.013870701 0.03375739 0.06475452 0.047793396
-0.000905636 -0.041335028 0.037278093 0.056139477 0.03282469 0.115338705 -0.07783385 -0.018285176
0.028730812 -0.056719888 -0.031187622 0.12146131 -0.038981363 -0.09586635 -0.058552463 -0.03698794
0.013884352 0.079902686 0.1110449 0.088948384 -0.069470964 0.07820307 0.087817445 0.032916058
0.005042269 -0.028835502 0.05920874 0.057748314 0.008376193 0.08661011 0.1280961 0.062483184
-0.013384982 0.092677906 -0.058073863 0.052429818 0.1011275 0.10790688 -0.042642344 0.039734226
-0.106016375 0.06998188 0.07613907 -0.08714769 -0.04148906 -0.06283761 -0.08499921 0.03392675
-0.0032128578 0.03889505 0.13735022 0.13039406 0.09001358 -0.059886646 0.11846636 -0.05653265
-0.04613141 -0.088506475 0.0760046 -0.045984212 0.031090852 0.14961122 -0.0052493145 0.0012726028
0.10426223 -0.06352906 0.038892753 0.072158284 0.08489583 -0.10804431 -0.031228185 0.11869643
-0.007620195 -0.06757749 0.008761861 0.07480823 -0.03890758 0.064200014 0.13947003 -0.029617727
-0.10834717 0.04394796 0.020450193 0.010022773 -0.071661405 -0.010865468 0.065944955 -0.08683961
0.108847834 0.005504918 0.0388776 0.02511956 0.021123145 -0.034017593 0.088968694 0.0015726986
0.011270876 -0.029243553 -0.07201303 0.028589021 0.05261359 0.08644764 -0.03637632 0.050370097
0.064048156 0.016142508 -0.024110837 0.053809397 0.028559804 -0.044952326 -0.10229197 -0.07562474
-0.0069259778 0.095128536 -0.102769814 -0.0136634875 0.0017433374 -0.058968138 0.0057596355 0.09719646
0.0064608273 0.0044624405 -0.07360145 -0.045332465 0.053708132 0.041014533 -0.09097377 0.025895678
0.035831016 0.007348251 0.077780634 -0.026291836 0.042689763 0.014974596 0.0024432335 0.005343604
-0.016095275 -0.029376836 -0.06767223 0.067807846 0.07520898 0.0677028 0.08712008 -0.07590793
0.098152086 0.05060722 -0.00578358 0.06732606 0.06434368 0.034813512 0.03526637 0.031382486
-0.08518455 0.06671475 -0.099909864 -0.02217307 0.07055668 0.08057415 -0.05305437 0.09034436
-0.06297807 0.037725054 0.076770425 -0.04710303 -0.053827878 -0.044487488 0.08657627 -0.061167765

lstm_layer.bias_hh_l0 f4 [336]
00000000: b93a a5bd bad4 3f3c bafc a6bd 06c1 753d
00000010: 560b 8bbc 50c4 1abd 2933 763d 0702 ba3d
00000020: eeb8 0b3e 2bf3 e73d a3fe 873d eb8f 1f3d
00000030: 26a9 803c 5097 a13d 627a 99bc 3758 cebb
00000040: f197 423d afc1 4d3b c394 5a3c a77a 81bd
00000050: 88b4 96bd a00f d73d 1734 263e 836a d4bd
00000060: 821f c03d e6d4 863d 8511 0e3d ff8a e23b
00000070: 6f8d aebd 6904 4f3c 29ff b3bd 4801 b5bd
00000080: 326e d43c d816 f83d 93d6 fe3d 2e04 593d
00000090: 8c73 95bd 906b 553e cce7 b63d a99b 0d3d
000000a0: 17f3 183e 0ce6 c63c ceeb af3d 766e 5bbd
000000b0: 4769 483d c1e8 0b3d d60e e93d fcc8 703d
000000c0: f075 12bc 5290 a4bd 5b46 b23d 1300 aebd
000000d0: c177 f23d 70de b23d a2a9 293e 08ce b73d
000000e0: 5965 41bd 81f3 013e 55c7 7abd ef04 433d
000000f0: 11b4 443d d201 6abd 67d9 83bd cbce 863d
00000100: 6f79 503d f48c 3a3e f86c 57bd 6f79 f13d
00000110: 6a36 9b3d 09e4 d5bc a25d 513d 1d1b 6b3b
00000120: bd4a 003e 508b 9cbc 5ddc ecbc 38ee 923d
00000130: a1fe 383d 65de dfbd 4c2d 8bbd 92af a1bc
00000140: 5655 bb3c 5419 693b e8b9 cc3d 4361 b23d
00000150: 51e7 8abc 38c7 2abd e1c6 85bd cabe 4ebd
00000160: 66e9 cd3d c2c2 ffbc 221b 113d 8fbd c33d
00000170: 612d 423d 574b 803c 66a4 ae3d a457 bd3d
00000180: 7e92 39bb 0fb6 123c 0f7e d2bd 0fa8 23bd
00000190: d8f3 61bd 6e8f b4bd 695d a03d ff59 b13d
000001a0: f5b0 11bd 8b57 d3bc 476c 1f3e 3a97 963d
000001b0: 117b 73bd 1140 7e3d 7079 a23d bd95 a23d
000001c0: 86d4 a6bd 59de 8dbc 7d04 7bbd a7ac 23bd
000001d0: 7ac0 823d 26f5 ff3c 01a6 8c3d 660e 6bbd
000001e0: 8a60 c03d 789d 8e3d 340c 53bd 6240 28bd
000001f0: 7562 e5bb 3c9b 6d3b b51d 38bd 4f6a 85bd
00000200: fd18 843d 93a4 1c3d 3709 21bd 1390 a1bd
00000210: 0934 c13d 22ed 3cbd a5d6 0d3c f453 503c
00000220: 322b 7b3d 7f31 2dbd f474 823d b03b ea3d
00000230: 5ab9 683d 812a f33d 9d44 5d3d 74e0 6c3d
00000240: 6307 e5bc bd0e f0bc 9ff0 5fbd 5aca 69bc
00000250: b532 babd d396 8a3d c12a a53d d569 7e3d
00000260: 17a6 173e 381d e03d afda debc 37a5 a73b
00000270: 576d eb3d 8c0f a8bd d8b0 023e 10a9 363d
00000280: 3b0e a33b 40b3 7e3d 3f6f c03d 114d 043e
00000290: bc03 503d a519 4cbd 341d 413e 3e9c 3c3d
000002a0: 566d bf3b 4f1a 013c bc76 843d 55c8 29bd
000002b0: ceb7 b7bd 2988 f63c 7e4e 66bd 90a7 433d
000002c0: 1069 81bd d41b 6a3d 23b8 b53d dd49 be3d
000002d0: 8e46 e2bc eca7 9abd e502 77bc 9c78 06bc
000002e0: c782 b8bd 8d2f c23d 2ab7 0c3d fb66 953d
000002f0: 41bf c6bd 5696 1f3d 3908 b13a a67d c63d
00000300: e48c c03d db5b ce3d 95aa 86bd cf11 adbd
00000310: b237 423b 1e5f b73c 6fb6 15bd 4b8d c33d
00000320: c3c9 253d c06b b5bd 2dbd 643d a44d c7bd
00000330: 7db9 d7bd e412 45bc 5ae2 c13c 740c 923c
00000340: eee0 76bc aaa2 b0bd 4368 93bc 96e8 da3d
00000350: 0154 5abd baf0 f1bc b01f 1dbd 043f 9d3c
00000360: 2ae7 b63c 6f91 153d 80bd 09bd 88c9 1f3d
00000370: 5652 233d 048b d73c cd61 3ebb bf99 5abd
00000380: 2123 b13d 7b31 d8bd e729 5c3d c347 9f3d
00000390: 4f55 fdbc 33c4 563d 5597 673c 6723 a53b
000003a0: d629 f53c 203e 5fbc 6791 a0bd 0587 e7bd
000003b0: fc85 48bd 08d2 2abc 32c6 a7bc b2ba 8bbd
000003c0: e0f7 2fbc 20d6 843d a30a d03b 0613 d6bd
000003d0: 3471 5c3d 6ef1 91bd 254d c73c 6fc6 01bd
000003e0: 043b 86bd 153e 843c 7c10 603d e802 34bd
000003f0: 4b3a 8b3d 29cd fb3c d23b e13c 14a3 55bb
-0.08067841 0.011708433 -0.081536725 0.059998535 -0.016973179 -0.037784874 0.060107384 0.09082418
0.13644764 0.113256775 0.06640365 0.03895561 0.015705656 0.07890189 -0.018735114 -0.006297137
0.047508184 0.0031395962 0.013341132 -0.06322222 -0.07358652 0.10501027 0.16230808 -0.10371878
0.0938101 0.06583576 0.034684677 0.0069135423 -0.0852307 0.012635329 -0.08788902 -0.08838135
0.025931451 0.12113732 0.124432705 0.0529825 -0.072974294 0.20841813 0.089309305 0.034572277
0.14936481 0.024279617 0.08589898 -0.05357214 0.048928525 0.03415752 0.11379783 0.058785424
-0.008939251 -0.080353394 0.087048255 -0.08496108 0.118392475 0.08733833 0.16568616 0.08974844
-0.047215793 0.12690546 -0.061225254 0.047612127 0.048023287 -0.057130642 -0.064379506 0.065824114
0.050897058 0.18217832 -0.052594155 0.1179074 0.07578738 -0.026109712 0.051114686 0.0035874315
0.1252851 -0.019109398 -0.028913671 0.07174343 0.045164708 -0.1093109 -0.06795749 -0.019737039
0.02286784 0.0035568075 0.09996396 0.087099575 -0.016956003 -0.041693896 -0.06532074 -0.05047492
0.10054283 -0.031220797 0.035426266 0.0955764 0.047406558 0.015660925 0.0852745 0.09245232
-0.0028316076 0.008954539 -0.1027795 -0.039955195 -0.05516419 -0.088164195 0.078303166 0.086597435
-0.03556915 -0.02579858 0.15568648 0.07353063 -0.059443537 0.062072817 0.079333186 0.079387166
-0.081460044 -0.017317938 -0.061283577 -0.039959576 0.06384368 0.031244826 0.068676 -0.05738678
0.09393413 0.069636285 -0.05152531 -0.041077025 -0.0070002624 0.0036255857 -0.044950206 -0.065144174
0.06450079 0.038242888 -0.03931543 -0.07888808 0.09433753 -0.046124585 0.008657132 0.0127153285
0.06132049 -0.04228353 0.06369963 0.11437166 0.05681739 0.11873341 0.054020513 0.057831243
-0.027957624 -0.029303903 -0.054672834 -0.014269436 -0.09091703 0.06767049 0.08064795 0.062112648
0.14809452 0.10943073 -0.027203886 0.0051161307 0.11495464 -0.0820609 0.12762773 0.044594824
0.0049760616 0.062182665 0.093962185 0.12920024 0.05078481 -0.049829144 0.18858796 0.04604744
0.0058418913 0.007879808 0.06467959 -0.041450817 -0.08970605 0.030094223 -0.0562272 0.047767222
-0.06318867 0.057155445 0.08873012 0.09291432 -0.027621534 -0.0755156 -0.015076374 -0.008207466
-0.09009319 0.09481726 0.034354366 0.072950326 -0.097044475 0.03896173 0.0013506479 0.09691934
0.09401873 0.10076114 -0.06575505 -0.08450662 0.0029635248 0.022384223 -0.036550935 0.09548434
0.040475618 -0.08858442 0.055844475 -0.09731606 -0.10533426 -0.01202843 0.023667503 0.017828204
-0.015068276 -0.08624776 -0.017994052 0.106888935 -0.05330277 -0.029533733 -0.038360298 0.019195087
0.022327024 0.03651565 -0.033627987 0.039010555 0.039873444 0.026311405 -0.0029049993 -0.05336928
0.086492784 -0.10556313 0.0537509 0.07777359 -0.030924467 0.052433204 0.014135201 0.0050396207
0.029927175 -0.013625652 -0.07840233 -0.1130505 -0.048955902 -0.010426052 -0.02048025 -0.06822719
-0.01074025 0.064861536 0.0063489242 -0.10452847 0.053818896 -0.07126127 0.024328778 -0.03168338
-0.06554225 0.016142884 0.05470322 -0.043948084 0.06798228 0.030737476 0.027494345 -0.0032598423

lstm_layer.weight_ih_l1 f4 [336, 84]
00000000: 4d1e 703d b0d7 4bbd 2bcc 9a3d efda e83c
00000010: 9c01 133d d915 683d 6904 52bd a295 d73d
00000020: da19 5cbd 8ed7 bdbd 510f 933d 1470 aa3d
00000030: cfc6 8e3d 31e7 b4bd 0165 babd 2841 773d
00000040: fa68 32bd 618e 5d3d 5f80 803d 3be5 8f3c
00000050: 25a5 d4bd 5a6f e13d 096c 093d 678f 94bd
00000060: 2fd6 68bb 6619 9cbd 6f43 e63d 86dc 91bd
00000070: a23a 9a3d 2816 953d 52f9 2fbd 63a7 a4bd
00000080: 68c8 ae3d 7c72 f83b cfa2 9a3c d00f 84bd
00000090: 66a0 10bd 3a48 cd3d 532a 84bd 78e2 4ebd
000000a0: a7f2 aebd cbef a0bd 95d4 7dbd 3ffe 0ebd
000000b0: 0b92 b83c 84d8 073d 435c 0bbd cebf b33d
000000c0: adc3 86bd 8fcc e93c 74ee 49bd 4c6c 96bd
000000d0: 53be 5f3d 8a67 c9bd cf78 163e dc8c d3bd
000000e0: 9019 29bd f773 cf3c 9211 aa3d adcc 463d
000000f0: 7d56 27bc f5a3 81bb 1c7a fc3b 7ef5 6e3d
00000100: 4153 563d bb60 31bc 2d5b d1bd 0265 bebc
00000110: 1b36 4dbd 4736 813d 9eea 0e3e a2c9 e6bd
00000120: 1a84 0c3e b8c6 8ebc c68e a1bd 9f29 dcbc
00000130: 3cda a6bd 0c6b e4bd c7a0 d9bc 3d3d 00be
00000140: 9864 6bbc 39ba c03d c7c5 85bc af4f 883d
00000150: 3fa5 5a3c c5cf 2cbd 643c a13d 8273 c73d
00000160: 0bc0 b7bd a0de 663d 0d0e bbbd b87e 50bd
00000170: 4d06 0cbe b33b 1fbd 806d 3e3d 3e78 183c
00000180: 2e04 7bbc af06 a0bd 266c 673d 6c49 4cbd
00000190: 014c aabb 87b6 053e b1e5 88bd 7b13 cd3d
000001a0: aa14 8bbc 8c89 efbc 024f a93d 67df ce3d
000001b0: 6d06 7fbd e421 c93d c797 d73c 0c4e 56bd
000001c0: eac7 a83d 3d71 95bd 891a 05be adcb abbd
000001d0: f280 8e3b 13d6 bfbc a270 913c 7424 d23c
000001e0: dcec aabc ab71 eebb 4a3b 2abd 9408 eebc
000001f0: 023e 143d 7270 303d d852 c4bd 58c4 6fbc
00000200: 5d24 263a 2e59 d03d 0d6e bdbb eb89 f63d
00000210: 2711 1c3d 2349 833c c684 b7bc cffb ca3d
00000220: 06ba 043e e590 bbbd 902b 58bd f8f5 f7bd
00000230: 9020 5b3d 0d9b 88bd f55f 24bd 9e42 ceba
00000240: 860e 9c3b 6e14 f23c 6424 b83d 64d2 47bd
00000250: aaf3 edbc d80c 31bc fc42 bebd 3762 0bbe
00000260: dfec 83bd 04c1 cbbd 9022 db3d 3b53 e4bc
00000270: cfd6 74bd 0f32 65bd db2e a0bd ac16 8a3d
00000280: cf29 76bd af98 86bd 1a4f 44bd a86d 9f3b
00000290: 6a1e 0c3d c3d0 d9bc 0b0f e6bd b331 d5bd
000002a0: d6c6 573d aed4 9ebd 2d78 bf3d d82a 863c
000002b0: 5e06 febc d05c 1bbd f190 83bd d6f8 323a
000002c0: 01c7 dbbd 502f cebd 7812 c43b 2a24 89bd
000002d0: a5ca 6a3d 17a1 b63d 67fe babd f1a6 08be
000002e0: 0578 083d b4e2 11bc dcf0 57bd cf52 cc3c
000002f0: 8fb3 093d 7552 cd3d 5f52 933d 010f cf3d
00000300: 58b5 8f3d a0e6 973d 812d 033e 8bd4 96bc
00000310: debe 8e3d 8e33 eebd 8370 1bbd 4e8a 133d
00000320: d8d4 99bd 2893 77bd 7a22 34bd 0256 093c
00000330: 4f6b b4bd 67d4 c93d 7c8b 653d bcec 3cbd
00000340: d958 2f3b 48cd 473d 51a1 e6bd ccb9 c03d
00000350: 26dc a33d f52c d63d fe7a 983c 446f a5bd
00000360: 088c 2ebd 4585 0cbc c501 f43d 98dd 6a3b
00000370: 1e9d 3d3a 4b6a 06be 885e d03d d43d c1bd
00000380: bace 75bb ef80 24bc 5f3a 8c3c 71f1 0ebc
00000390: d8b5 8abc f0bd 80bd b8fd 2b3d df51 9f3d
000003a0: 4e4e 6fbd 6d1c 18be 231b f03c f1fc adbc
000003b0: 4c1e 22bc cb5b 5ebc e029 3abd 8575 d2bc
000003c0: 8bc5 0e3d 5238 5ebd 57bf e13c 0dde d9bd
000003d0: 3bb6 fc3c 4fc2 453d 2071 debd d120 073d
000003e0: 99af 8f3d aec1 0ebb 6825 e7bb 5634 9b3d
000003f0: fc93 973d 0ca6 823d 1e97 d6bd 4fd9 8fbd
0.058622647 -0.049766243 0.07558473 0.028424708 0.035890207 0.05666146 -0.051273737 0.10526587
-0.05373559 -0.092696294 0.07180656 0.083221585 0.069715135 -0.08833159 -0.09101296 0.060364872
-0.043557145 0.05409086 0.06274485 0.01756536 -0.10383061 0.11007567 0.033550296 -0.07253914
-0.0035528054 -0.07622032 0.11243331 -0.0712214 0.075307146 0.072796166 -0.04296238 -0.08039739
0.08534318 0.007582007 0.018876461 -0.064483285 -0.035309218 0.10023542 -0.06453385 -0.050508946
-0.08542376 -0.07858237 -0.061970312 -0.034910437 0.022530576 0.03316547 -0.034023535 0.08776818
-0.06580291 0.028539924 -0.049299672 -0.07344875 0.054624867 -0.09834202 0.14694522 -0.10329601
-0.041284144 0.025323851 0.083041325 0.048535038 -0.0102134915 -0.003956313 0.0077049863 0.05833959
0.05232549 -0.010826285 -0.102224685 -0.023241524 -0.050100427 0.06309181 0.13956687 -0.11268927
0.13722268 -0.01742874 -0.0788856 -0.026875315 -0.08147094 -0.1115323 -0.026565922 -0.1252336
-0.014367245 0.09410519 -0.01632966 0.066558234 0.013345062 -0.042190332 0.07872847 0.09738828
-0.08972176 0.056364655 -0.09133539 -0.0509021 -0.13674279 -0.038875293 0.046491146 0.009306012
-0.015320821 -0.07813775 0.056499623 -0.049874708 -0.0051970487 0.1305791 -0.06684435 0.10013481
-0.016977627 -0.029240392 0.08267023 0.10101204 -0.062261987 0.09820917 0.02631749 -0.052320525
0.082412556 -0.07296989 -0.12998404 -0.083884574 0.0043488676 -0.023417508 0.017753903 0.025652148
-0.020864896 -0.007276734 -0.04156045 -0.029056825 0.036191948 0.043075986 -0.09586114 -0.014634214
0.0006337816 0.1017326 -0.0057809413 0.120380245 0.038102295 0.016026085 -0.022402178 0.0991131
0.12961587 -0.09158496 -0.05277592 -0.12107462 0.05349785 -0.066701986 -0.040130574 -0.0015736406
0.0047624735 0.029550757 0.08991316 -0.04878463 -0.029046852 -0.010806285 -0.0929012 -0.13611685
-0.06441664 -0.09948924 0.10699952 -0.027871719 -0.05977517 -0.055955943 -0.07821437 0.067426056
-0.060098466 -0.06572091 -0.047927 0.004865367 0.034208693 -0.026588803 -0.11233338 -0.1040987
0.05267986 -0.07755409 0.093490936 0.016377851 -0.031008895 -0.03793031 -0.0642413 0.00068272406
-0.10731316 -0.10067618 0.005983647 -0.06696351 0.057322163 0.08917444 -0.09130555 -0.13344933
0.033317585 -0.008904148 -0.052719936 0.02494183 0.033618506 0.10025493 0.071934454 0.10110284
0.070170105 0.07417035 0.12810327 -0.018411895 0.06969999 -0.11630927 -0.037949096 0.03602057
-0.075113 -0.060443074 -0.043978192 0.008382322 -0.0880953 0.09854966 0.056041226 -0.046124205
0.0026755838 0.048779756 -0.112612374 0.09410438 0.08000974 0.104577936 0.018613335 -0.08077863
-0.042614013 -0.008576696 0.119144 0.0035837647 0.000723319 -0.13126485 0.101742804 -0.09435621
-0.0037507252 -0.010040506 0.017117677 -0.008724556 -0.016932413 -0.06286228 0.041990012 0.077792875
-0.058424287 -0.14854594 0.029309815 -0.021238776 -0.009894919 -0.01357169 -0.04545009 -0.025690803
0.03485636 -0.05425293 0.027557058 -0.10638056 0.030848613 0.04828101 -0.10861421 0.03299028
0.070159145 -0.0021782923 -0.0070540197 0.07578342 0.07401273 0.06379327 -0.10478042 -0.0702387

lstm_layer.weight_hh_l1 f4 [336, 84]
00000000: 8c20 cc3d abdc cdbd cb91 513d c099 773d
00000010: 848c c73d 9605 edbb 3c4f b03d f61a b33c
00000020: fe18 dfbd 0b34 9ebd 2c72 b33d a46d 0b3d
00000030: b1fe 9b3c f89e c83d 8a1d 3d3c 4b24 f33c
00000040: 8252 d1bb eb23 d9bd bf8a 623d c10f 973d
00000050: 7898 bbbd 54d8 d33d 42c2 55bd eec3 543b
00000060: 8247 debc c3b7 82bc 8f30 8e3d db93 68bd
00000070: 7586 75bd 9c4b 6cbc 7e45 c63d 615c c03d
00000080: 8722 c83d 8c29 c43c ed5d 3e3d 8b98 8ebd
00000090: 8d41 32bd 6c3e d23d 149d 3c3d 4bbd b6bc
000000a0: cd14 be3c 38c5 97bd 0eef c53d afa5 b83d
000000b0: 1551 a33d 3ae4 183d e088 6e3b 9bcf f33d
000000c0: 67f7 bebd 364b 993c 4135 a9bd 818c c73d
000000d0: d85b 3a3c f850 85bd 9d7f 373b d5d8 d93d
000000e0: 2324 64bd 484e ec3c f169 623c e87f 143d
000000f0: e4e8 913d 4e19 03bd 2c81 c5bd e938 b53d
00000100: 0942 9fbd 61bd 23bd 02cd ccbc 5c2a 17bd
00000110: d83f 573d 40b9 57bc cf51 fc3b 228e c33d
00000120: 0000 7dbd 159b 873c d934 cdbd a421 9c3d
00000130: 4ce2 203d b3f8 c23d 9efa bf3d 03c9 f13d
00000140: 2ba1 bd3d 132d cebd 5e2f babd 25ad 67bc
00000150: 800a a2bd c659 3c3b c75e b0bd 573a 803d
00000160: d5f2 c0bd 8a66 57bc a19f 40bd 931d a4bd
00000170: 911d ab3d 82f9 a0bd a051 e53d 2691 df3d
00000180: f689 e6bc 905e 523d c1c5 87bd 1905 b1bd
00000190: 6d2a e3bd 3b03 fb3d a00b d73d 4bbf 93bb
000001a0: 6a77 3ebd 3c80 d63d 4edb 98bd 7738 a2bd
000001b0: 59e8 89ba b63f f5bd 11d2 cb3d 2026 583d
000001c0: e5a5 103d e28f fdbb 51da b5bd f794 b4bd
000001d0: 7a9f f0bd 9287 7cbd f0ca 5ebd 9324 603d
000001e0: cbdd 483c 58d1 13bd f1e0 b7bd fe6f f3bc
000001f0: b531 b33d aff9 95bd 3825 66bd 4f84 f63c
00000200: 15f0 803d 0d21 c3bd 1377 213d aaea 03bc
00000210: c32c 843d 896a e63d 09f9 08bd 7247 3d3d
00000220: 0ccf a43c c07e b63d 9c38 8a3d 996b 2cbd
00000230: c839 403d 7091 6b3d bbd9 bbbd 5992 773d
00000240: a39f e0bd 9e5a 213d e081 c1bd c556 04bc
00000250: b92d 8a3c bc5f 893c 2ccd a4bd a2e0 9abc
00000260: 2cff 3abd 1512 1b3c 54e8 1d3d e376 a33d
00000270: b674 55bd ec4f 3d3b 8854 7b3d ab40 babd
00000280: a436 a5bc 7b3b 9cbd 7f53 85bd 0752 f23c
00000290: c476 a0bb 9a53 8c3d b55c 9d3d 77ac 303d
000002a0: 4c3a 36bd 0a4a e13c 0a91 f33b fdc6 1a3d
000002b0: 052c ab3d 313b acbd 7fdc 0dbc e4c0 f43c
000002c0: d75f 5ebd 7779 613d 9f4c 163d 1036 fc3d
000002d0: 8e77 b63c 356b ef3c 45ed b73d f59f e5bd
000002e0: 359c acba 46e2 a63d c7af 9fba fb03 763d
000002f0: 27af 50bd 5c24 5abd ab05 083d 40c1 89bd
00000300: a696 9f3d a7ce c9bd a620 02bd 33a4 aabc
00000310: 82a5 9cbc c968 aa3c d7c2 d0bd 9db7 a2bd
00000320: 418b 53bd 9ab7 b0bd 6060 403d 7df6 403d
00000330: 1df9 8c3d 17e2 67bd c3ba dbbc 6f76 483d
00000340: e73f a4bd f7d0 f5bc bd41 503d e220 abbc
00000350: 3602 f3bc cf5f 94bd 7dab ad3d aa12 bb3c
00000360: 277e 6c3d 4687 f03d 9b14 45bd 21a4 ea3c
00000370: ed6a 17bd f858 f7bd 6f2f d8bd 2f46 eb3c
00000380: 5cff 79bb eb81 8fbd 7596 283d 4349 42bd
00000390: 354b 093d c2b0 253b 4b29 a1bc 4b49 dcbd
000003a0: 25cc 84bd 51a4 783d ae5a dc38 47a6 a6bc
000003b0: 13d1 f7bd c3b2 ae3b 99fb 3abd 63c8 99bc
000003c0: d980 4cbd 7034 9939 1c60 9fbd 5da7 0c3d
000003d0: b81c 44bd 8586 2bbd 492f b73d d168 94bd
000003e0: f96f 71bc 78a4 1bbd 54f7 433d de06 f03d
000003f0: 02a1 a83d 5214 8d3d d5aa b1bd 6dae 5cbd
0.09967145 -0.10051855 0.05116443 0.06044936 0.09743598 -0.007233332 0.08608863 0.021863442
-0.10893439 -0.0772477 0.08762011 0.03404011 0.019042345 0.09795946 0.011542687 0.029680392
-0.0063880095 -0.10602554 0.0553081 0.07376052 -0.091599405 0.10343996 -0.05218721 0.0032465416
-0.027133707 -0.015956765 0.069428556 -0.05678163 -0.05994268 -0.014422324 0.09681223 0.0939262
0.097722106 0.023945592 0.046476293 -0.06962689 -0.043519545 0.10265812 0.04604824 -0.022307059
0.023203278 -0.07410663 0.09664737 0.09015977 0.079744495 0.03732703 0.0036397502 0.11904832
-0.09324532 0.018712621 -0.082621105 0.09743596 0.011374436 -0.06509584 0.0027999647 0.106370606
-0.055698525 0.028845921 0.013819204 0.036254793 0.071244985 -0.032006554 -0.09643778 0.088487454
-0.07776267 -0.039975528 -0.0250001 -0.03690563 0.05255112 -0.013166726 0.007700182 0.09548594
-0.061767578 0.016553441 -0.100198455 0.07623604 0.039278314 0.09520092 0.09373973 0.11805918
0.09259256 -0.10067191 -0.09091066 -0.014140402 -0.07912159 0.0028740033 -0.08611827 0.062611274
-0.094213165 -0.013147006 -0.047027234 -0.08013453 0.08355249 -0.0786009 0.11197209 0.10916357
-0.028141957 0.051359713 -0.066295154 -0.086435504 -0.110920765 0.122564755 0.10500264 -0.004508888
-0.0465006 0.104736775 -0.07463704 -0.07920926 -0.0010521516 -0.119750425 0.09952176 0.052770734
0.03531446 -0.0077380994 -0.08879531 -0.08817475 -0.11749168 -0.061652727 -0.054392755 0.05472238
0.012259911 -0.036088318 -0.08978451 -0.029716488 0.08749715 -0.07323014 -0.05618784 0.030092387
0.06295792 -0.09527788 0.0394202 -0.008051554 0.0645385 0.11250789 -0.033440623 0.046210714
0.020118259 0.089108944 0.06749079 -0.0420948 0.046930104 0.057511747 -0.09172388 0.060442302
-0.10967948 0.03939306 -0.094486 -0.008077328 0.016867505 0.016769283 -0.08046946 -0.018905941
-0.045653507 0.00946476 0.038551643 0.0798166 -0.052113257 0.0028886748 0.061359912 -0.09094366
-0.020167656 -0.076285325 -0.06510066 0.02958013 -0.0048969705 0.06851883 0.07683698 0.043133225
-0.04448919 0.027501125 0.0074330615 0.037787426 0.083580054 -0.08409727 -0.008658527 0.029877134
-0.05429062 0.05504748 0.036694165 0.12314999 0.022273805 0.029225925 0.089808024 -0.1121215
-0.0013169112 0.08148627 -0.0012183123 0.06006239 -0.05094829 -0.05325733 0.03320853 -0.06726313
0.07792406 -0.09853869 -0.031769417 -0.02083025 -0.019121889 0.020801919 -0.10193413 -0.07945178
-0.051646475 -0.08628769 0.04696691 0.04711007 0.06883452 -0.0566121 -0.026822453 0.048941072
-0.08020001 -0.030006869 0.050843943 -0.020889703 -0.02966414 -0.072448365 0.084799744 0.022836048
0.057737496 0.11744551 -0.048115354 0.028642716 -0.036967207 -0.12077516 -0.10555922 0.02871999
-0.003814659 -0.07007202 0.041159112 -0.04743315 0.03351899 0.0025282358 -0.01967301 -0.10756167
-0.0648425 0.06070358 0.00010507308 -0.02034296 -0.121004246 0.0053313687 -0.0456501 -0.01877231
-0.049927566 0.00029221503 -0.07782003 0.034339298 -0.04787895 -0.041876335 0.08944566 -0.07246555
-0.014736169 -0.037998646 0.047843292 0.1172006 0.08233835 0.068886414 -0.08675162 -0.053877283

lstm_layer.bias_ih_l1 f4 [336]
00000000: ba77 393d c6e6 93bd 417b 79bd cc0d 803d
00000010: 0684 0bbd 04fa 3f3b 2b34 b6bd dae5 523c
00000020: 417c df3b d7c0 31bd 15c0 5e3d b9c0 673c
00000030: ad12 ec3d 593a b6bd e7b1 b53d 7a9d 9f3d
00000040: eaf9 74bd 8690 803d 3746 99bc 5f9c e63d
00000050: 69fd 833c dd26 c9bb b46b a43c d866 b03d
00000060: 7d15 ed3d 4589 cc3d be80 d13d 99b0 73bd
00000070: 97f9 e73d 0fc3 a83d e2be 543d fd14 e93c
00000080: 54b2 123e 05f5 1dbd 3c06 b63b 3421 393d
00000090: 6147 85bd 96c8 9fbd 3226 a03d bbb8 9f3d
000000a0: 6f9d 873d b326 a43d 4d89 6d3d 309f 20bd
000000b0: 1b47 d53d 5a29 de3c b903 9ebd aedb dfbc
000000c0: f839 8cbd 36aa 46bd 3703 e3bd a1a6 b03d
000000d0: a683 c7bc 4fa6 69bd 7bd9 7cbd c43c e33c
000000e0: 0708 883d ebad ea3d fa49 8bbd ec22 363c
000000f0: e69f e83c f75e 693d 91b6 24bd e2d7 9ebc
00000100: d568 bdbb a2e1 303c c3cb 63bc b60e afbd
00000110: 1789 1abc 45f5 65ba 3488 b2bd 920f 99bd
00000120: 1e11 633d 30bb 0cbc 816d 31bd e8b4 e1ba
00000130: cbcd c73b f211 04bd 9e86 843d 8f5b 44bd
00000140: a79d 77bd 9fc3 093d 1922 bb3d dcdb ed3c
00000150: 3fd3 efbc 455b 7e3a 31a3 b13d bf5c 5abd
00000160: cc7d be3a ada4 59bd 05ea 3dbd 16b7 c9bd
00000170: 4f59 313d 9dab 813d ac24 fdbc 0d7d 503d
00000180: 3ff3 6f3d 8cb0 3cbd 8034 d93c 5c51 b8bd
00000190: 8cd3 bd3c d3f2 f63d 045b c2bd de45 c2bc
000001a0: 30ef a5bd 6275 a33d 5396 cfbd 88ca ef3d
000001b0: 1fd3 763d ddb2 b63d 6ae5 893d 69e4 023d
000001c0: a9e4 47bd bd56 36bd c989 e53c 1cc0 473d
000001d0: 7d66 703d b919 d23d 57d9 6abd 8286 4fbc
000001e0: 08a8 a5bc 97ae b0bc 39af 99bd 47ec 063d
000001f0: 9aed 003d be20 053e 9826 c63d b855 8bbb
00000200: abbd 32bd 0b91 5bbd c82b cc3d 4046 ae3d
00000210: f797 dbbb 0188 b6bd 6b1b ecbc 5d4b d93a
00000220: 50fe 9fbd 3a68 db3c fba7 2f3d c392 813a
00000230: da46 b1bd 7c9c dc3d 0153 f8bd a403 173d
00000240: ea6f b23c 630b e83c c616 da39 bf5a 20bd
00000250: 21f3 9dbd 63ff 84bd 5504 54bd 21f8 4dbd
00000260: 0edc 73bc 71d9 e33c 77df eebc e0ff 893d
00000270: 9ffa 353d 36fe aa3c 8cea 733d 8bbe 203d
00000280: 5cce 7ebd 9b7e 90bb 15db 38bd 52a1 a0bd
00000290: 2ae6 d8bd e6dd 3ebc cb14 2cbc 407c 8ebd
000002a0: 85a4 e13d f4bb a3bd 6066 373d bf0b ddbd
000002b0: 9b43 0f3c d2c6 66bd 7027 21bd f605 afba
000002c0: 9a9c 393c 707c 283d 5585 723d fe8f 2a3c
000002d0: 4b8f b2bd 9d93 483c 46b5 b73d 6b06 a1bd
000002e0: acfe 80bd 662b cabc cac5 ce3d 8cf9 d83d
000002f0: 8425 90bd 4531 03ba eecd d33a b1da 4cbd
00000300: 46cc 88bd 09f0 e4bc 54af 1d3d ccf9 913d
00000310: 598b 903d b71c 3abc 2a06 c1bb d5af 053d
00000320: 9188 66bd bb1b 4d3b 37a8 d83d da2d 6fbc
00000330: ed56 723d dff3 24bd 5194 a8bd 38a9 98bd
00000340: b77f 743d 135c 1ebd 738f 483c 5f35 19bd
00000350: f778 34bd 20d0 e33d 90b6 bf3a a136 9bbd
00000360: fc5f 53bd 0164 933d 8013 b5bd a7bd f63c
00000370: e34f c8bc 6247 56bc 2bf0 92bd a57e aebd
00000380: c74b a0bd 2e12 b13d 4cb8 733c e343 d73d
00000390: 71cc 9bbd c9bd b43c 21a1 473d 7cef 80bd
000003a0: 52d4 eabd 6b6c 70bd 157e cabc 490a 633d
000003b0: a7b3 85bd e6a9 8cbd 6091 ccbd b91f e73c
000003c0: ac58 51bd 8cd6 26bd 2d72 edbd e499 953d
000003d0: 3c69 203d b145 d7bc c9f6 de3d 3ce9 4d3d
000003e0: 1f66 413d 3117 26bb 0477 3abd e40c b93a
000003f0: 00d0 693c d9e8 503c 6da4 bc3c 9879 ce3b
0.045280196 -0.07221751 -0.06090856 0.062526315 -0.034061454 0.0029293308 -0.08896669 0.012872184
0.006820232 -0.043396797 0.054382402 0.01414507 0.115269996 -0.08897848 0.08871823 0.07793708
-0.05980865 0.06277566 -0.018710239 0.11260294 0.016112046 -0.006138666 0.020070888 0.08613366
0.11576364 0.099871196 0.10229634 -0.05949459 0.11326902 0.082403295 0.051939853 0.02845239
0.1432584 -0.038563747 0.0055549424 0.04519768 -0.06507755 -0.078019306 0.07819785 0.077989064
0.06621825 0.08015194 0.05799227 -0.039214313 0.10413953 0.027119327 -0.07715554 -0.027326431
-0.06846994 -0.04850217 -0.110845976 0.08625532 -0.024354767 -0.05704337 -0.061730843 0.027738936
0.06642156 0.114589535 -0.06801219 0.011116724 0.028396558 0.05697533 -0.04021317 -0.01939005
-0.005780319 0.010795983 -0.013903561 -0.08547728 -0.009432099 -0.0008772205 -0.08717385 -0.07473673
0.055436246 -0.008589551 -0.04331732 -0.0017220052 0.0060975305 -0.032243676 0.06470989 -0.04793888
-0.060453083 0.033633824 0.09137363 0.029035501 -0.029275535 0.0009702931 0.086737044 -0.053311106
0.001453334 -0.053135563 -0.046365757 -0.09849374 0.043298062 0.06331561 -0.030901276 0.050900508
0.058581587 -0.046066806 0.026514292 -0.08999893 0.023172162 0.12058034 -0.09490016 -0.023714956
-0.08102262 0.07981373 -0.10136094 0.11708552 0.060259935 0.08920834 0.067332104 0.03195611
-0.04880205 -0.044516314 0.028019803 0.048767194 0.05869149 0.102588125 -0.057336178 -0.0126663465
-0.020221725 -0.021567626 -0.07504124 0.032940175 0.031476595 0.13000771 0.0967533 -0.004252162
-0.043637913 -0.05360512 0.09969288 0.08509493 -0.006701465 -0.089126594 -0.028821668 0.0016578246
-0.07812178 0.026783098 0.042884808 0.0009885657 -0.08656092 0.107720345 -0.12125207 0.036868706
0.02178188 0.028325742 0.00041597168 -0.039149042 -0.07712389 -0.06494024 -0.051761944 -0.050285462
-0.014884008 0.027813645 -0.02915929 0.067382574 0.044428464 0.02087317 0.059549853 0.039244216
-0.06220852 -0.004409624 -0.045130808 -0.078432694 -0.10590775 -0.011649584 -0.010503004 -0.069572926
0.11017708 -0.079948336 0.044775367 -0.10793256 0.008744146 -0.056341954 -0.03934425 -0.0013353217
0.011328841 0.041134298 0.059209187 0.010410307 -0.08718737 0.012242225 0.08970122 -0.07862552
-0.06298575 -0.024678897 0.10096319 0.10594472 -0.070384055 -0.0005004595 0.0016159394 -0.050013248
-0.06679587 -0.027946489 0.038497284 0.07127723 0.070578285 -0.011359385 -0.0058906274 0.03263839
-0.056282584 0.0031297046 0.105789594 -0.014598334 0.05916493 -0.040271636 -0.08231414 -0.07454151
0.05969211 -0.038662028 0.012241232 -0.037404414 -0.044060674 0.11123681 0.0014626551 -0.07578779
-0.05160521 0.071968086 -0.0884161 0.03011973 -0.024452155 -0.013078542 -0.07174715 -0.08520249
-0.078269534 0.086460456 0.014875483 0.10510995 -0.076073535 0.022063153 0.04873765 -0.06295678
-0.11466278 -0.058697145 -0.024718324 0.05542973 -0.065284066 -0.06868343 -0.099886656 0.028213369
-0.051109955 -0.04073195 -0.11594043 0.07304743 0.03916286 -0.026278349 0.10886914 0.050271258
0.04721653 -0.0025343413 -0.04552366 0.0014118222 0.0142707825 0.012750828 0.023027623 0.006301116
