models/base_model/model.pth (torch, 16061 bytes, 5 tensors)

lstm_layer.weight_ih_l0 f4 [108, 1]
0	0x3e79b4f7	0.24385439
1	0xbe53b5f7	-0.20674883
2	0x3da0fcee	0.078607425
3	0x3e35a4e8	0.17738688
4	0x3e4eb7d2	0.2018731
5	0x3e9750e3	0.295539
6	0x3ea1461f	0.3149881
7	0x3eac09c3	0.33601198
8	0x3c33395b	0.010938968
9	0x3dafadb3	0.08578052
10	0x3e7ea530	0.24867702
11	0x3cb0f06f	0.021599023
12	0xbe18f8f6	-0.14938721
13	0x3e288c24	0.1645971
14	0x3e422e15	0.18962891
15	0x3e491089	0.19635214
16	0x3e274ea1	0.16338588
17	0x3ea6c08d	0.3256878
18	0xbdcc9aaf	-0.09990441
19	0xbd1ccfa1	-0.038283948
20	0xbe5990e6	-0.2124668
21	0x3e0156f8	0.12630832
22	0x3e9ccc08	0.30624413
23	0x3d80ff84	0.06298736
24	0x3e52c66b	0.20583503
25	0x3e7d3726	0.24728069
26	0x3d6e03da	0.058109142
27	0x3e72efbd	0.23724265
28	0x3cd6c9e3	0.026219314
29	0xbe11b063	-0.14227442
30	0x3c6b0989	0.014345535
31	0x3ccc57d3	0.024944222
32	0x3d5fdf5b	0.054656368
33	0x3cb56dc6	0.02214707
34	0x3e8bc08e	0.27295345
35	0x3d61e33f	0.05514836
36	0xbdae73fd	-0.08518217
37	0xbdd25411	-0.10269941
38	0x3e3ba438	0.18324363
39	0x3db5c0b8	0.08874649
40	0xbbfc2efb	-0.00769603
41	0x3e4411f0	0.19147468
42	0xbc005939	-0.007833772
43	0x3eb694e4	0.3566047
44	0xbd24c069	-0.04022256
45	0x3ddb1796	0.10697858
46	0xbd44774e	-0.04796534
47	0xbd2e544f	-0.04256087
48	0x3e230a3d	0.15921874
49	0x3ced65c7	0.028979195
50	0xbe8bf402	-0.273346
51	0x3d912a96	0.07088201
52	0x3e8370db	0.2567204
53	0x3e98c0cb	0.2983459
54	0xbd1aba44	-0.037775293
55	0x3c61ef89	0.01379002
56	0x3e6d8049	0.23193468
57	0xbe26be8a	-0.16283622
58	0x3e84fadf	0.2597265
59	0xbe5bd065	-0.21466215
60	0xbdbb78b2	-0.0915388
61	0x3ebe48fa	0.37165052
62	0x3e641db4	0.22276956
63	0xbce0bff7	-0.027435286
64	0xbe40c061	-0.18823387
65	0xbe27be39	-0.16381158
66	0xbd9a20f9	-0.0752582
67	0xbdcf58c6	-0.10124354
68	0xbe9e259f	-0.30888078
69	0xbe33a15d	-0.17542024
70	0x3ea0ff69	0.31444862
71	0xbe4450c3	-0.19171433
72	0x3dcdc25d	0.100468375
73	0x3e84997c	0.2589835
74	0x3e696409	0.22792067
75	0xbe553748	-0.2082187
76	0x3eb0ddca	0.34544212
77	0x3d23d153	0.03999455
78	0x3be52ef1	0.0069941212
79	0xbea6ce36	-0.325792
80	0xbe9fac3c	-0.31186092
81	0x3ca82226	0.020524096
82	0xbe6a0751	-0.22854353
83	0xbe5812d3	-0.21100931
84	0xbc937077	-0.017997963
85	0x3cbf1680	0.023326159
86	0x3db14bfb	0.0865707
87	0xbbe5c2eb	-0.0070117614
88	0x3e76bad4	0.24094707
89	0xbc914be1	-0.017736377
90	0x3ca90e73	0.020636773
91	0xbbb1e5bb	-0.0054289973
92	0x3dcf3f9b	0.10119554
93	0xbe4aa865	-0.197908
94	0x3de755e6	0.11295681
95	0x3e92975b	0.286311
96	0xbdbee41b	-0.093208514
97	0x3da31ce2	0.07964493
98	0x3e9c8daf	0.30576846
99	0x3dff2ac1	0.124593265
100	0x3c0a2834	0.008432437
101	0x3d59e8c6	0.053200506
102	0x3e1b7187	0.15180026
103	0x3e5ca760	0.21548223
104	0x3d3a77e5	0.045524497
105	0x3e37efec	0.17962617
106	0x3e93796b	0.28803572
107	0x3a7789c2	0.000944283

lstm_layer.weight_hh_l0 f4 [108, 27]
0	0x3d62fde7	0.05541792
1	0xbda85026	-0.08218412
2	0xbca855be	-0.020548698
3	0xbe648bc0	-0.22318935
4	0x3e694eab	0.22783916
5	0x3dc53be1	0.096305616
6	0xbe31aac9	-0.17350306
7	0x3e1b2e0c	0.15154284
8	0x3d8a01ae	0.067386016
9	0xbd448e6d	-0.04798739
10	0x3c261ffa	0.01013946
11	0xbe0a1bae	-0.13487121
12	0xbe2048d0	-0.15652776
13	0xbcf24d03	-0.029577738
14	0x3deba7f4	0.11506644
15	0xbcf83919	-0.030300664
16	0x3dae30c9	0.08505399
17	0xbe1651ec	-0.14679688
18	0x3dabbbb2	0.083854094
19	0x3eabb478	0.33536124
20	0x3e45b816	0.19308504
21	0xbe0625a6	-0.13100299
22	0x3d91c525	0.071176805
23	0x3d17ae56	0.037031494
24	0xbd480d40	-0.04884076
25	0x3df9dd69	0.12200434
26	0xbc1c2941	-0.00953132
27	0xbdd565bc	-0.10419795
28	0x3d7017db	0.0586165
29	0xbe367fc3	-0.17822175
30	0x3da67d8d	0.08129416
31	0xbdb31957	-0.087450676
32	0x3e268373	0.16261081
33	0x3de3394e	0.110949144
34	0xbea1c0d6	-0.31592435
35	0xbe5a9de7	-0.21349297
36	0x3dd7faf2	0.10545911
37	0xbdfb5fca	-0.1227413
38	0xbb1d9dfd	-0.0024050467
39	0xbdd6f26f	-0.10495459
40	0x3e4c111f	0.19928406
41	0x3d93f5a2	0.07224585
42	0xbdd9e3c4	-0.10639146
43	0xbd71c3aa	-0.05902449
44	0x3d96501e	0.073395
45	0xbe4cf081	-0.2001362
46	0x3d5e47e3	0.054267775
47	0x3d929eb8	0.071591794
48	0x3e0e2bf7	0.13883959
49	0xbe6e83f9	-0.23292531
50	0x3dccf5db	0.10007831
51	0xbd8ee62c	-0.069774956
52	0x3db1715e	0.08664201
53	0x3e4047b1	0.18777348
54	0x3d07e759	0.033179615
55	0xb98ef6f7	-0.00027268354
56	0xbd6d0209	-0.05786327
57	0x3d843081	0.06454564
58	0x3e3fbe08	0.18724835
59	0x3cb5be30	0.022185415
60	0x3de0cc04	0.10976413
61	0xbe7e2330	-0.2481811
62	0xbdf6bc58	-0.120476425
63	0xbda9753a	-0.08274312
64	0x3db33f4c	0.08752307
65	0xbdc97b35	-0.09837953
66	0xbdd13bd8	-0.102164924
67	0x3d3b091f	0.045662995
68	0x3e2c8a53	0.16849642
69	0x3e110b9a	0.14164582
70	0xbea96629	-0.33085755
71	0x3db0901b	0.08621236
72	0x3d30bb99	0.043147657
73	0xbe2a4206	-0.16626748
74	0xbe3e694e	-0.18594858
75	0x3dfd147e	0.12357424
76	0x3d5be6ef	0.053687032
77	0x3e0e2e1d	0.13884778
78	0xbdafcb24	-0.08583668
79	0x3de6e242	0.11273624
80	0x3dd667fa	0.10469051
81	0xbe3b0bf8	-0.18266284
82	0x3dc6d06e	0.097077236
83	0xbc6cf63d	-0.014463005
84	0x3dabbc9b	0.08385583
85	0x3e649bbe	0.22325036
86	0xbd74334a	-0.059619226
87	0xbd86bc50	-0.065788865
88	0x3e72c5ca	0.23708263
89	0x3b2cbfaf	0.002635937
90	0x3d2af84f	0.04174071
91	0xbd76a243	-0.06021334
92	0xbda97762	-0.082747236
93	0x3d5b1587	0.053487327
94	0xbe06afc7	-0.13152991
95	0xbda60a01	-0.08107377
96	0x3d4a3917	0.04937085
97	0x3cc24041	0.02371228
98	0xbd1fdabb	-0.039026957
99	0xbd7e11ec	-0.06202881
100	0x3dcc3e72	0.09972848
101	0x3d5726bc	0.052527174
102	0xbe1df912	-0.15427044
103	0x3e4201a9	0.18945946
104	0x3d0ba60e	0.03409391
105	0x3e200692	0.15627506
106	0x3d920a77	0.07130902
107	0x3d3376fc	0.043814644
108	0x3dbd3662	0.09238888
109	0x3d543fe2	0.051818736
110	0xbdc01fa4	-0.09381035
111	0x3da15950	0.07878363
112	0x3de68bb3	0.11257114
113	0x3c0ddb78	0.008658282
114	0xbccce869	-0.025013166
115	0x3e55ac92	0.20866612
116	0x3e95bab1	0.29243997
117	0x3e82275b	0.2542065
118	0x3dcb6ef6	0.099332735
119	0xbcf33673	-0.02968905
120	0x3d040f19	0.03224096
121	0xbe56898f	-0.20950912
122	0xbe2952e1	-0.16535522
123	0xbe1da392	-0.15394428
124	0x3e87eaa4	0.26546204
125	0x3c6da075	0.014503588
126	0x3e0d305d	0.1378798
127	0x3cc21b4b	0.023694655
128	0xbe3aff20	-0.18261385
129	0xbd9f4c3a	-0.07778211
130	0x3e25b5c6	0.16182622
131	0x3cf9da73	0.030499673
132	0x3e11e1f6	0.14246354
133	0xbde994a1	-0.11405302
134	0x3dbbfa72	0.09178628
135	0xbdc84929	-0.09779579
136	0x3e3247fe	0.17410275
137	0x3e2fb970	0.17160583
138	0xbdd3c33f	-0.103399746
139	0x3e1b1fc7	0.15148841
140	0xbdb6e188	-0.089297354
141	0xbe3888ad	-0.18020888
142	0x3e7ac446	0.24488935
143	0x3d6d10ce	0.057877354
144	0x3ddd540d	0.10807047
145	0xbe580147	-0.21094237
146	0x3c6a0714	0.014283914
147	0xbe0ca126	-0.13733348
148	0xbcc5366e	-0.024073806
149	0xbe013eb8	-0.12621582
150	0xbdb794a2	-0.08963896
151	0x3e60de12	0.21959713
152	0xbd3ab7ba	-0.04558537
153	0xbb13335f	-0.002246104
154	0x3d8e864d	0.069592096
155	0x3dbf5ddc	0.09344074
156	0xbde22a65	-0.11043242
157	0xbd9e6fe7	-0.077361874
158	0xbd831ef8	-0.06402391
159	0xbd42eebd	-0.04759096
160	0xbdcec949	-0.10096986
161	0xbe2b9362	-0.16755441
162	0xbddc677f	-0.10761928
163	0xbdbda90b	-0.09260758
164	0x3cb4681b	0.022022298
165	0x3e59fa6b	0.21286933
166	0xbe38acf0	-0.1803472
167	0x3dadea86	0.084919974
168	0xbd81db85	-0.06340698
169	0x3c6b5791	0.014364139
170	0x3e1b8c05	0.15190132
171	0xbdd323e0	-0.10309577
172	0xbc58e6a8	-0.0132385865
173	0xbdec1915	-0.115282215
174	0xbe53d6cf	-0.20687412
175	0xbcefb9f1	-0.029263468
176	0x3dd55705	0.10416988
177	0xbde73c3f	-0.11290788
178	0x3e2404b2	0.16017416
179	0xbd99534d	-0.074865915
180	0xbe1ab5f9	-0.1510848
181	0x3da2e4a1	0.07953764
182	0x3e4141da	0.18872777
183	0x3d113b64	0.03545703
184	0xbd36a988	-0.04459527
185	0x3d352b1b	0.04423056
186	0xbd9b2332	-0.07575072
187	0xbdee2db7	-0.11629813
188	0xbe20034b	-0.15626256
189	0xbe5177dd	-0.2045588
190	0x3e0cfb55	0.1376775
191	0xbea5b7bf	-0.3236675
192	0xbe7add91	-0.24498583
193	0x3e86ae28	0.26304746
194	0xbe3588b4	-0.1772793
195	0xbea1ba4c	-0.31587446
196	0x3e2421f2	0.16028574
197	0x3d90b725	0.07066182
198	0x3e89e323	0.26931104
199	0xbe28055f	-0.16408299
200	0xbaef730d	-0.0018268541
201	0x3de28642	0.11060764
202	0xbe2d2d66	-0.1691185
203	0xbe8d5cb3	-0.27609786
204	0x3e742da4	0.23845536
205	0x3c16ac00	0.009196281
206	0xbe36b5ee	-0.17842838
207	0x3dc09386	0.09403138
208	0xbd8759d8	-0.06608933
209	0xbcf5043e	-0.02990925
210	0xbe93bb23	-0.2885371
211	0xbc5a8a80	-0.013338685
212	0x3c122aea	0.008921364
213	0x3e8e0346	0.27736872
214	0xbe2c50c0	-0.16827679
215	0xbdc39c92	-0.09551348
216	0xbe0f3ed0	-0.13988805
217	0x3e874280	0.26417923
218	0xbe1b8a93	-0.1518958
219	0x3d4bb498	0.049732774
220	0x3dce90ac	0.10086188
221	0xbd2bfc0d	-0.04198842
222	0x3ddf411d	0.10901091
223	0x3ca0f032	0.019645784
224	0x3d8bbae0	0.06822753
225	0x3b6f0b4a	0.0036475235
226	0xbd8ec949	-0.06971986
227	0xbd344331	-0.04400939
228	0x3d29602b	0.04135148
229	0xbe7300e2	-0.23730806
230	0x3d37bb45	0.04485633
231	0x3e09b3e1	0.13447525
232	0xbd5a7c15	-0.05334099
233	0x3d1182f4	0.035525277
234	0x3d2aa1d0	0.041658223
235	0x3e01c45a	0.12672558
236	0xbe75be4a	-0.23998371
237	0xbe33e079	-0.17566098
238	0x3d8b1155	0.06790415
239	0xbdae2b97	-0.08504408
240	0xbd1752b1	-0.036944095
241	0xbd9ccdc4	-0.07656434
242	0xbe67e0f3	-0.22644405
243	0xbe0868f3	-0.13321285
244	0x3dd0533f	0.10172128
245	0x3d611c0e	0.054958396
246	0xbdf114df	-0.11771559
247	0x3cf9cf5e	0.030494388
248	0x3d772228	0.06033531
249	0xbd4ac8a8	-0.049507767
250	0xbe1d997f	-0.15390585
251	0xbad4636f	-0.001620395
252	0x3d1ac948	0.037789613
253	0x3e54364a	0.20723835
254	0xbda5dd47	-0.08098846
255	0xbe05b1ea	-0.1305615

lstm_layer.bias_ih_l0 f4 [108]
0	0xbcbd610e	-0.023117568
1	0xbd068ec4	-0.032850996
2	0x3da00507	0.07813459
3	0x3c7d7f64	0.015472267
4	0x3e7d9003	0.24761967
5	0x3b12a9ba	0.0022378997
6	0xbcaf368e	-0.021388318
7	0x3b215009	0.0024614355
8	0xbd469415	-0.048481066
9	0xbc7d456c	-0.015458446
10	0xbd8ba4c9	-0.0681854
11	0xbdb0375b	-0.08604308
12	0x3d9b9f66	0.07598762
13	0x3bdf6c02	0.0068182955
14	0x3ddc65c8	0.10761601
15	0xbb982609	-0.004643206
16	0x3d58de39	0.052946303
17	0x3e595f18	0.21227682
18	0x3c93575b	0.01798599
19	0x3ded4d31	0.11586989
20	0xbd1a98e4	-0.037743464
21	0x3e059a57	0.13047157
22	0x3e729a79	0.23691739
23	0xbd5a1414	-0.053241804
24	0xbd32e687	-0.04367688
25	0x3e721c03	0.23643498
26	0x3cd3100e	0.025764491
27	0x3e376c46	0.17912397
28	0xbdbd9dbf	-0.09258603
29	0xbe187cfe	-0.1489143
30	0x3e562037	0.20910726
31	0x3e4aff27	0.19823895
32	0xbdd62e48	-0.10458046
33	0xbe5723eb	-0.21009795
34	0x3e892f37	0.26793835
35	0x3e2d1223	0.1690145
36	0xbd4569f0	-0.048196733
37	0xbdf969e7	-0.121784024
38	0xbd75e315	-0.060031015
39	0x3e276cfc	0.16350168
40	0xbe737104	-0.23773581
41	0x3dd6d52b	0.10489877
42	0x3e5b45b9	0.21413316
43	0x3e03ea8d	0.12882443
44	0x3dbae352	0.09125389
45	0x3ddbbdb4	0.107295424
46	0xbdc52f26	-0.096281335
47	0x3d42d6c5	0.0475681
48	0x3e0df2c5	0.1386214
49	0x3e5096ab	0.20369975
50	0x3e1b6764	0.15176159
51	0x3d6fc501	0.058537487
52	0xbce3943f	-0.02778065
53	0x3e0c793b	0.13718121
54	0xbca07cc0	-0.019590735
55	0x3e1e9ecf	0.15490268
56	0xbe097941	-0.13425161
57	0xbe3886a7	-0.18020116
58	0x3e223a30	0.1584251
59	0x3d0b2faf	0.03398102
60	0xbda8af52	-0.08236565
61	0x3d55b667	0.052175906
62	0xbe3c9db6	-0.18419537
63	0x3e211ce3	0.15733676
64	0xbdc863bc	-0.09784648
65	0x3da68826	0.08131437
66	0xbd322026	-0.04348769
67	0xbcc25d57	-0.023726149
68	0xbc1aaedf	-0.009441107
69	0xbd31b146	-0.04338195
70	0xbb6cf27c	-0.0036155274
71	0x3d9d4a43	0.0768018
72	0x3d5eb4af	0.054371532
73	0x3df1b9bc	0.11803004
74	0xbe1d17d8	-0.15341127
75	0xbe2b7a05	-0.16745766
76	0xbd3b7cf7	-0.045773473
77	0xbdcd2dc5	-0.100184955
78	0x3ccb7494	0.024835862
79	0xbdd5d5f1	-0.10441197
80	0xbe039976	-0.1285151
81	0xbc87abfe	-0.016561504
82	0xbe0014be	-0.12507913
83	0x3d18a955	0.037270863
84	0xbdfd7083	-0.123749755
85	0xbca5e0ca	-0.02024879
86	0x3df3619f	0.11883854
87	0xbdf24604	-0.11829761
88	0x3eaeaf16	0.34117955
89	0xbccfc818	-0.025363967
90	0xbe186a41	-0.14884283
91	0x3de84a69	0.113423176
92	0x3e01a046	0.12658796
93	0x3debdc84	0.115166694
94	0xbc39ff34	-0.011352349
95	0x3debab48	0.11507279
96	0xbdf75ee0	-0.12078643
97	0x3e80bb89	0.25143078
98	0xbdef65aa	-0.11689313
99	0xbb3d00ff	-0.0028839705
100	0x3d218bba	0.039439894
101	0x3e1f7af9	0.15574254
102	0xbdefbb00	-0.11705589
103	0x3d91580a	0.0709687
104	0x3e11e5b8	0.14247787
105	0xbd0fe856	-0.035133682
106	0xbd5981c3	-0.053102266
107	0x3db5b9d4	0.088733345

lstm_layer.bias_hh_l0 f4 [108]
0	0xbda6eebd	-0.081510045
1	0xbbdc032c	-0.0067142453
2	0x3d1c04a9	0.03809038
3	0xbd023a42	-0.03179384
4	0x3c6a84ea	0.014313916
5	0xbdf6c8bf	-0.12050008
6	0xbc49d18e	-0.012318028
7	0x3e6828f9	0.2267188
8	0xbd3d705f	-0.046249744
9	0xbe2c46df	-0.1682391
10	0xbe1ed87f	-0.15512274
11	0x3ddd7c91	0.10814775
12	0x3bb33f53	0.0054701953
13	0xbc9ab309	-0.018884199
14	0xbd2c9c98	-0.042141527
15	0xbde9c6d7	-0.11414879
16	0x3e2b73f6	0.16743454
17	0x3d745ae1	0.05965698
18	0xbd04e8d2	-0.032448597
19	0xbd4ce35e	-0.05002152
20	0x3bc4847f	0.00599724
21	0x3e08bc25	0.13353021
22	0x3a49dddf	0.0007700603
23	0x3cbddf96	0.023177903
24	0xbe143267	-0.14472352
25	0x3e75aac5	0.23990925
26	0xbdef2fab	-0.11679014
27	0x3e173eae	0.14770004
28	0xbddb57b1	-0.10710085
29	0xbe1a0133	-0.1503952
30	0xbc6c47be	-0.014421402
31	0x3b2e2104	0.0026569972
32	0x3da480f2	0.08032407
33	0xbe5fd127	-0.21857129
34	0x3e7d2ccc	0.2472412
35	0x3e35664d	0.17714806
36	0x3d4cb5a2	0.049977906
37	0xbe376437	-0.17909323
38	0x3e03ca61	0.1287017
39	0x3e346c18	0.1761936
40	0x3c1d81f3	0.009613502
41	0x3e2fdab9	0.1717328
42	0x3cf5003b	0.029907336
43	0x3ed2c066	0.41162413
44	0xbd2ee028	-0.04269424
45	0xbd0b2e2e	-0.033979587
46	0xbd16dc68	-0.03683129
47	0x3e0fda8b	0.14048211
48	0xbdcf093b	-0.101091824
49	0x3e20b9e6	0.15695915
50	0x3db3ee8f	0.08785736
51	0x3d83decb	0.06438979
52	0x3dc77840	0.09739733
53	0x3df30769	0.11866648
54	0xbe0254da	-0.12727681
55	0x3cd086b3	0.025454855
56	0xbdea497e	-0.11439799
57	0x3d1ced52	0.038312264
58	0xbca2670a	-0.019824523
59	0xbe0e5caf	-0.13902543
60	0xbe282bca	-0.16422954
61	0xbe0cad01	-0.13737871
62	0x3daa7991	0.08323968
63	0x3dc8e8b1	0.09810007
64	0x3c8f0473	0.017458176
65	0xbd07d06e	-0.03315776
66	0x3e22a753	0.15884142
67	0xbdc2b9a0	-0.095080614
68	0xbdeefc19	-0.116691776
69	0x3e0a32a3	0.13495879
70	0xbdd19e6a	-0.10235293
71	0xbcee296f	-0.029072491
72	0xbc079278	-0.008274667
73	0xbe3221e1	-0.17395736
74	0x3d041f4c	0.03225641
75	0x3cf2e259	0.029648947
76	0x3db5cbe5	0.088767804
77	0xbe10b91f	-0.14133118
78	0x3e294055	0.16528447
79	0xbd8eb645	-0.06968359
80	0x3d044c9b	0.03229962
81	0x3e09beaf	0.13451646
82	0xbe1f3171	-0.15546204
83	0x3da25854	0.079270035
84	0x3d219b6f	0.039454874
85	0x3e06bda4	0.1315828
86	0x3e7a2ac1	0.24430372
87	0xbdf176ce	-0.11790238
88	0x3e8a9d02	0.27072912
89	0xbd1b0956	-0.0378507
90	0xbe04b913	-0.12961225
91	0x3e1f0893	0.15530615
92	0x3e2d42f2	0.16920069
93	0xbe0e0f53	-0.13873033
94	0x3cabeb2e	0.020986166
95	0x3e73bac0	0.23801708
96	0xbc0e4ad9	-0.008684837
97	0x3dc890fd	0.09793279
98	0x3dd794e6	0.10526447
99	0x3e1049d8	0.14090669
100	0xbdd43e9f	-0.103635065
101	0xbdafa71e	-0.08576797
102	0xbe0560c2	-0.13025191
103	0x3e36212b	0.1778609
104	0xbe4aff9d	-0.19824071
105	0xbe21cd1c	-0.158009
106	0xbd81ee00	-0.06344223
107	0xbac7b6eb	-0.0015237009

output_layer.weight f4 [1, 27]
0	0xbe4f042f	-0.2021644
1	0xbdd5309c	-0.10409662
2	0x3dfab336	0.12241213
3	0xbdf08d93	-0.11745753
4	0x3e82f646	0.25578517
5	0xbdf3152a	-0.11869271
6	0xbb0e6b40	-0.0021731406
7	0x3e57dd9e	0.21080634
8	0x3e911e77	0.28343555
9	0xbdcf97af	-0.10136353
10	0xbc05ebef	-0.008173927
11	0xbd9d1f23	-0.076719545
12	0xbe0b30ad	-0.13592787
13	0x3c77a4ae	0.015114946
14	0xbe890499	-0.2676132
15	0xbdbcc552	-0.09217323
16	0x3e17b18a	0.1481382
17	0xbe6abfc5	-0.22924717
18	0xbd23cc36	-0.039989673
19	0xbd5092e8	-0.05092135
20	0x3d8087c5	0.06275896
21	0xbd56ba44	-0.05242373
22	0x3e667722	0.22506383
23	0x3d3963c7	0.04526117
24	0x3d44ccad	0.048046757
25	0xbe321eb5	-0.17394526
26	0xbe600ce8	-0.21879923
