models/base_model/model.pth (torch, 28093 bytes, 5 tensors)

lstm_layer.weight_ih_l0 f4 [152, 1]
000000 75 48 ff 3d 52 aa 8c 3d 19 0e 85 3d 99 21 ba bd
       0.12464992 0.068684235 0.064968295 -0.090884395
000010 fb 61 5b 3e 0c 2e 5b bd 9f fc 6f 3e 4d 6c 10 3d
       0.21424095 -0.05351071 0.23436211 0.035259534
000020 bb e7 d3 bd 82 90 8e 3c 4a 91 b0 bb ca 25 84 bd
       -0.103469335 0.017402891 -0.0053884136 -0.0645252
000030 76 db 24 3e 0a f3 3d 3d 48 5d d5 3d 23 fa 9d 3d
       0.16099343 0.04637436 0.104181826 0.077137254
000040 f1 bf 03 3e 1f db af 3d db 59 50 bd b0 b4 2c 3b
       0.12866189 0.08586716 -0.050866943 0.0026352815
000050 75 4e 9b bc ae 88 83 3d ac d9 51 39 c7 31 dd 3d
       -0.01895831 0.06422554 0.00020012882 0.1080051
000060 05 8a c5 bd f4 06 ad 3c 74 33 d5 3d 15 0e df 3c
       -0.09645466 0.02112148 0.104102045 0.027228395
000070 04 da ef bd 20 de 18 3e 61 2c ff 3d 92 63 b4 3d
       -0.11711505 0.14928484 0.124596365 0.08808054
000080 53 1f 85 3e 65 2e 6b 3e 70 61 0f bb 5b 6c 7c bd
       0.2600046 0.22966917 -0.0021878146 -0.061626773
000090 73 04 05 3e 45 ca 57 3c 72 ab da 3d 9c 79 6e 3d
       0.12989978 0.013170783 0.10677232 0.058221444
0000a0 a5 7a 82 3e 55 82 6b 3d bc 63 77 3d bb f2 13 be
       0.25484195 0.05749734 0.06039785 -0.14448063
0000b0 e6 ed a1 3c 61 76 63 bb a5 33 dd 3d 36 4c 99 3d
       0.01976676 -0.003470801 0.10800866 0.07485239
0000c0 87 7e b0 bd be 11 3a 3e 52 04 63 3e 0b a0 4a 3d
       -0.08617883 0.1817083 0.22169617 0.049469035
0000d0 01 d7 0c be 36 bb 2c 3e b5 aa 05 3e 8e 67 ec 3d
       -0.13753892 0.1686829 0.13053401 0.11543189
0000e0 cd bd 6e 3e e4 ab 2b 3e b7 32 dc 3d b2 68 73 3e
       0.23314591 0.1676479 0.107518606 0.23770407
0000f0 1d fb 34 3e c8 5a 2d 3e 4e a8 03 3d 0a b8 ad bc
       0.17673917 0.16929162 0.03214293 -0.02120592
000100 f0 4d d6 3c d0 06 b1 3d f3 66 11 bd a8 e1 1f be
       0.02616021 0.086438775 -0.03549857 -0.15613425
000110 40 0a c8 3d 35 19 6b 3e 0c e8 ee 3d 6e 80 8a 3e
       0.0976758 0.22958834 0.11665353 0.2705111
000120 5e 8a 38 3c 04 07 3b be 65 92 ef bd d3 01 73 3e
       0.011263458 -0.18264395 -0.116978444 0.23731165
000130 6a 44 00 be 1a 54 86 bc 09 55 5a 3e d0 a7 1c 3d
       -0.12526098 -0.016397525 0.21321501 0.038245976
000140 2e 45 89 3e f6 09 03 be 36 69 78 be 47 ef 28 3e
       0.26810592 -0.12796769 -0.24258885 0.16497527
000150 2a bc 02 bd e0 2c 06 3e 56 a4 38 be 78 fa 80 bd
       -0.03191773 0.13103056 -0.18031439 -0.06297773
000160 e0 80 3b bc bd b0 eb bb fc 26 66 bd 2a 03 3e 3e
       -0.0114443 -0.0071926997 -0.056189522 0.18555894
000170 f7 f4 13 3e 82 62 88 3e 47 23 cd 3d eb 43 1b be
       0.14448915 0.26637655 0.10016494 -0.15162627
000180 15 5c 76 3e d0 2e f6 bc 41 62 59 be 30 60 67 3e
       0.24058564 -0.030051619 -0.21228887 0.22595286
000190 1e f0 c5 bd 37 bf 10 3d 89 d1 08 bd 37 bc 44 3e
       -0.09664939 0.035338607 -0.033402953 0.19212423
0001a0 c8 5e 0f 3d a1 c7 cf 3d 68 d3 32 be a7 64 63 bd
       0.0350025 0.10145498 -0.17463458 -0.05551591
0001b0 80 1f f2 bd 7d 8a 85 3e 83 5e 5f 3e 5e fd b2 bc
       -0.118224144 0.2608222 0.21813397 -0.02184933
0001c0 06 76 8d bc bf 4f a6 bd 01 d0 4a 3d 44 0a d8 3d
       -0.017268192 -0.08120679 0.049514774 0.10548833
0001d0 55 f7 49 3e d8 f9 aa 3d 70 0f 48 3d 32 59 e0 bd
       0.19723256 0.08348435 0.048842847 -0.10954513
0001e0 90 95 b6 3d b6 91 55 3d 28 fb e3 3d 59 72 24 3e
       0.089152455 0.052140914 0.11131889 0.16059245
0001f0 5a e4 19 3e c2 3b 1b 3e 35 26 46 3e c8 4d 67 bd
       0.15028515 0.15159515 0.19350512 -0.056470662
000200 a7 ce 4e bd 14 38 a8 bc 42 27 22 3e 14 fe c7 3c
       -0.050490048 -0.020534553 0.15835288 0.024413146
000210 27 82 83 3e c7 af 4f 3e 8d 7a 3f 3e 02 51 72 3e
       0.25685236 0.20281897 0.18699093 0.23663715
000220 3b 86 5c bc 38 5a f4 3d 75 7e c6 3d 2b 22 cc 3d
       -0.013459737 0.1193127 0.096920885 0.099674545
000230 2a 6a bb bd 42 c2 2d 3e 93 e1 c5 3d f8 46 84 3d
       -0.091511086 0.16968635 0.096621655 0.06458849
000240 27 9d 64 3e 3b 62 7f 3e 52 66 01 bd a7 f1 fe 3c
       0.22325574 0.24939816 -0.03159172 0.031121088
000250 21 51 b8 3c 23 c9 85 bd 63 ac aa 3d 05 bb 29 3e
       0.022499623 -0.065325044 0.083336614 0.16575249

lstm_layer.weight_hh_l0 f4 [152, 38]
000000 db 25 84 bb f3 98 81 3c 37 6f a0 3d 63 19 d3 3d
       -0.004032833 0.015820002 0.078337125 0.103075765
000010 b9 8b 85 3e a6 fa 3e be 7f fe 20 be c1 01 e0 3d
       0.26083162 -0.18650302 -0.15722083 0.109378345
000020 93 08 3e be bc f1 02 3e b8 3d b9 bd 35 70 35 3e
       -0.18557958 0.12787527 -0.09044975 0.17718585
000030 32 d1 af bc 0c 36 13 bd 96 92 f9 bd 7b 17 84 3e
       -0.021462057 -0.035940215 -0.12186162 0.25799164
000040 4c fa 0a bd 04 62 21 3e 10 b0 65 3e 1a ee 4b be
       -0.033930108 0.15760046 0.22430444 -0.19915047
000050 19 e7 73 3c 9a 68 b7 bc 27 b6 37 bd 97 6a 3e bd
       0.014886641 -0.022388745 -0.04485145 -0.04648837
000060 b9 d7 d0 bd 7d 7e 95 bd 1d 70 1f 3d e3 3a 6c 3e
       -0.10197396 -0.07299516 0.03892528 0.23069339
000070 79 b7 49 3e d9 3a 50 3e 91 49 af bd 2d b6 48 be
       0.19698896 0.20334949 -0.085589536 -0.19600745
000080 79 7f 02 be b4 da 81 3e 16 ae 24 3e 6a 36 11 bd
       -0.1274394 0.2536217 0.16082034 -0.035452284
000090 6f 5c 92 3d 38 dd 15 be fa ce cd bd fd f9 fc 3d
       0.071465366 -0.1463517 -0.10049243 0.12352369
0000a0 64 a4 ee bc b4 71 18 3e b1 2e 82 3e 34 2c b2 3d
       -0.029131122 0.14887124 0.25426248 0.08699837
0000b0 ac 35 21 3e 8e 21 71 3d d7 1d 29 bc 94 d1 58 bd
       0.1574313 0.05886989 -0.010322056 -0.052934244
0000c0 20 d5 23 be 21 22 6d bd b7 e4 fc bd 4c c0 f1 3d
       -0.1599927 -0.057893876 -0.123483114 0.11804256
0000d0 cc 60 d3 bc 6d 2e b3 3d c1 ad 21 3e 87 a7 64 3e
       -0.025802992 0.087490894 0.15788938 0.22329532
0000e0 1d 33 ec 3d 60 04 91 3d 2d d2 27 3e 2d f8 1d be
       0.115331866 0.070809126 0.1638877 -0.15426703
0000f0 78 84 9d 3c e5 d2 81 bc eb bf 58 bd 8c 26 b6 3c
       0.019228205 -0.015847633 -0.052917402 0.022235177
000100 3d e9 8d 3d c5 81 c5 3c 37 54 e1 3d de 0e ff 3b
       0.06929252 0.02410973 0.11002391 0.0077837547
000110 a8 7c 06 be 94 8e 33 be a2 4f 2f be 9e 8b 97 3e
       -0.1313349 -0.17534858 -0.17120221 0.29598707
000120 ef 61 e8 3d ac f3 12 be e6 3f 7e 3d 8f d5 08 bd
       0.11346804 -0.14350766 0.062072657 -0.03340679
000130 81 95 70 bd 95 9b 9e bd ce 53 0e 3d c3 85 7a bc
       -0.058736328 -0.07744519 0.03474789 -0.01529068
000140 96 af 33 3e f1 d6 8c 3b 32 54 a9 3a e4 69 69 3e
       0.1754745 0.004298084 0.0012918769 0.227943
000150 d6 aa 18 be 39 49 bb bc 31 b5 f1 bd 78 4a b1 3c
       -0.14908919 -0.022862064 -0.11802138 0.021641955
000160 a5 06 94 3d f4 eb 2c bd 49 f3 19 3e 46 10 0c 3e
       0.0722783 -0.04221721 0.15034212 0.13678083
000170 fd 5f 84 3d 48 63 d1 3d f0 65 65 3e a6 b9 f4 bd
       0.06463621 0.102240145 0.22402167 -0.11949472
000180 fe 57 76 3d f8 39 65 3e a1 f4 c7 bd 49 41 1e 3e
       0.06014251 0.22385395 -0.09763456 0.15454592
000190 b7 d0 46 3e ad 20 18 3e 07 e7 27 3e a8 eb 88 3e
       0.19415556 0.14856215 0.16396724 0.2674229
0001a0 5e 21 1c 3e 4e 2d 3a 3d ad d9 80 be bf a2 83 3c
       0.15247104 0.045453362 -0.25166073 0.016068814
0001b0 45 79 cb bd 17 94 db 3d 8c de 1d 3e 40 76 c3 bd
       -0.0993524 0.10721605 0.15416926 -0.09544039
0001c0 fc b7 52 bc 55 fc c8 bd fb 25 b3 3d 91 15 f9 3d
       -0.012861248 -0.098137535 0.087474786 0.121623166
0001d0 0c fb f7 3d 55 de 5b 3c d2 76 2b 3c 51 b1 0a 3d
       0.1210843 0.013419707 0.010465341 0.03386051
0001e0 f5 dd 18 be af 9a e3 3c aa 6f 71 bd 65 2b 0d bc
       -0.1492842 0.02778372 -0.05894438 -0.008616303
0001f0 c7 73 88 3d 50 36 60 bd 7d 15 1f 3d 01 38 1d 3e
       0.06662708 -0.054739296 0.038838852 0.15353395
000200 e2 55 ca bd 31 92 d0 3c 52 af 2f 3e 18 2d 1c 3d
       -0.09879662 0.025460334 0.17156723 0.038128942
000210 d5 6c aa 3c 1c 1e 8c bd fc 07 67 3c aa e3 3e bb
       0.020803848 -0.068416804 0.014101025 -0.0029127398
000220 22 b4 d7 bd e9 e0 d6 3d 3d 0e 48 3d f2 79 11 3e
       -0.105324045 0.10492117 0.048841704 0.14206675
000230 de 37 1a be ac 8a 6f 3d 9e da 91 3c 21 a6 f8 bd
       -0.15060374 0.058481857 0.01780444 -0.121410616
000240 2a 45 37 be 5f 6e be 3d ce 4d f7 bd 59 d4 21 3e
       -0.17897478 0.09298395 -0.12075387 0.1580366
000250 99 0d 6b bd 01 18 bb 3d 4e 12 e6 bd 13 f3 19 bd
       -0.057386015 0.09135438 -0.1123396 -0.03758533
000260 9f a6 73 bd 37 56 b3 3d 93 c1 17 3e 5d 2c 01 be
       -0.059485074 0.087566786 0.14819936 -0.1261458
000270 fa c4 ad 3d e0 1e cb bd 5c f5 2a be fe 8f 83 3e
       0.08484836 -0.09917998 -0.1669516 0.25695795
000280 70 83 e1 3d aa a9 39 3e 5d 9e 22 3d c0 37 75 3e
       0.11011398 0.18131128 0.03970181 0.23947048
000290 02 ae 39 3d 28 a3 7c 3e 19 18 43 3c 19 d0 d4 3d
       0.045331962 0.24671614 0.011907601 0.10391254
0002a0 98 3f 6f 3e a5 27 80 3e dd d8 37 3d 48 32 98 be
       0.23364103 0.25030246 0.04488455 -0.29725862
0002b0 2a c0 a1 3d 2a c8 8c 3e 9c 44 11 be 27 cc 46 3e
       0.078979805 0.27496463 -0.14186329 0.19413815
0002c0 bf f5 8d 3c 9f 01 6f 3c d5 f4 68 3e 24 49 40 3e
       0.017329095 0.014587789 0.22749646 0.18777901
0002d0 c3 5d 8d 3c f6 33 29 bb b3 4f 46 bc 0e 51 ad bd
       0.017256623 -0.0025818325 -0.012103963 -0.084627256
0002e0 fe 92 98 bd c2 67 ce bc ac 30 bf 3d 16 b3 89 3e
       -0.074499115 -0.02519596 0.09335455 0.26894444
0002f0 05 36 a3 bd bb 80 23 bc 0b a9 c7 bc 3c 32 2d 3e
       -0.07969288 -0.009979422 -0.024372598 0.16913694
000300 ab b3 52 3e 11 94 04 3d 1f 30 0e 3e 73 e1 f7 3d
       0.2057635 0.03236777 0.13885544 0.12103548
000310 61 2c 43 bd a6 fb 3e 3e 3c 79 c0 3d e1 f0 e0 3d
       -0.047649745 0.18650684 0.093981236 0.10983444
000320 ed 21 79 3d 57 31 c8 3d 06 f3 cb 3c c5 da 25 3e
       0.06082337 0.09775036 0.024896156 0.16196735
000330 c5 30 dd bd 5e a2 64 3e 73 f3 c8 3d 22 4b 3e 3e
       -0.10800318 0.22327563 0.09812059 0.18583348
000340 78 57 f5 3d 73 75 c0 3d 79 eb 00 3d ca 6f 42 3e
       0.11979574 0.09397402 0.031474564 0.18987957
000350 d7 24 ce b9 06 fb 6d ba 80 b1 e2 bd a5 ef 21 3c
       -0.0003931883 -0.0009078238 -0.11069012 0.009883796
000360 ce 8f 12 bd c7 f2 28 3e cd e9 1a 3e 77 2b 23 bd
       -0.035781674 0.16498862 0.1512825 -0.039836373
000370 6a c0 ae 3d 73 5c 93 be 25 e2 3d be 50 85 53 3e
       0.08532794 -0.2878147 -0.18543299 0.20656323
000380 f9 1e 3e bd 12 90 a5 3d ab ff f7 bd e4 84 93 3d
       -0.046416257 0.0808412 -0.12109312 0.07203081
000390 b2 a1 17 3d 33 23 d2 bd 93 f6 06 3d b0 a1 07 bd
       0.03701944 -0.1026062 0.032949995 -0.03311318
0003a0 0d 94 8c 3e fd 4c 15 be ac 68 de bd c9 28 3d bd
       0.27456704 -0.1458015 -0.10859808 -0.046181474
0003b0 c0 74 a1 bb ea 4a 83 3c 53 2e c3 bd 62 4b f2 3d
       -0.0049272478 0.016026933 -0.0953032 0.118307844
0003c0 93 c4 b9 3b e7 1d 9f bd d8 f2 b0 bd c7 11 0e 3d
       0.0056691854 -0.07769375 -0.08640069 0.034684923
0003d0 15 3e 3f 3e a2 5f 71 3c a7 b2 25 3e fe 88 ed bd
       0.18676026 0.014732273 0.16181432 -0.11598395
0003e0 b4 f3 32 3e 91 3e 24 3d 6c ef 14 be 55 df 3c 3e
       0.17475778 0.04009873 -0.14544457 0.1844457
0003f0 a1 57 df 3d c8 aa b0 3c e4 9b 16 bd 9f 63 72 bd
       0.10905386 0.02156581 -0.036769763 -0.059177037

lstm_layer.bias_ih_l0 f4 [152]
000000 04 1b c7 3d ab 25 a0 bd 0d 64 1d 3e b7 77 df bd
       0.0972195 -0.078196846 0.15370198 -0.10911506
000010 6c 57 22 3d 6b bc 7d bd 8c a9 36 3d 97 d2 f7 bb
       0.039634153 -0.061947268 0.044595286 -0.007562946
000020 36 c8 bb 3d d5 df e5 3d 2d e4 b2 3d f8 25 24 bd
       0.091690466 0.11224333 0.08734927 -0.040075272
000030 51 50 4d 3d 90 ed 08 3d 89 d6 91 3d d4 d3 aa 3d
       0.050125424 0.033429682 0.071209975 0.08341184
000040 2a c1 00 3b 5d 1c 60 3e 11 fc 3a bd e1 e7 d0 3d
       0.0019646385 0.2188582 -0.045650546 0.102004774
000050 db 46 20 3e da 8b fc 3d 02 d2 59 bd 02 34 1a 3d
       0.15652029 0.12331362 -0.053178795 0.037647255
000060 da 24 c2 3d 29 ff ec 3d 6f 68 b7 bd b1 bd 70 bd
       0.09479685 0.115721054 -0.08955466 -0.058774654
000070 67 c7 2b be 8b ba 21 be 33 cc eb bc b3 da 33 3b
       -0.16775285 -0.15793817 -0.028783893 0.0027443587
000080 60 ff 31 3e d2 41 38 3e a4 78 1d 3e 20 2f 3c bc
       0.17382574 0.17993858 0.15378052 -0.011485845
000090 31 75 28 be 2b 50 dd 3d ef 93 a1 bd 6b dd 82 bd
       -0.16450955 0.108063065 -0.07889544 -0.063898884
0000a0 69 ef 06 3c f1 f6 08 3c aa 4c 1b 3e e2 0d 11 3e
       0.008235791 0.008359657 0.15165964 0.14165452
0000b0 62 d3 00 3c 3e a4 f5 bc e3 a6 b6 3d ed e4 a4 bc
       0.007862898 -0.029985543 0.0891855 -0.020128692
0000c0 d7 e5 4f bc a2 da 70 bd 67 be 3b 3d ca cf f3 3d
       -0.012689075 -0.058802254 0.04583588 0.11904867
0000d0 75 02 64 3d f3 78 5f 3e cb 6b 27 3e 93 1c 8e 3e
       0.055666406 0.21823482 0.16349714 0.27756175
0000e0 84 44 30 bd 12 21 cb 3c aa 55 2b bc 48 63 1b bd
       -0.04303409 0.024796043 -0.010457436 -0.03793648
0000f0 b4 2c 9a 3d 61 6a 81 3d 02 18 ec bd 6e 2b 8e bd
       0.07528058 0.06319118 -0.115280166 -0.06941877
000100 bf 23 1f be b4 95 bb bd 78 e7 9c 3d 7e f9 c9 3d
       -0.1554098 -0.09159413 0.07661337 0.0986204
000110 7a da 6a bd 20 81 3d 3c 0d 91 5a 3e 00 eb 92 3e
       -0.05733726 0.01156643 0.21344395 0.28694916
000120 b2 c3 76 3d 1f af 9a bd d6 18 99 bc ac 01 e3 3d
       0.060245223 -0.07552933 -0.0186886 0.11084303
000130 5e 7c b7 bc eb f5 a0 bd 00 3e ae bd cc 85 cd bd
       -0.02239817 -0.07859405 -0.08507919 -0.10035285
000140 1f e2 c9 bd c3 1c 56 3d 5f 40 32 be 2d 48 56 bd
       -0.09857582 0.052273523 -0.17407368 -0.052314926
000150 bd a8 50 3b 37 eb 17 3e dd 6e 91 3d 9c 66 3e 3e
       0.0031838857 0.14835821 0.071012236 0.1859383
000160 23 36 29 3e 3f 33 22 3e d7 ff f2 3d b3 3c fc 3c
       0.16524558 0.15839861 0.11865204 0.030790662
000170 04 a0 06 3c 98 cf a3 bd 00 5b 05 bb e6 f0 3b be
       0.008216862 -0.0799858 -0.002034843 -0.18353614
000180 cc 59 06 3d 38 35 ac 3d 0b ed 1f be 34 f7 f4 3b
       0.03280048 0.08408588 -0.15617768 0.007475758
000190 34 71 db 3d b1 8a f7 bd 93 65 95 3d 80 4d 2d 3d
       0.10714951 -0.12087 0.07294764 0.042310238
0001a0 ed bc a6 3d 6b 15 1a 3d 6b 0d f1 3c 70 2f 1f 3c
       0.081415035 0.037618082 0.029425343 0.0097159
0001b0 ad 38 e9 bc bf 86 1a be f6 c9 33 3e 0c 68 b2 3d
       -0.028469408 -0.15090464 0.1755751 0.087112516
0001c0 42 ea 89 bc 2c 07 fa bd a6 c8 5d 3e aa 81 4f bc
       -0.016835336 -0.12208399 0.21658573 -0.012665192
0001d0 6e 73 a8 3d 88 ae 58 bd 19 71 6d 3d bf f2 36 3e
       0.082251415 -0.05290082 0.057969186 0.17866038
0001e0 09 57 d2 3d dc b9 6e 3d 20 29 0b be 47 07 ed bb
       0.10270507 0.058282718 -0.13589907 -0.0072335335
0001f0 55 aa d2 bb 64 6a 94 3d df a2 1d 3e 40 e0 06 be
       -0.0064289966 0.07246855 0.15394162 -0.13171482
000200 20 74 05 3d a3 8f 66 3e 12 79 e0 3c 2f 30 97 3d
       0.03258145 0.2251573 0.02740148 0.07382237
000210 88 b3 19 3d 0b b0 4b 3c c6 d9 69 bc dc f5 ad 3d
       0.03752473 0.012432109 -0.014273113 0.084941596
000220 97 53 48 3d 12 c8 04 ba 00 f1 e9 3d 61 05 20 bd
       0.048907842 -0.0005065213 0.1142292 -0.03906763
000230 d5 80 f2 bd 1d 03 5c 3d 4c d6 8f ba 84 7b 9a bc
       -0.11840979 0.053713907 -0.00109739 -0.018857725
000240 61 e3 a0 bd 3a 5d 8c 3d 75 83 1f 3e f0 13 64 3e
       -0.07855869 0.06853719 0.1557749 0.2227323
000250 2a 68 e5 3d 55 50 8a 3d f3 b8 3c be 53 df cb 3c
       0.11201508 0.06753603 -0.18429928 0.024886763

lstm_layer.bias_hh_l0 f4 [152]
000000 3d 06 38 3e 29 8b cf 3d 70 7f fc 3d 39 17 ac 3d
       0.1797113 0.101339646 0.12328994 0.08402867
000010 16 36 8d 3e c5 e8 13 3d bf 02 29 3b 98 28 cd 3c
       0.27580327 0.03611066 0.002578899 0.02504377
000020 ff ba fd bd 43 28 a6 bd 11 ac 83 3d 2a 24 29 bc
       -0.12389182 -0.08113148 0.064293034 -0.010323564
000030 02 79 91 3d 65 82 0b bc 6e b0 0a 3e 2f 97 43 3e
       0.071031585 -0.008514975 0.13543865 0.1910064
000040 cf 87 63 3e 07 f6 8b bb 82 43 05 3e e8 d2 20 bd
       0.22219776 -0.004271272 0.13014033 -0.039263636
000050 b1 a7 f5 3d 18 67 d1 3d 15 ec ab 3d 3b b3 00 bc
       0.11994875 0.10224742 0.083946384 -0.007855232
000060 a0 97 bb 3c f7 5f f4 bd 0a 82 26 be 87 44 a0 bd
       0.022899449 -0.11932366 -0.16260543 -0.078255706
000070 fa d0 da bd 95 5e eb bd 74 ee 14 3e fd 8c 80 bd
       -0.1068439 -0.114926495 0.14544088 -0.062768914
000080 f5 20 fa bc 26 6d 7c 3e 04 ea bc 3d bf 14 f0 3c
       -0.030533293 0.24651012 0.092243224 0.029306768
000090 f9 aa b7 ba 95 0e 70 bd 35 6e 1b 3e 1c 12 73 3d
       -0.0014012746 -0.058607657 0.1517876 0.059343442
0000a0 49 0e 06 3e 4f 13 25 3b 33 64 43 3e d6 89 3c 3d
       0.13091387 0.002518851 0.19081192 0.046029888
0000b0 c5 ba 69 3d 9b a6 2e 3e 91 75 bc bd 09 37 bf 3d
       0.057062883 0.17055742 -0.092021115 0.09336669
0000c0 a4 5d 27 be 40 73 7c bd ec 29 ad 3b 2e bb ed bd
       -0.16344315 -0.06163335 0.0052845385 -0.11607967
0000d0 09 c4 ef bd 31 b7 bd 3d 3b e7 b7 3d 5f df a9 3d
       -0.117073126 0.092634566 0.089796506 0.08294558
0000e0 c1 f1 dd bd d1 22 a9 bd a4 0b c3 bd 2b 8e 25 3e
       -0.108371265 -0.08258594 -0.09523705 0.16167514
0000f0 da 12 8c bd c0 58 f9 3d e8 e2 52 bc ef c6 13 be
       -0.06839533 0.12175131 -0.0128714815 -0.14431356
000100 6d 1d 22 be 12 d6 ba bd 03 7a 08 be b2 90 db 3d
       -0.15831538 -0.09122862 -0.13327794 0.10720958
000110 af fa 35 3e b2 c3 bb 3d d2 14 59 3e 6b 5c 3e 3e
       0.1777141 0.09168185 0.21199349 0.18589942
000120 80 e6 54 3c 81 71 1d be 0f 03 f5 bd 22 b7 b1 3c
       0.012994409 -0.1537533 -0.11963474 0.02169377
000130 df fb e0 bb 6d 3a 11 3e 7e 9a eb 3a dc bc 1f bd
       -0.006865963 0.14182444 0.0017975119 -0.03899847
000140 ca fe a4 bc bf ee b0 3d 45 74 2a be d1 de ce 3d
       -0.020141024 0.08639287 -0.16645916 0.101010926
000150 3b 04 84 bc 3c 6d 45 3c ea 3f 20 bd a1 be 28 bd
       -0.016115298 0.012049969 -0.039123453 -0.041197423
000160 6c 06 21 3e 4a e8 b6 bd 6b 9d 07 3e 78 79 b4 bd
       0.15725106 -0.089310244 0.13243644 -0.08812231
000170 4b bf 09 3e 3e bc 80 bc 1d 06 38 3d 58 dd 59 3d
       0.13451879 -0.01571476 0.044927705 0.053189605
000180 f7 5e 0b 3e a2 46 06 3e df 0e 8b 3d 35 3b bb 3d
       0.13610445 0.13112882 0.06789946 0.09142152
000190 67 3c 52 3d df 46 29 3e f7 8e 09 3e d8 d2 20 3e
       0.051327135 0.16530941 0.13433443 0.1570543
0001a0 f8 df 83 bc e0 8f f4 ba 1f 3d 97 bd 19 ee c1 bd
       -0.016098008 -0.0018658601 -0.07384705 -0.09469242
0001b0 b4 bf 7b bd b6 22 9f 3b 2d 65 13 3d b7 1e c9 3d
       -0.06146212 0.004856433 0.03598516 0.098203115
0001c0 f4 6d 92 bd fe b9 88 3d 69 0b c6 bd 15 37 0b 3e
       -0.07149878 0.066761 -0.09670145 0.13595231
0001d0 d1 14 bc 3d c2 54 89 bd 95 7e 08 3e ab 5a 07 bd
       0.09183658 -0.067056194 0.13329537 -0.033045452
0001e0 74 eb 4f 3d 87 b1 1d 3e 0e 14 31 bc 4f 7a 46 3e
       0.050761655 0.15399753 -0.010808004 0.19382595
0001f0 42 1c bc bd 2e ba d3 bd 81 35 31 3e 0d 4e ee bd
       -0.09185077 -0.10338245 0.17305566 -0.11635981
000200 09 4c db bd eb 31 e9 3d 04 91 80 bd 8d a3 c3 3d
       -0.10707862 0.11386474 -0.062776595 0.09552679
000210 56 e4 45 3d d8 f6 16 3e de 89 2d bd c3 fd 27 3e
       0.04831346 0.14742601 -0.04236781 0.16405396
000220 87 f6 8e bd 4d 9e 3b 3e 31 46 71 3d 40 6b 22 bc
       -0.06980615 0.18322106 0.05890483 -0.009913266
000230 5b bc 1d bc 16 56 f8 3d 60 47 04 3e c4 d6 39 be
       -0.009627427 0.121257946 0.12917852 -0.18148333
000240 5f b9 1c 3e 48 08 27 3e 7f 5c 09 3e 55 87 e7 bc
       0.15305088 0.16311753 0.1341419 -0.028262774
000250 a1 25 a0 bc ef 67 00 3d 28 94 02 3e 6b f4 ad bd
       -0.019549193 0.03134912 0.1275183 -0.08493885

output_layer.weight f4 [1, 38]
000000 52 55 04 be f8 df e5 3c 3b 14 da 3d aa e9 16 3e
       -0.12923172 0.028060898 0.1064839 0.14737573
000010 69 3e 44 3e be 97 03 be fd c3 d5 bd 67 67 dd 3d
       0.19164433 -0.12850854 -0.104377724 0.10810738
000020 12 10 e6 3d de c6 10 3e eb 7e 2d 3d c3 0f 15 3e
       0.11233534 0.14138362 0.042357367 0.14556794
000030 c5 0b 62 3d 84 4b 05 3e 91 54 cf bd dd 59 06 3e
       0.055187006 0.13017088 -0.10123552 0.13120218
000040 75 52 d0 3d 77 36 3f 3e 26 95 34 3e 10 06 b2 bd
       0.101719774 0.1867312 0.1763502 -0.086925626
000050 e5 0f 57 3e d5 40 a3 3d 0e 0c bd bd 23 be 42 3e
       0.21002157 0.0797135 -0.09230815 0.19017844
000060 f7 9c d3 bd 0c ea 0d 3e 0d a9 35 bd 22 fc 1f 3e
       -0.10332673 0.13858813 -0.044350673 0.15623525
000070 73 de 1b bd 66 07 a7 bd 10 03 06 be 6c 16 6b bd
       -0.03805394 -0.08155708 -0.13087106 -0.05739443
000080 e6 f5 1e be 5b 29 15 3e 25 9e 40 3d 78 85 98 bd
       -0.1552349 0.14566557 0.04702582 -0.07447332
000090 25 f9 a5 3d bd e5 12 bd
       0.08104161 -0.035863627
