models/base_model/model.pth (torch, 16061 bytes, 5 tensors)

lstm_layer.weight_ih_l0 f4 [108, 1]
0.24546793 -0.08660068 0.038308684 -0.12691602 0.14891392 0.064137146 0.04620948 0.12300891
-0.053869873 0.13772891 0.23289476 0.0737495 0.17319381 0.26405808 -0.14267288 0.14720207
0.030748403 0.08122545 0.29658863 0.038607836 0.09627286 0.07174596 -0.29297137 0.0980721
-0.1437118 -0.28842038 0.18942262 0.14345837 0.032457206 -0.17764848 0.026869655 -0.03371182
0.17847073 0.055386532 -0.082957864 -0.011431095 -0.1501817 -0.04803072 -0.032144044 -0.101326466
0.05044946 -0.14283213 0.29366395 -0.050114416 0.10265325 0.015012322 0.08413899 -0.09245832
0.15448996 -0.28471082 0.0071711186 0.08612218 0.02561836 0.13129523 0.13817388 0.13343106
-0.17026271 0.14357333 0.047244947 0.29952517 -0.28717673 0.084284954 -0.13266864 0.023276903
0.20043254 0.30031094 -0.330093 0.31763738 -0.19987406 -0.27190816 -0.24405509 0.30925214
-0.2247893 0.27398932 -0.23950829 0.2505743 0.24513799 0.05398278 0.0037570887 -0.17248063
-0.09754183 0.09234008 -0.15141663 -0.15766372 0.010335341 0.14234328 0.00736261 0.04252032
0.1523696 0.15566987 -0.035869982 -0.07828172 0.20945929 -0.103245355 -0.0056580584 -0.027450668
0.17508882 0.0705534 0.14954644 0.19371055 -0.009613471 0.069484815 -0.0022681435 -0.23112166
0.23793902 -0.08507167 0.036833473 0.13168195
00000000: f25b 7b3e b35b b1bd 91e9 1c3d 46f6 01be
00000010: e47c 183e 565a 833d 2746 3d3d 18ec fb3d
00000020: a8a6 5cbd cf08 0d3e f77b 6e3e fa09 973d
00000030: b859 313e 9f32 873e d718 12be 24bc 163e
00000040: 13e4 fb3c 8759 a63d 77da 973e 4023 1e3d
00000050: b52a c53d 8cef 923d 5800 96be 06da c83d
00000060: 3029 13be d6ab 93be 01f8 413e c0e6 123e
00000070: d9f1 043d 7ce9 35be c01d dc3c 6815 0abd
00000080: 08c1 363e fddc 623d d0e5 a9bd 7d49 3bbc
00000090: 3bc9 19be dcbb 44bd 79a9 03bd 4084 cfbd
000000a0: 18a4 4e3d 9642 12be 1f5b 963e c644 4dbd
000000b0: de3b d23d 3ef6 753c 1051 ac3d ca5a bdbd
000000c0: 9e32 1e3e 9ec5 91be b4fb ea3b d360 b03d
000000d0: 98dd d13c 4272 063e 747d 0d3e 27a2 083e
000000e0: 5959 2ebe e304 133e eb83 413d 5d5b 993e
000000f0: d408 93be 979d ac3d 4ada 07be 34af be3c
00000100: 303e 4d3e 5bc2 993e f301 a9be 5ea1 a23e
00000110: c9ab 4cbe 8c37 8bbe 94e9 79be 4c56 9e3e
00000120: 2b2f 66be 5448 8c3e a941 75be 464b 803e
00000130: 7405 7b3e 0c1d 5d3d 7d39 763b c39e 30be
00000140: 03c4 c7bd cc1c bd3d f60c 1bbe 9972 21be
00000150: 9055 293c 70c2 113e 0d42 f13b c929 2e3d
00000160: c706 1c3e ec67 1f3e 67ec 12bd 2b52 a0bd
00000170: 7f7c 563e 4d72 d3bd 3c67 b9bb 39e0 e0bc
00000180: 7c4a 333e 4d7e 903d b422 193e 0f5c 463e
00000190: d281 1dbc 0e4e 8e3d 22a5 14bb 28ab 6cbe
000001a0: 49a6 733e 0e3a aebd b2de 163d a2d7 063e

lstm_layer.weight_hh_l0 f4 [108, 27]
0.18613465 -0.11147033 0.061925106 -0.12544712 0.08568466 0.025437642 -0.21304178 0.11150661
0.11253758 -0.12599067 0.0306357 0.17286734 -0.023439273 0.055178 -0.254413 0.0050706244
0.025663758 0.16786899 0.04897699 0.25023022 0.03101537 0.1735219 0.17410089 0.02919913
0.16125743 -0.1958518 -0.15376215 0.07266205 0.15538903 0.22765157 -0.2291288 -0.0008243221
0.0066543864 0.050117142 0.022283884 0.21090144 0.07806757 -0.003445791 -0.32003984 0.071932
-0.0913616 0.16706473 0.12051291 -0.1688727 -0.004885518 0.024870878 -0.07820611 0.15440558
-0.07664136 -0.028966425 0.019209927 -0.052958958 0.10798686 -0.09598762 -0.12590767 -0.11620825
-0.11699538 -0.2604937 -0.11251841 -0.17606016 0.084226064 0.081684865 0.2552891 -0.111662045
0.04336014 -0.36609384 0.16164924 -0.41143426 -0.0900184 0.030885294 -0.015403859 -0.3717933
0.2270537 -0.27235743 -0.034633256 -0.04191112 0.03241963 -0.06268741 -0.029073019 0.13296609
-0.087399416 -0.11594718 0.12361043 -0.0960914 -0.18507469 -0.07053526 0.14815834 0.01590517
-0.039235204 0.008629476 0.022084668 -0.16545425 -0.046645343 -0.10950858 0.03915623 0.09669839
0.15206647 0.05780979 -0.1422589 -0.07858318 0.11977459 0.039790243 0.070503056 -0.098402575
-0.018187484 -0.034016673 0.12859207 -0.18228282 -0.088968955 0.028590735 0.13738127 -0.049929477
0.046895582 0.19359931 0.009371426 -0.11583324 0.1768435 0.06993087 -0.070948035 0.2499866
0.10013369 -0.018204505 -0.15035042 -0.022146579 -0.12319377 0.26170462 0.06441696 0.09877373
-0.03507291 0.15905459 0.10897169 -0.10460163 0.025255958 -0.06789043 0.15130293 -0.0843181
-0.0704979 0.034392204 0.20930299 -0.07622741 0.15427703 -0.0623294 0.018861119 -0.08487444
-0.010461601 0.06376879 0.19956845 -0.12675364 -0.026597703 -0.11702192 -0.23469263 -0.23231328
0.12014667 -0.121173985 0.23022379 0.14871548 -0.028209297 0.12471679 -0.009024462 0.0039095026
0.20073064 -0.0747459 -0.10110703 -0.09663201 -0.185128 0.16275406 -0.04293099 0.112594806
-0.046605747 0.20381787 0.062372547 0.07019348 0.18404932 -0.066002846 -0.058868706 -0.06893345
-0.16518235 -0.15330379 -0.107456736 0.2958129 -0.04555993 0.006036587 0.070218556 0.1070595
-0.030520512 -0.06786342 -0.09708194 -0.18690245 0.14305991 -0.07419649 -0.19294113 0.15937684
0.09556008 0.21273632 -0.045936074 -0.045858894 0.040165983 -0.09938396 0.06927847 -0.017269293
0.24307628 -0.20889853 0.28074118 0.046473052 0.08808865 0.060747765 0.19776633 -0.03520592
0.25076756 -0.11773458 0.011697586 0.16072312 -0.10664471 0.0070218486 -0.1547492 -0.17657119
-0.15242709 0.035326432 0.0013409434 -0.18307109 -0.102107346 0.013525351 -0.077645876 -0.18829244
-0.11660757 -0.1647905 0.14488019 -0.015549436 -0.21523274 0.11731634 0.011972271 -0.16549838
0.073356025 -0.07782222 -0.006572261 -0.16673847 0.07103137 -0.08270275 0.047202986 -0.034083318
0.012503078 -0.1492805 -0.11195782 -0.10759885 0.12680547 0.056476854 -0.030673584 0.065808564
0.102063015 -0.0065199393 -0.039836008 0.036509108 -0.14057824 -0.1493797 -0.111236535 -0.06479151
00000000: 159a 3e3e 8e4a e4bd 2ea5 7d3d 3675 00be
00000010: 707b af3d 9a62 d03c a027 5abe 945d e43d
00000020: 1a7a e63d b303 01be b8f7 fa3c 2304 313e
00000030: b803 c0bc 5402 623d 6c42 82be 7b27 a63b
00000040: cd3c d23c d9e5 2b3e 199c 483d 2d1e 803e
00000050: f213 fe3c baaf 313e 8147 323e 0433 ef3c
00000060: ab20 253e 608d 48be d373 1dbe d7cf 943d
00000070: 4d1e 1f3e 7e1d 693e bda0 6abe 5217 58ba
00000080: 0a0d da3b a247 4d3d b18c b63c 8cf6 573e
00000090: e4e1 9f3d c8d2 61bb 43dc a3be 1651 933d
000000a0: ca1b bbbd 0413 2b3e 79cf f63d f7ec 2cbe
000000b0: b216 a0bb 03be cb3c 862a a0bd 7f1c 1e3e
000000c0: 25f6 9cbd ff4a edbc 235e 9d3c 7eeb 58bd
000000d0: 3728 dd3d 2895 c4bd f1ed 00be 97fe edbd
000000e0: 469b efbd 6e5f 85be 0d70 e6bd 1d49 34be
000000f0: b77e ac3d 654a a73d 41b5 823e 12af e4bd
00000100: 679a 313d a770 bbbe 6187 253e 83a7 d2be
00000110: 915b b8bd 2803 fd3c 7860 7cbc b15b bebe
00000120: c480 683e 6f72 8bbe 9adb 0dbd ffaa 2bbd
00000130: 72ca 043d 4262 80bd 8a2a eebc 4328 083e
00000140: 77fe b2bd b775 edbd 7727 fd3d 91cb c4bd
00000150: 3884 3dbe ca74 90bd d2b6 173e 8f4b 823c
00000160: 18b5 20bd a562 0d3c e8ea b43c d76c 29be
00000170: 300f 3fbd 0946 e0bd 4862 203d ce09 c63d
00000180: 50b7 1b3e f5c9 6c3d 51ac 11be 38f0 a0bd
00000190: 614c f53d 18fb 223d e863 903d 4a87 c9bd
000001a0: ebfd 94bc 1155 0bbd a4ad 033e 59a8 3abe
000001b0: 5b35 b6bd 1e37 ea3c adad 0c3e da82 4cbd
000001c0: 9515 403d e63e 463e 9c8a 193c fa39 edbd
000001d0: 7616 353e ea37 8f3d 344d 91bd 7dfc 7f3e
000001e0: e412 cd3d 9d21 95bc 76f5 19be be6c b5bc
000001f0: 044d fcbd 26fe 853e 0aed 833d e249 ca3d
00000200: 9da8 0fbd 35df 223e 8d2c df3d 6139 d6bd
00000210: 95e5 ce3c 230a 8bbd 28ef 1a3e f8ae acbd
00000220: 3461 90bd d7de 0c3d 8653 563e 1e1d 9cbd
00000230: ccfa 1d3e 1d4d 7fbd a282 9a3c a7d2 adbd
00000240: 2367 2bbc 3699 823d ac5b 4c3e b5cb 01be
00000250: 6de3 d9bc 30a9 efbd 4453 70be 88e3 6dbe
00000260: 750f f63d 112a f8bd c9bf 6b3e df48 183e
00000270: 2f17 e7bc 846b ff3d 56db 13bc 491b 803b
00000280: 558c 4d3e 6114 99bd 3411 cfbd 01e7 c5bd
00000290: 3292 3dbe 00a9 263e 68d8 2fbd 1b98 e63d
000002a0: abe5 3ebd a2b5 503e 5b7a 7f3d 99c1 8f3d
000002b0: 6d77 3c3e 802c 87bd 5020 71bd fb2c 8dbd
000002c0: 9025 29be abfb 1cbe 4712 dcbd ca74 973e
000002d0: 0d9d 3abd 90ce c53b bfce 8f3d 0342 db3d
000002e0: 2706 fabc fafb 8abd e5d2 c6bd 5b63 3fbe
000002f0: 4c7e 123e 54f4 97bd 5c92 45be af33 233e
00000300: 01b5 c33d 8dd7 593e 7727 3cbd 89d6 3bbd
00000310: 1685 243d d189 cbbd dfe1 8d3d 5578 8dbc
00000320: fde8 783e 7fe9 55be 4fbd 8f3e 875a 3e3d
00000330: d267 b43d a6d2 783d 4283 4a3e 1534 10bd
00000340: 9b64 803e d41e f1bd 3ba7 3f3c 9a94 243e
00000350: 8b68 dabd 8917 e63b 9376 1ebe 14cf 34be
00000360: d915 1cbe 73b2 103d 98c2 af3a fd76 3bbe
00000370: a81d d1bd 6f99 5d3c cd04 9fbd bccf 40be
00000380: f3cf eebd d7be 28be 795b 143e 10c3 7ebc
00000390: f965 5cbe 8d43 f03d 5827 443c 6878 29be
000003a0: af3b 963d 4261 9fbd 1f5c d7bb 7dbd 2abe
000003b0: e578 913d 0f60 a9bd eb57 413d f39a 0bbd
000003c0: b6d9 4c3c fddc 18be 244a e5bd c95c dcbd
000003d0: 4bd9 013e 4654 673d 2b47 fbbc a4c6 863d
000003e0: 6a06 d13d 37a5 d5bb 152b 23bd 938a 153d
000003f0: bef3 0fbe fef6 18be fbcf e3bd 69b1 84bd

lstm_layer.bias_ih_l0 f4 [108]
-0.17628911 -0.05392038 0.08241263 0.1949168 -0.102522984 -0.009883652 0.03814273 0.117237434
-0.11349126 0.077673934 -0.0403444 0.006218559 0.16664386 0.11534888 -0.08723957 0.12274884
-0.030540349 0.11501501 0.044495486 -0.040055983 0.21757068 0.06655091 0.14367852 0.0019847734
0.096913256 0.11360748 0.21056058 -0.106918916 0.1389328 0.0041516754 -0.0054624807 -0.049333733
0.042893086 -0.05637384 0.1911267 -0.1542394 -0.1203354 0.1124592 0.28469375 0.20798561
0.057069574 -0.02168193 0.2608598 0.07704849 0.17543678 0.22418788 0.22843698 0.04692908
0.21063273 -0.17349826 0.17495674 -0.23485705 0.2016793 0.11496122 0.023238713 -0.102154374
-0.04170395 -0.08901055 0.12534457 -0.050221704 -0.10916926 0.07583272 -0.06053791 -0.054397345
0.12182932 0.043331888 0.0742008 0.05605891 0.09276991 0.13915546 -0.034291666 -0.11673337
-0.13460976 -0.0436561 0.12903884 -0.09600553 -0.07221783 0.018940663 0.09701942 0.009513181
-0.027682893 0.03969954 0.09921629 0.16595346 0.210922 0.13901025 0.11211574 -0.04719246
-0.11812787 0.035550203 -0.1342523 0.20635834 0.2881384 0.24850325 0.2697058 -0.07052423
-0.12000664 0.21443763 0.08591565 0.07299669 0.026905484 0.33719862 -0.031848174 0.08088186
0.12302076 -0.1451617 0.07384469 -0.039348986
00000000: 2285 34be 9edb 5cbd f4c7 a83d 4598 473e
00000010: 92f7 d1bd 0bef 21bc 8d3b 1c3d 2e1a f03d
00000020: 1b6e e8bd 8313 9f3d 2b40 25bd 0ec5 cb3b
00000030: b0a4 2a3e 093c ec3d a9aa b2bd be63 fb3d
00000040: c12f fabc fd8c eb3d e640 363d be11 24bd
00000050: d9ca 5e3e d84b 883d 7620 133e f912 023b
00000060: 757a c63d 0aab e83d 319d 573e 4ef8 dabd
00000070: 6644 0e3e c70a 883b 9cfe b2bb 2b12 4abd
00000080: a9b0 2f3d 41e8 66bd b8b6 433e eff0 1dbe
00000090: 6872 f6bd 0251 e63d 61c3 913e 2efa 543e
000000a0: c9c1 693d 4e9e b1bc 6a8f 853e 99cb 9d3d
000000b0: b3a5 333e 8291 653e 62eb 693e b538 403d
000000c0: 1bb0 573e 87a9 31be dc27 333e 5e7e 70be
000000d0: 0585 4e3e ca70 eb3d 1d5f be3c 5036 d1bd
000000e0: c3d1 2abd 2a4b b6bd 545a 003e 46b5 4dbd
000000f0: 2294 dfbd 2f4e 9b3d 99f6 77bd c0cf 5ebd
00000100: a781 f93d c77c 313d 97f6 973d 079e 653d
00000110: 27fe bd3d c57e 0e3e 6b75 0cbd e811 efbd
00000120: 24d7 09be bdd0 32bd c222 043e 8c9e c4bd
00000130: f1e6 93bd 7329 9b3c 1eb2 c63d 2cdd 1b3c
00000140: 3cc7 e2bc fc9b 223d e931 cb3d b4ef 293e
00000150: f0fb 573e b458 0e3e f09c e53d e24c 41bd
00000160: 06ed f1bd 179d 113d 6f79 09be 9a4f 533e
00000170: e086 933e a377 7e3e e116 8a3e 026f 90bd
00000180: 0bc6 f5bd 8a95 5b3e 8bf4 af3d 4a7f 953d
00000190: e468 dc3c 4ca5 ac3e 3b73 02bd 63a5 a53d
000001a0: 4ff2 fb3d 45a5 14be e33b 973d 672c 21bd

lstm_layer.bias_hh_l0 f4 [108]
0.16609332 0.1292929 -0.0070610717 0.16625308 0.11586351 0.007271976 0.18175018 -0.17882314
0.1379609 -0.084625535 0.1559314 0.091056526 0.015707051 0.20249212 0.018363856 0.2555291
-0.024061583 0.306248 -0.019401835 -0.032377057 0.048418924 0.17990845 -0.0611153 0.12902923
-0.08509094 -0.11428844 -0.0006162792 0.13022286 -0.1796512 0.17409208 0.1321348 -0.035967257
0.15718277 -0.0786519 -0.07945215 0.14757253 -0.11740446 0.14633466 0.11841192 -0.044168353
-0.022684952 -0.21838602 0.10635901 -0.03742928 0.18374886 0.18199259 -0.09094107 -0.019048138
0.19589351 0.105712704 -0.14134955 -0.06380366 -0.08057376 0.09638487 0.12410618 -0.13490863
0.17470036 0.06336455 -0.18770638 0.12725294 -0.16594402 -0.008720935 0.11654019 0.079292
0.19695525 -0.08420242 0.10050108 -0.1102738 -0.0043485872 -0.18227099 -0.17366283 0.037765786
-0.10844046 0.056817565 -0.031069474 0.0013593576 -0.09681726 -0.15990674 -0.09639841 0.10480767
-0.06136773 -0.06969773 -0.13048223 -0.041764405 -0.014763976 -0.094323136 0.1096876 -0.12163212
0.043371093 0.18903095 -0.009417048 -0.009725941 0.094467804 0.09181291 0.07718299 -0.11277446
0.1188427 0.05099741 0.24016654 -0.009205753 0.11159964 0.21649094 -0.0454957 -0.11427409
-0.04768513 -0.21529214 -0.08299952 0.21426229
00000000: 5e14 2a3e 5c65 043e 9060 e7bb 3f3e 2a3e
00000010: d949 ed3d c249 ee3b b81c 3a3e 6a1d 37be
00000020: 9f45 0d3e 2750 adbd 7bac 1f3e d87b ba3d
00000030: 13ac 803c 185a 4f3e cc6f 963c b6d4 823e
00000040: cc1c c5bc 8acc 9c3e 99f0 9ebc ce9d 04bd
00000050: ec52 463d ec39 383e 0954 7abd 3d20 043e
00000060: 2944 aebd 0f10 eabd cc8d 21ba 2459 053e
00000070: 7cf6 37be 3245 323e 584e 073e 6752 13bd
00000080: 85f4 203e 3f14 a1bd cfb7 a2bd 411d 173e
00000090: c071 f0bd c1d8 153e f381 f23d e0e9 34bd
000000a0: cbd5 b9bc 96a0 5fbe c1d2 d93d 724f 19bd
000000b0: a928 3c3e 445c 3a3e 503f babd d70a 9cbc
000000c0: 4f98 483e e77f d83d f0bd 10be 7eab 82bd
000000d0: db03 a5bd 6e65 c53d 622b fe3d 7d25 0abe
000000e0: a7e4 323e 46c5 813d 1a36 40be 984e 023e
000000f0: 3bed 29be 41e2 0ebc a0ac ee3d d863 a23d
00000100: a3ae 493e 5272 acbd 83d3 cd3d 3bd7 e1bd
00000110: 987e 8ebb 3fa5 3abe abd4 31be 4cb0 1a3d
00000120: 0816 debd 89b9 683d 6985 febc 792c b23a
00000130: 2148 c6bd 98be 23be 886c c5bd 67a5 d63d
00000140: bb5c 7bbd afbd 8ebd 229d 05be 2711 2bbd
00000150: 9be4 71bc 7d2c c1bd e4a3 e03d 431a f9bd
00000160: e3a5 313d 5491 413e f649 1abc 8e59 1fbc
00000170: 5678 c13d 6808 bc3d 1e12 9e3d 4cf6 e6bd
00000180: cd63 f33d a9e2 503d 38ee 753e bad3 16bc
00000190: 5a8e e43d cdaf 5d3e b359 3abd 8908 eabd
000001a0: 7c51 43bd 8b75 5cbe a7fb a9bd 9367 5b3e

output_layer.weight f4 [1, 27]
0.094814375 0.17943344 -0.036130432 0.09696796 -0.113483 0.2560302 -0.15462634 0.05807812
-0.11351567 -0.12128775 0.14127804 0.29189718 -0.29619712 0.1114917 0.0731812 -0.18901397
-0.17938104 0.12573488 -0.17469999 0.22391729 -0.14553866 0.117157474 0.062639885 -0.008023757
-0.12438311 -0.14640394 -0.1474453
00000000: 0a2e c23d 66bd 373e 81fd 13bd 2397 c63d
00000010: c669 e8bd 6416 833e 5e56 1ebe 53e3 6d3d
00000020: e77a e8bd b665 f8bd 31ab 103e 8c73 953e
00000030: 26a7 97be c355 e43d 06e0 953d e18c 41be
00000040: aaaf 37be a5c0 003e 8ee4 32be 934a 653e
00000050: 1608 15be 42f0 ef3d 5749 803d 1376 03bc
00000060: 92bc febd eaea 15be e7fb 16be
