models/base_model/model.pth (torch, 16061 bytes, 5 tensors)

lstm_layer.weight_ih_l0 f4 [108, 1]
0.22674009 -0.20581937 0.03866109 0.07599076 0.12561828 -0.20356381 0.27545393 -0.17557788
0.3025437 0.1577254 -0.20374109 -0.017424252 0.16750878 0.17130817 0.1234288 0.113486215
0.006327295 -0.011983454 0.1159721 0.122438364 0.17757492 0.06884248 -0.09661583 0.15712981
-0.24442533 0.08322389 0.008188218 0.306255 -0.13412583 0.05550604 0.17773375 0.20969275
0.04815941 -0.039972596 -0.2316118 0.2196603 0.089666374 -0.23986284 0.10993917 0.2368061
0.026706582 0.07082432 0.31639504 0.24177815 -0.23759055 0.2694015 0.21529083 0.28736597
0.27549344 -0.20160659 0.2954186 -0.07969007 0.21347141 0.0050758817 0.17087366 0.33592474
0.054573316 0.37092376 -0.11187473 0.10281968 -0.06756634 0.19147153 -0.026551701 0.2882818
0.10953121 0.018012432 0.2152333 0.0755888 -0.14811267 0.21367575 -0.26910487 0.03396192
0.22597414 -0.07013955 0.3209914 0.21510577 -0.0048432765 0.04479148 -0.18904223 0.08853436
-0.3319296 0.087006636 0.055607907 0.19679911 0.19203016 -0.027431455 -0.14095274 0.19076993
0.02771744 0.25152075 0.1526075 -0.061864167 -0.07182098 0.26361072 0.039159738 0.0632179
0.06964997 -0.024303995 -0.11451705 0.035725754 -0.15020578 0.16777496 0.3240421 -0.2190556
-0.029451588 -0.22191419 0.31251672 0.011046972
00000000: 8e2e 683e 50c2 52be 175b 1e3d 0ba1 9b3d
00000010: 14a2 003e 0873 50be 4c08 8d3e b0ca 33be
00000020: 02e7 9a3e c482 213e 81a1 50be 4ebd 8ebc
00000030: 6c87 2b3e 696b 2f3e 3dc8 fc3d 766b e83d
00000040: 3355 cf3b 4056 44bc c882 ed3d f7c0 fa3d
00000050: 33d6 353e 49fd 8c3d 85de c5bd a3e6 203e
00000060: a24a 7abe 4971 aa3d e027 063c 75cd 9c3e
00000070: 4858 09be 4d5a 633d d6ff 353e b2b9 563e
00000080: cd42 453d 4eba 23bd a52b 6dbe a1ee 603e
00000090: 01a3 b73d 9b9e 75be ca27 e13d 4c7d 723e
000000a0: c3c7 da3c 570c 913d 88fe a13e b194 773e
000000b0: f04a 73be feee 893e 3375 5c3e a221 933e
000000c0: 7a0d 8d3e f571 4ebe 1b41 973e 8c34 a3bd
000000d0: 4098 5a3e 9553 a63b 81f9 2e3e 54fe ab3e
000000e0: 4588 5f3d b8e9 bd3e 941e e5bd 2093 d23d
000000f0: 3960 8abd 1d11 443e f482 d9bc ac99 933e
00000100: e651 e03d cf8e 933c 1e66 5c3e 4dce 9a3d
00000110: d9aa 17be d1cd 5a3e 1dc8 89be a71b 0b3d
00000120: c465 673e 53a5 8fbd fc58 a43e b044 5c3e
00000130: 59b4 9ebb 4577 373d 4994 41be 8151 b53d
00000140: adf2 a9be 8930 b23d 1ec5 633d b585 493e
00000150: 8ea3 443e eeb7 e0bc ea55 10be 3159 433e
00000160: af0f e33c 54c7 803e 2445 1c3e 4865 7dbd
00000170: e116 93bd fcf7 863e f665 203d 6378 813d
00000180: a5a4 8e3d 2c19 c7bc ea87 eabd 2b55 123d
00000190: 8bcf 19be 33cd 2b3e d9e8 a53e 1c50 60be
000001a0: 7544 f1bc 793d 63be 3102 a03e 5cfe 343c

lstm_layer.weight_hh_l0 f4 [108, 27]
0.15757883 0.19201326 0.114643075 0.24334843 0.0025732284 -0.18814115 -0.023959951 -0.10534066
-0.028172554 0.0009963597 0.035064187 -0.15760145 0.1368045 -0.027914852 0.092204094 -0.1352711
0.131425 0.15269884 -0.12119719 -0.025345828 0.19022048 -0.11241381 0.13136637 0.069019854
-0.045927737 0.10407436 -0.2054386 0.023627855 -0.3404188 0.24063724 -0.14015651 -0.119966626
-0.28279743 -0.3450374 -0.18059589 0.38390106 -0.23100637 0.14254008 0.25462165 0.07594068
-0.2666046 -0.25396106 0.04669577 -0.11307019 0.20797116 -0.2108108 0.17182557 0.12317651
0.35306978 0.30294734 0.3617769 0.21662459 0.28197375 0.02836185 0.05759143 -0.046514306
0.12705404 0.09862129 0.1556577 0.08768609 -0.07217086 0.09836527 0.14195329 0.058106024
0.004637702 -0.18131934 0.256715 0.11976169 0.08296802 0.22765167 -0.023940701 0.122626305
0.16892515 0.0912366 0.045698736 0.061737772 0.09006522 0.14083068 -0.19897352 0.16785912
-0.022593502 0.2191437 -0.07706531 0.25188527 -0.005154956 -0.1124783 -0.074356645 -0.21016876
-0.31436366 0.1983757 -0.08480582 0.16650708 0.20451295 0.3085863 -0.102046706 -0.074277915
0.12621419 -0.29492357 0.27723813 0.0031249032 0.26432762 0.34232783 0.33416852 0.035085365
0.3003684 0.2329661 0.10972831 -0.34057084 -0.089332804 0.24328336 -0.039153643 0.032676835
0.043772336 -0.17357224 0.19837733 0.1958322 -0.13979442 0.0095084505 -0.14663915 -0.16094236
0.22454856 0.19157803 0.16463333 0.06405139 -0.19499429 0.05466411 -0.055730768 0.03472944
0.16975074 0.13216667 0.009598722 -0.04844588 0.014181144 -0.04486519 -0.14111587 -0.008719809
-0.09205973 -0.035572167 0.10027216 0.14844546 -0.17879641 0.19003591 0.04967719 -0.106155865
0.04627941 0.0373128 0.10340058 -0.1812594 0.075882725 0.07441514 0.026046934 0.012568951
0.05078785 -0.006704645 0.116053484 -0.075609565 -0.16123001 -0.108903155 0.1818402 0.14729111
0.13191545 0.16839103 -0.13610208 -0.048704512 -0.2175905 0.28991318 0.20572452 -0.15581565
0.015764853 0.22965865 -0.06430223 0.048082944 0.098985545 0.0722394 0.22197053 -0.050606813
0.019908205 -0.017171869 0.053797096 -0.13066989 -0.012707103 -0.014135607 0.2275311 0.02059995
0.086260624 0.10647712 -0.19901259 -0.11096306 -0.0014349899 -0.044757966 -0.13605738 -0.12139035
-0.37218648 0.09148934 -0.13719027 -0.0025368566 -0.19969095 0.03953448 -0.19326296 0.13450603
0.056018468 -0.18082054 -0.020489605 0.10578102 0.0036581398 0.25787255 0.13733655 -0.44478557
0.28437918 -0.22711878 -0.0031952984 0.004923239 0.20249242 0.09452006 -0.17577368 0.20338799
0.14391384 0.006699027 0.108330205 0.2738324 0.009374147 0.11913703 -0.066689916 0.24271907
0.09770361 0.09174732 0.12420515 0.07739214 -0.05944257 0.21193694 -0.004344796 -0.091595955
-0.09101201 0.18792102 0.22599424 -0.04868937 -0.08468227 0.20191877 0.024695752 0.03395822
-0.2856304 0.023636388 -0.036304608 0.054250285 -0.39223605 0.18139948 0.09315728 -0.31332383
-0.2089161 -0.20101653 -0.16742359 0.054354876 0.05553059 0.21099128 0.3782142 0.19661286
00000000: 585c 213e 209f 443e fdc9 ea3d 5530 793e
00000010: 9ca3 283b 13a8 40be a947 c4bc d8bc d7bd
00000020: 21ca e6bc 4998 823a 779f 0f3d 4662 21be
00000030: 7b16 0c3e b0ad e4bc 80d5 bc3d 8284 0abe
00000040: 4694 063e 165d 1c3e 3b36 f8bd 0ea2 cfbc
00000050: 28c9 423e 3639 e6bd e884 063e 485a 8d3d
00000060: b91e 3cbd f024 d53d 7f5e 52be 348f c13c
00000070: 5f4b aebe 9c69 763e 3085 0fbe 10b1 f5bd
00000080: d3ca 90be bea8 b0be 21ee 38be ae8e c43e
00000090: ef8c 6cbe 07f6 113e c55d 823e ca86 9b3d
000000a0: 6680 88be 2f07 82be 1044 3f3d 5891 e7bd
000000b0: 64f6 543e c9de 57be 0bf3 2f3e f743 fc3d
000000c0: 90c5 b43e ea1b 9b3e d23a b93e d6d2 5d3e
000000d0: dd5e 903e 1c57 e83c fee4 6b3d c985 3ebd
000000e0: 741a 023e f5f9 c93d bb64 1f3e c494 b33d
000000f0: 51ce 93bd bb73 c93d 345c 113e 9500 6e3d
00000100: ddf7 973b c7ab 39be 2670 833e 9e45 f53d
00000110: 23eb a93d 851d 693e 4a1f c4bc 8023 fb3d
00000120: b7fa 2c3e 41da ba3d 992e 3b3d bfe0 7c3d
00000130: 1d74 b83d eb35 103e b7bf 4bbe 43e3 2b3e
00000140: 0216 b9bc 3567 603e 6bd4 9dbd 1bf7 803e
00000150: e8ea a8bb 065b e6bd 4c48 98bd 7b36 57be
00000160: 46f4 a0be 0023 4b3e acae adbd d580 2a3e
00000170: d86b 513e 06ff 9d3e ddfd d0bd 051f 98bd
00000180: 4b3e 013e 3900 97be 28f2 8d3e 2dcb 4c3b
00000190: f355 873e 9845 af3e 2318 ab3e acb5 0f3d
000001a0: e3c9 993e aa8e 6e3e 3cb9 e03d 4d5f aebe
000001b0: 1ef4 b6bd 461f 793e 925f 20bd 25d8 053d
000001c0: 9f4a 333d ecbc 31be 6d23 4b3e 3c88 483e
000001d0: 4526 0fbe 55c9 1b3c 9328 16be 13ce 24be
000001e0: 0ff0 653e 082d 443e a495 283e 602d 833d
000001f0: 95ac 47be 79e7 5f3d f245 64bd 7540 0e3d
00000200: 23d3 2d3e b356 073e f543 1d3c 306f 46bd
00000210: 0758 683c 90c4 37bd ae80 10be 88dd 0ebc
00000220: d089 bcbd 1fb4 11bd 7d5b cd3d 1602 183e
00000230: 6816 37be c698 423e 4f7a 4b3d 3f68 d9bd
00000240: 7b8f 3d3d 4ed5 183d afc3 d33d 109c 39be
00000250: 6768 9b3d f766 983d 6160 d53c 00ee 4d3c
00000260: ec06 503d a4b2 dbbb 73ad ed3d 30d9 9abd
00000270: 7b19 25be 9e08 dfbd 5134 3a3e 7bd3 163e
00000280: d814 073e b36e 2c3e 585e 0bbe 627e 47bd
00000290: 0bd0 5ebe 806f 943e 73a9 523e 238e 1fbe
000002a0: 4b25 813c a32b 6b3e e3b0 83bd 9ff2 443d
000002b0: efb8 ca3d 40f2 933d 3e4c 633e 1749 4fbd
000002c0: 8816 a33c 05ac 8cbc 585a 5c3d 54ce 05be
000002d0: 7431 50bc 0899 67bc eafd 683e 3ac1 a83c
000002e0: 69a9 b03d ad10 da3d f5c9 4bbe 9a40 e3bd
000002f0: 4516 bcba 2154 37bd a052 0bbe 819b f8bd
00000300: 3a8f bebe c35e bb3d 9b7b 0cbe 6441 26bb
00000310: c97b 4cbe e8ee 213d bae6 45be f3bb 093e
00000320: 9f73 653d 0529 39be d1d9 a7bc b8a3 d83d
00000330: 67bd 6f3b df07 843e f4a1 0c3e efba e3be
00000340: 269a 913e d391 68be 3668 51bb 1f53 a13b
00000350: 2c5a 4f3e bc93 c13d 04fe 33be f144 503e
00000360: 265e 133e 8383 db3b 3adc dd3d c333 8c3e
00000370: 0696 193c 1dfe f33d b994 88bd 598b 783e
00000380: d518 c83d 05e6 bb3d 455f fe3d c57f 9e3d
00000390: 0d7a 73bd ff05 593e ca5e 8ebb a996 bbbd
000003a0: 8164 babd 5e6e 403e 096b 673e 816e 47bd
000003b0: e66d adbd cbc3 4e3e bf4e ca3c c617 0b3d
000003c0: 263e 92be 19a1 c13c 24b4 14bd 8c35 5e3d
000003d0: 2ad3 c8be c9c0 393e 3ec9 be3d fb6b a0be
000003e0: 1aee 55be 47d7 4dbe 1771 2bbe 38a3 5e3d
000003f0: 0b74 633d 190e 583e 4ba5 c13e e254 493e

lstm_layer.bias_ih_l0 f4 [108]
0.09379188 0.3469636 -0.09851563 0.3333581 0.11005096 -0.017729875 -0.20786516 0.096869215
0.0881923 0.13126123 -0.07489519 0.1567915 0.028358174 0.028277194 0.15593342 -0.048359513
-0.1047833 -0.047559068 0.22271787 0.01005643 0.02437451 -0.08661968 -0.13198075 -0.16824266
-0.12023604 0.09717984 0.062512 0.19595739 0.09420061 0.12989798 0.16450489 0.13436955
0.09779167 0.017367687 0.22648138 0.08621491 0.2642851 0.063571975 -0.022682583 -0.015546669
-0.025266156 0.19775376 -0.12739003 0.24430847 0.10691285 0.42309785 -0.085592456 -0.057083633
0.1879779 0.11831238 -0.13817026 -0.15157567 -0.04557843 -0.07504627 -0.1292676 -0.0928652
-0.04298642 0.12387065 -0.1518368 0.014086316 0.0064619356 0.04407082 0.08192509 0.0056974473
0.10750785 0.042302273 -0.11488196 -0.09957015 -0.022406874 -0.13646966 -0.02665344 -0.013123714
-0.020827668 0.1779929 -0.014361557 -0.0011005354 0.15047203 0.17171648 -0.062372494 0.15392224
-0.08910313 0.15393607 0.26342347 -0.077478535 0.02673355 0.027543487 0.031810023 0.112928994
0.060744133 0.057656936 0.09315155 0.030646304 0.011912498 0.0013435511 -0.18064052 0.1849593
0.013726397 0.084278524 0.0024744777 0.31414935 -0.21656016 -0.016448338 -0.036214333 0.0923937
0.14694375 -0.1371202 -0.00030028258 0.22017065
00000000: f515 c03d 37a5 b13e 90c2 c9bd eaad aa3e
00000010: 6662 e13d 3e3e 91bc 9bda 54be 5e63 c63d
00000020: 2a9e b43d 5869 063e a662 99bd f38d 203e
00000030: 674f e83c 93a5 e73c 03ad 1f3e a014 46bd
00000040: a098 d6bd 4ccd 42bd 2710 643e b9c3 243c
00000050: 0dad c73c a965 b1bd f625 07be ce47 2cbe
00000060: 503e f6bd 3906 c73d 4b06 803d 0ea9 483e
00000070: 40ec c03d fa03 053e f873 283e 2c98 093e
00000080: 0047 c83d ae46 8e3c bcea 673e 7191 b03d
00000090: 6050 873e 0632 823d d3d0 b9bc 75b7 7ebc
000000a0: f8fa cebc f67f 4a3e 8872 02be 002c 7a3e
000000b0: 20f5 da3d 48a0 d83e 194b afbd 87d0 69bd
000000c0: 477d 403e c34d f23d 817c 0dbe a736 1bbe
000000d0: 73b0 3abd dcb1 99bd ba5e 04be 1c30 bebd
000000e0: 8712 30bd e5af fd3d 1b7b 1bbe 4bca 663c
000000f0: a5be d33b 9b83 343d 57c8 a73d a7b1 ba3b
00000100: 132d dc3d 2645 2d3d 3c47 ebbd 6feb cbbd
00000110: 9f8e b7bc b4be 0bbe 5158 dabc d904 57bc
00000120: c99e aabc c543 363e bc4c 6bbc d73f 90ba
00000130: 5715 1a3e 72d6 2f3e 4d7a 7fbd cb9d 1d3e
00000140: b47b b6bd 6ba1 1d3e 71df 863e 11ad 9ebd
00000150: 5100 db3c e1a2 e13c 3a4b 023d 5147 e73d
00000160: d7ce 783d ae29 6c3d 3dc6 be3d f50d fb3c
00000170: a32c 433c 181a b03a d4f9 38be f965 3d3e
00000180: afe4 603c 389a ac3d d92a 223b 2fd8 a03e
00000190: f2c1 5dbe aabe 86bc 7b55 14bd e838 bd3d
000001a0: 6c78 163e 3d69 0cbe 3f6f 9db9 6a74 613e

lstm_layer.bias_hh_l0 f4 [108]
-0.006957928 0.2759178 -0.0008718137 0.00442087 -0.06216802 -0.07633833 0.083590455 -0.07315086
-0.18093266 0.39388537 -0.07584196 -0.05564017 -0.06254362 0.01699581 -0.15317832 -0.10273746
0.07657041 -0.09546945 0.058431476 0.011923228 0.16075666 0.04111577 0.052508086 0.1240293
-0.14242247 -0.1490777 0.00433777 0.17504984 0.34024966 -0.17907053 0.01424332 -0.061506994
0.14489952 -0.09831945 0.045357354 -0.032563604 0.19109306 -0.20183676 -0.07347501 0.08263754
-0.1502542 -0.12985751 -0.022613252 -0.1175337 -0.17151494 0.18714713 -0.034894705 0.0190171
0.13438062 -0.12503864 0.030187447 0.12390625 -0.06965012 0.05430867 0.10749059 -0.07774988
0.13640417 -0.17652832 0.02793586 -0.051991414 -0.08451074 -0.17522666 0.17897756 -0.076635025
0.029588534 0.08567494 0.08187261 0.09018908 0.029486803 0.14739361 0.019251985 0.18113525
-0.0611643 -0.096883945 0.04396747 0.17877641 -0.0017422027 0.1790219 0.12721355 -0.13468875
0.018441094 0.10678542 0.30813298 0.006425129 0.17026854 -0.0924406 -0.045334984 -0.19767226
0.025373844 0.07836425 0.27544788 -0.048715115 -0.097890496 0.23499535 0.07135353 0.20118119
0.20342827 -0.1032732 -0.18234769 0.21884567 0.122716896 0.114009455 -0.05688924 -0.09249646
-0.086623415 0.07575288 -0.10713805 0.15327826
00000000: 55ff e3bb 1945 8d3e 6d8a 64ba f2dc 903b
00000010: e5a3 7ebd 4557 9cbd 7931 ab3d 1ed0 95bd
00000020: 6946 39be 58ab c93e 0853 9bbd f2e6 63bd
00000030: df16 80bd cc3a 8b3c c7da 1cbe 0468 d2bd
00000040: f2d0 9c3d 7d85 c3bd d855 6f3d a559 433c
00000050: 659d 243e 0269 283d b812 573d 1303 fe3d
00000060: 32d7 11be d3a7 18be da23 8e3b 4440 333e
00000070: 3435 ae3e 445e 37be d05c 693c c2ee 7bbd
00000080: 8a60 143e b55b c9bd a2c8 393d 6a61 05bd
00000090: e6ad 433e 4cae 4ebe 117a 96bd df3d a93d
000000a0: 3ddc 19be 5ef9 04be 6d3f b9bc 82b5 f0bd
000000b0: 9da1 2fbe 7fa3 3f3e c0ed 0ebd c0c9 9b3c
000000c0: 139b 093e 210a 00be aa4b f73c 8fc2 fd3d
000000d0: b9a4 8ebd c572 5e3d 0724 dc3d 543b 9fbd
000000e0: 89ad 0b3e d7c3 34be bfd9 e43c f3f4 54bd
000000f0: f813 adbd 9e6e 33be e545 373e d3f2 9cbd
00000100: a763 f23c 5876 af3d d4ac a73d 0db5 b83d
00000110: 4f8e f13c 5aee 163e 57b6 9d3c 857b 393e
00000120: 6b87 7abd 176b c6bd 3c17 343d 2a11 373e
00000130: 9f5a e4ba 8451 373e 4544 023e d9eb 09be
00000140: c711 973c 50b2 da3d 9bc3 9d3e e389 d23b
00000150: e05a 2e3e 7f51 bdbd 2db1 39bd 996a 4abe
00000160: cfdc cf3c 707d a03d 8107 8d3e 8089 47bd
00000170: d07a c8bd 9fa2 703e cd21 923d 7102 4e3e
00000180: 804f 503e e680 d3bd 5ab9 3abe 1419 603e
00000190: ff52 fb3d ca7d e93d b104 69bd c96e bdbd
000001a0: 9e67 b1bd 5324 9b3d 326b dbbd faf4 1c3e

output_layer.weight f4 [1, 27]
0.081625625 0.2579707 0.1294142 0.19883221 -0.11157629 -0.031298585 -0.14428535 0.19945179
0.14788596 0.20034562 -0.09616603 0.15319276 0.18331622 -0.032321647 -0.10138974 0.15104294
-0.109885916 -0.13777387 0.21909629 0.05395853 0.25590673 0.15226074 -0.066735126 0.14639555
0.018855542 0.16532134 -0.11212289
00000000: 562b a73d bc14 843e 2885 043e ac9a 4b3e
00000010: 1c82 e4bd f232 00bd 8abf 13be 173d 4c3e
00000020: 6b6f 173e 6727 4d3e b2f2 c4bd 90de 1c3e
00000030: 3fb7 3b3e b463 04bd 6da5 cfbd 00ab 1a3e
00000040: de0b e1bd 9814 0dbe c75a 603e 9f03 5d3d
00000050: 3506 833e 3dea 1b3e 6dac 88bd b7e8 153e
00000060: f076 9a3c ff49 293e b0a0 e5bd
