models/base_model/model.pth (torch, 29373 bytes, 5 tensors)

lstm_layer.weight_ih_l0 f4 [156, 1]
000000 c1 dd 82 3e 47 26 ba 3c a8 7f 22 bd 74 f8 7c 3e
       0.2555981 0.02272333 -0.039672524 0.24704152
000010 36 dd 9f 3a 29 7a eb bb b5 ad a5 bd 1e 50 51 3e
       0.0012196663 -0.0071861935 -0.080897726 0.20440719
000020 30 2e 9c 3d 68 34 84 bd 04 cc 9e 3d 99 28 65 3b
       0.07625997 -0.06455308 0.07753757 0.0034966825
000030 cd 34 67 3e a8 fe 93 3b b6 c9 1e 3d e5 fb 82 3e
       0.22578736 0.0045164414 0.038766585 0.25582805
000040 44 00 e8 bc 0b 10 5c 3e 7c e1 ac bb f8 fe 9c 3d
       -0.02832044 0.21490495 -0.0052759033 0.07665819
000050 f2 8e 5f 3e d2 ff 6b be 6a a7 03 3e e4 e7 91 3d
       0.21831873 -0.23046806 0.12856832 0.07124308
000060 96 34 8e 3d 10 e6 4e 3e a4 dc f5 3d a0 e4 05 bd
       0.06943624 0.2020495 0.120049745 -0.032688737
000070 5a 6f 20 3e 95 72 0f bd 85 4b cd 3d ca dd 55 3e
       0.15667477 -0.035021383 0.1002417 0.20885387
000080 74 b2 79 3e 6f 24 8f bd 2a 8a 28 bc c6 82 b3 3b
       0.2438448 -0.06989371 -0.010286847 0.005478236
000090 6a e2 af bd 05 42 cf 3d 8a 83 ad bd fb 8e 7d 3e
       -0.08588107 0.10120014 -0.08472355 0.24761574
0000a0 8a 7e 8c 3e 0f 06 37 3e 00 85 57 3e ac 41 fc 3c
       0.27440292 0.17873405 0.21046829 0.030793034
0000b0 8e ec b2 ba e1 80 bf bd b6 02 be bd ac 49 05 3e
       -0.0013650821 -0.093507536 -0.09277861 0.13016385
0000c0 0d af 2a bd e1 94 ad bc 12 86 1a be 32 22 3e 3d
       -0.041670848 -0.021189155 -0.15090206 0.04641933
0000d0 cb 28 81 3e 4b b9 db 3d 78 8b 6a 3e ca 13 f5 bd
       0.25226435 0.10728701 0.22904766 -0.11966665
0000e0 88 ea 19 3d fa 05 7d 3e 9f 93 85 3e b6 53 ce 3d
       0.037577182 0.24709311 0.26089188 0.1007456
0000f0 53 93 38 be 09 93 a3 3d da 6a 36 3d 41 ae 4d 3e
       -0.1802495 0.07987029 0.044535495 0.20086004
000100 f0 99 92 b9 0a db 27 bd aa e2 e8 3c 41 6b 75 3e
       -0.00027961982 -0.040980376 0.028428394 0.23966695
000110 b1 c6 89 3d 69 64 85 3e b4 fe 36 3e 02 c1 fa 3d
       0.067273505 0.2605317 0.17870599 0.122438446
000120 72 f5 03 bd ee 2e f2 3d 15 b1 c6 3d dd 38 40 bc
       -0.032216497 0.118253574 0.097017445 -0.011732307
000130 c6 fe 66 3d 8b 3b 4c 3d 9e cb 68 3e dd 32 75 3e
       0.056395315 0.049861472 0.22733924 0.23945184
000140 f2 93 f4 3c 5f a2 80 bc 42 2f 68 3e 36 a9 41 bc
       0.029855702 -0.015702425 0.22674277 -0.011820128
000150 17 7f c5 bd 68 cf 17 be 92 85 3d be a0 3c 2d bd
       -0.09643381 -0.14825213 -0.18507984 -0.042294145
000160 5e a1 81 be 74 64 f4 bc 5b bf 60 3e 5e b9 80 be
       -0.25318426 -0.029833056 0.21947996 -0.25141424
000170 49 0c 2a 3e 2a 58 32 3d a3 dd 5b 3d c4 92 32 bd
       0.16606249 0.04354111 0.053678166 -0.043596998
000180 a3 94 ea bd d5 f8 e5 3c e8 d8 76 be 55 bb 20 3e
       -0.114541315 0.028072754 -0.2410618 0.15696461
000190 9d 66 00 be 2f a8 7f be ef 06 23 3c c8 7b 6f 3e
       -0.12539144 -0.249665 0.009950384 0.23387063
0001a0 68 86 55 bd df 41 69 bd ae aa 4c 3e 6e bf d2 bc
       -0.052130133 -0.056947585 0.19986984 -0.025726046
0001b0 e3 b3 84 bc 13 2a 52 be 9c 31 6a 3d 8d 7b b0 bd
       -0.016199058 -0.20523863 0.057176217 -0.086173154
0001c0 0c e7 07 3d 39 e7 00 be bc 35 c5 bd d0 da 92 be
       0.033179328 -0.12588204 -0.0962939 -0.28682566
0001d0 05 c6 b9 3c 83 18 bf 3c 87 0e 9b 3d 98 8c 6b 3e
       0.02267743 0.023327118 0.0757113 0.23002851
0001e0 44 29 66 bd 05 d0 20 3e 2d c9 44 3c 30 c4 38 3d
       -0.056191698 0.15704353 0.012010855 0.045108974
0001f0 ac 15 0d 3e 3c dc b8 3d 16 80 8e 3d 15 ec 88 3e
       0.13777798 0.090263814 0.06958024 0.26742616
000200 52 0d 9d bc 63 aa ab 3c 91 27 7a 3c 98 3b ac 3c
       -0.01917139 0.02095527 0.015268222 0.02102451
000210 05 e5 ba 3d 37 7a b8 3d 5b c5 87 3e 0a 99 b6 3c
       0.09125713 0.09007686 0.26517758 0.022289772
000220 47 9b cf 3d 0d ff 45 3e 91 cd 11 3d f8 a6 a9 3d
       0.10137039 0.19335575 0.035596434 0.082838
000230 bd 6e 50 3e ce a9 31 3d 35 2e 54 3e 03 d7 59 3d
       0.20354743 0.04337483 0.20720752 0.053183567
000240 5f e6 2f 3d 52 2a 51 3e 5a ab 01 3d bd af 19 3e
       0.04294431 0.204263 0.031657554 0.15008445
000250 74 6f 67 3e d2 23 eb 3d 8a c3 eb bd 00 c3 f3 3d
       0.2260111 0.114814416 -0.115119055 0.11902428
000260 a7 13 f7 3d 49 f5 da bd b0 b5 4c 3e 05 c1 88 bc
       0.12064295 -0.10691316 0.19991183 -0.016693601

lstm_layer.weight_hh_l0 f4 [156, 39]
000000 72 97 ba bc 92 84 98 39 10 64 16 bd 94 5b bf 3d
       -0.022777293 0.00029090472 -0.03671652 0.09343639
000010 22 04 52 3d 59 55 71 3d 29 a9 11 be 11 9a 87 bd
       0.051273473 0.058919284 -0.14224686 -0.06621183
000020 dc b1 54 bd 90 1e 56 3e 90 02 ef 3c 0b 0a 21 bd
       -0.051927432 0.20910096 0.029176027 -0.03931622
000030 09 10 55 3e 8d 5c 8a bd 13 1a 55 3d b0 78 1b bd
       0.20806898 -0.06755934 0.05202682 -0.037956893
000040 60 8a ea 3c b1 c1 02 3e c7 4d 98 3d f3 61 ba 3d
       0.028630435 0.127692 0.0743671 0.091007136
000050 0e fb fe bd 8d d2 17 bd 97 5f 86 3d a6 82 61 be
       -0.12450229 -0.03706603 0.06561201 -0.22022495
000060 d0 cc b9 3d 28 cb 12 bd bc 23 60 bc 27 8c 11 be
       0.09072268 -0.035838276 -0.013680395 -0.1421362
000070 6e 43 15 bd ad 6f ba 3d e2 5b eb bd 91 2c 32 bd
       -0.03644126 0.09103332 -0.11492135 -0.043499533
000080 eb b1 20 bc b8 30 8f bd 71 c7 92 3d 6d 0d 86 bc
       -0.009808044 -0.06991714 0.07166947 -0.016363824
000090 b9 94 d6 3a 29 56 3f bd 8d 87 df 3d 57 57 4d 3e
       0.0016371227 -0.046713028 0.10914526 0.20052849
0000a0 ea 00 51 3e 3c 9e 0d bd 8c 0a d6 bd fb 26 4f bd
       0.20410505 -0.034574732 -0.104512304 -0.050574284
0000b0 aa 29 ce 3c 12 de 47 be ef d6 0c bd 20 fa e0 bd
       0.025166351 -0.19518307 -0.034384664 -0.109852076
0000c0 bb 71 06 3e 09 31 0a be b8 42 37 be ea 4c 2a 3e
       0.13129322 -0.13495268 -0.17896545 0.16630903
0000d0 be ed 11 be 11 2c 80 3e cb 15 b9 bd fd 55 4d 3e
       -0.14250848 0.2503362 -0.0903736 0.20052333
0000e0 51 18 bc bd c5 8b 64 be f2 d2 c3 bd a7 bb b6 3b
       -0.091843255 -0.22318943 -0.09561719 0.005576569
0000f0 e2 d2 62 bc 72 78 0a 3d 82 af 43 be e0 da e6 3c
       -0.013844224 0.03380627 -0.1910992 0.02818054
000100 eb 97 5c bd aa 2d 56 bd 0e 39 38 be 4b 1e 7f 3d
       -0.053855818 -0.052289642 -0.17990515 0.06228475
000110 38 81 0b be cf 22 78 3b 78 01 b8 bd d4 10 29 3e
       -0.13623512 0.0037862544 -0.08984655 0.16510326
000120 43 bb b5 bd 32 ef 50 bd 8f 37 97 bd 49 c6 98 bd
       -0.08873608 -0.051009364 -0.07383644 -0.07459695
000130 ec 16 5c be cf 56 2e bc af 0c 70 3d 24 88 a8 bd
       -0.21493119 -0.010640814 0.058605846 -0.08229092
000140 12 b7 8c 3d 48 4d 22 3e 98 93 79 3d 74 50 e8 3d
       0.068708554 0.15849793 0.060931772 0.1134347
000150 18 ea 72 bd a3 b6 e9 3c d2 a5 7c be 85 60 26 bd
       -0.05930528 0.02852947 -0.2467263 -0.040619392
000160 67 dd 70 be fc 87 01 be b0 b8 5e 3e 06 69 47 be
       -0.23521958 -0.1264953 0.2175014 -0.19473657
000170 c3 fb 35 3e 32 91 9f 3d e9 ef 0c 3e ae dd d6 3d
       0.1777182 0.07791366 0.13763393 0.10491501
000180 3f f1 a4 3c 90 db 1d 3d b9 8c 02 be 89 72 1a 3e
       0.020134566 0.03853947 -0.12748994 0.15082754
000190 3a ca 82 bc be 50 b5 3c 2c 48 46 bc f3 f9 16 3e
       -0.01596557 0.022133227 -0.012102168 0.14743786
0001a0 17 c6 32 be 4a 6d 99 bd fc 35 62 3c 98 ea 7b bc
       -0.17458378 -0.07491548 0.013806816 -0.015375756
0001b0 af fd 28 be 2b e9 32 be 43 7e de 3d ae 32 09 be
       -0.16503023 -0.17471759 0.10863926 -0.13398239
0001c0 d2 bf bc bd 7c c5 4c 3d 49 d1 c4 bd a0 7f 99 be
       -0.09216274 0.049993023 -0.096102305 -0.29980183
0001d0 b8 e3 fa bd da 70 6a 3d 1c a9 05 3e 0a bb e8 3d
       -0.12250465 0.05723653 0.13052791 0.113638
0001e0 fe c8 da bd 35 ee 06 be 55 ca 18 3d c4 3f 79 bd
       -0.106828675 -0.13176806 0.037302334 -0.060851827
0001f0 9c b1 10 bd 3b 97 04 bd 08 b6 19 be 41 3e 58 3c
       -0.03532563 -0.032370787 -0.15010846 0.013198436
000200 db 8c 25 be 06 fa 42 3e 3d a0 01 be d8 6b 2b 3e
       -0.16167013 0.19040689 -0.12658782 0.16740358
000210 a5 ff 28 3e f6 2f 02 3e 38 34 9c bd 25 8c 5d 3d
       0.1650377 0.12713608 -0.076271474 0.05408873
000220 9c 9a 55 bd 5a be 2e be 3d 44 7a bd 77 b3 f3 bd
       -0.0521494 -0.17064801 -0.061100233 -0.118994646
000230 a3 fb 0e be dd a6 41 3d 7f 5d 03 be 6d bf 13 3e
       -0.1396318 0.047278274 -0.12828635 0.14428492
000240 24 cc 18 3d f2 f6 28 3e b8 b9 ae 3d aa 5b 96 bd
       0.03730406 0.16500452 0.08531517 -0.07341702
000250 da f7 2f be 53 0d 12 be 79 0b ee bd 51 4c 2d 3e
       -0.17184392 -0.14262895 -0.11623282 0.16923644
000260 20 e9 7f bd ce 93 0e be b4 70 6b be 42 67 b3 bc
       -0.062478185 -0.1392357 -0.22992212 -0.021899823
000270 56 d0 5a 3e 73 ec 6e 3e df f1 d3 3d 42 0f 48 3d
       0.21368536 0.23332386 0.103488676 0.048842676
000280 49 ca 3c 3e ca 4b 5f 3d cc 2c 5e be 29 7d 1d be
       0.1843654 0.054515637 -0.21696776 -0.15379776
000290 eb ee 0f be 51 7d 10 3e e0 ad 39 be e6 30 0e be
       -0.14055984 0.14110304 -0.18132734 -0.13885841
0002a0 9c 19 85 3e de 2f c0 3d 5c 17 f7 3d be 9c 36 3e
       0.259961 0.0938413 0.12065002 0.1783323
0002b0 dc 0e 88 bc 3e a2 9c bb 55 d9 1f bd 31 9a eb 3d
       -0.016608648 -0.004780083 -0.039025623 0.11504019
0002c0 ba 83 81 be e5 d6 cd bb 81 db 00 be da 9b 40 be
       -0.25295812 -0.006281721 -0.12583734 -0.18809453
0002d0 5b 51 89 3d ec 51 a2 bd 8e 77 26 be 7e 0d a6 3d
       0.067049704 -0.079257816 -0.16256544 0.08108042
0002e0 99 35 65 3e a1 1b 58 3d 40 df 97 3d d5 21 0b 3d
       0.22383727 0.052760724 0.074156284 0.03396781
0002f0 41 78 63 bd 1d b4 04 3d 2e 7b 34 bd 83 74 20 be
       -0.055534605 0.032398332 -0.044062786 -0.15669446
000300 c6 6a 18 be 1a 41 b9 3c dd 24 cc bd 52 15 a2 bd
       -0.14884481 0.02261405 -0.099679686 -0.07914223
000310 8c d0 43 bd ba 07 42 3c 2c fa e2 3d 90 fa e5 3d
       -0.047806308 0.0118426625 0.11082873 0.11229432
000320 6c 18 04 bd a9 de 22 3d 0d 13 97 3d 9b 10 52 3c
       -0.032249853 0.039763127 0.073766805 0.012821342
000330 52 0d 67 3d 4a 74 4c 3d 2c 90 90 bd 87 7e 97 3e
       0.056409188 0.04991559 -0.070587486 0.2958872
000340 8c 0a 29 bc 25 61 20 3d f8 1c 05 3e 46 e8 91 bd
       -0.010317456 0.039155144 0.12999332 -0.07124381
000350 70 b5 82 3d 78 fd b2 bd 67 7f 95 3d 9e af 63 be
       0.06382263 -0.087397516 0.07299691 -0.22234961
000360 a7 1d f4 3d cb ce 05 be 63 1d 4d be a1 f9 2b be
       0.11919718 -0.13067167 -0.20030741 -0.16794445
000370 13 de 76 3b 20 ae 1f bd 77 b2 83 bd f7 45 29 3d
       0.0037668988 -0.038984418 -0.06430524 0.04132649
000380 85 72 df 3d 94 59 fc bb 46 f8 3e be dd a8 bc bd
       0.10910515 -0.007701108 -0.18649396 -0.092118956
000390 74 7d 62 be 15 1f 7a 3c cd ec 12 bd 8e 00 bc bd
       -0.22118169 0.0152662 -0.035870362 -0.09179793
0003a0 57 a1 e5 bd 51 ce 7d bd 34 3f cf 3d 6d f2 f9 bd
       -0.11212414 -0.061964337 0.10119477 -0.12204442
0003b0 1f 7a dd bb 4d d3 0e be 71 68 88 3d 08 01 8a bc
       -0.0067589427 -0.13947792 0.066605456 -0.016846195
0003c0 b2 20 80 bd bf 29 01 3e 4c 30 9a bd e4 af 83 bd
       -0.06256236 0.12613581 -0.07528743 -0.06430033
0003d0 d9 12 21 be 58 d0 95 bd 5e 4c be bd 1a 76 2d 3e
       -0.15729846 -0.07315129 -0.0929191 0.16939583
0003e0 45 b6 2b be e6 46 c3 bd 07 f9 c6 3c 4d ed 7f 3d
       -0.16768749 -0.09535007 0.024288667 0.062482167
0003f0 fa 17 e8 3d 5b 2e 92 3c 2a a7 f2 bc 91 6f 9a 3d
       0.11332698 0.01784437 -0.029620726 0.07540811

lstm_layer.bias_ih_l0 f4 [156]
000000 82 96 3c 3e fe b5 09 3e e1 17 02 bd 62 ca a9 bd
       0.18416789 0.13448331 -0.031761054 -0.082905546
000010 68 ee 07 3e 73 05 1e 3e 71 f7 3c 3d 99 16 77 3d
       0.13274539 0.15431766 0.046134416 0.060324285
000020 9e ef ae 3d e5 b7 11 3e 6c 00 0b 3e 18 39 4d 3d
       0.08541797 0.14230306 0.1357438 0.050103277
000030 e8 8a c8 3d ac 37 cc bc 78 0a 86 3e 1d e4 65 bd
       0.09792119 -0.02492889 0.26179862 -0.05612575
000040 9f 30 12 3e 3b e7 0e be b2 26 ac bc 49 44 28 3b
       0.1427636 -0.13955395 -0.021014545 0.0025675467
000050 3d 14 37 bd e6 2a d0 bd 4d 29 a2 bd 12 2d 63 3d
       -0.044697035 -0.10164432 -0.07918034 0.055462904
000060 5e b7 03 3c ea 18 70 3d fa 48 3b 3e 2a 2d 46 3e
       0.008039324 0.05861751 0.18289557 0.19353166
000070 88 ac 7f 3e 3b 4e d5 3d ff 24 3c 3e 4c 3c d8 3d
       0.24968159 0.10415312 0.18373488 0.10558376
000080 0a df c8 bd 86 05 a3 3d 0c ee 0d be e3 4a 38 be
       -0.09808166 0.07960038 -0.13860339 -0.17997317
000090 a4 a0 d9 3c 55 f8 b6 3e ee 54 18 be fb 27 18 3e
       0.026565857 0.35736337 -0.14876148 0.14859001
0000a0 43 9c de 3d 55 93 bf bc eb 6b ad 3d 64 6e 46 3e
       0.10869648 -0.023385683 0.08467849 0.19378048
0000b0 e0 e3 04 be b0 6c 7a 3d d9 67 00 3e 9d 72 f9 3d
       -0.12977552 0.06113881 0.12539615 0.12180064
0000c0 ff 99 21 bd cf d2 97 3e 5a b8 af 3d 60 aa 67 3e
       -0.039453503 0.29653022 0.08580084 0.22623587
0000d0 6d f5 a6 3d f9 bd 22 3e 49 2f cb bd da 1e 1e 3c
       0.0815228 0.15892781 -0.09921128 0.00965091
0000e0 33 f0 42 3d fa db 27 3e 9e b0 7b bd 45 52 48 3e
       0.047592353 0.16392508 -0.061447732 0.19562633
0000f0 f7 0b d5 3d c1 93 d8 bd 9b 89 3a 3e 5a a7 94 bd
       0.10402673 -0.10575057 0.18216555 -0.07258482
000100 3c c0 4c 3e 44 cb d0 3d 29 e4 29 3e 1f 67 72 3e
       0.19995207 0.1019502 0.16590942 0.2367215
000110 7f b5 83 bd 30 bd 20 3e 64 e1 93 3c 76 da a9 bd
       -0.06431102 0.1569717 0.01805181 -0.08293621
000120 bd 34 11 be 34 b4 25 be 65 1a fd 3d ab fd 45 bc
       -0.14180274 -0.16182023 0.1235855 -0.012084405
000130 0b cc 07 3e 36 a8 30 be a7 f5 1d 3d 18 26 51 bd
       0.1326143 -0.17251667 0.03856435 -0.05106172
000140 f9 ec 18 bd a5 8f b9 3c 50 7a 1d 3e 6f 02 66 3d
       -0.03733537 0.022651503 0.1537869 0.056154665
000150 22 a4 78 3d c0 e3 b5 bd e5 2f d6 3d c4 63 c2 3d
       0.060703404 -0.088813305 0.10458354 0.09491685
000160 28 27 df 3d 95 91 df bd 15 1c 0e 3d 08 2f 06 be
       0.1089614 -0.109164394 0.03469475 -0.13103878
000170 0a 12 11 3c 7f a5 73 3d 83 92 02 be 33 4b 1d 3e
       0.0088543985 0.059484 -0.12751202 0.15360717
000180 6d 78 e7 bd b2 03 0d 3c f4 2c 43 3d b5 3a 78 bd
       -0.11302266 0.008606838 0.047650293 -0.060602862
000190 97 e7 26 3c 47 53 a1 bd 83 75 01 be 9e 42 d2 3d
       0.010187051 -0.07877212 -0.12642483 0.102666125
0001a0 a4 cf e1 bd 49 5b f0 bd 43 b1 a9 3d 70 8b a7 bd
       -0.110259324 -0.11736161 0.08285763 -0.081808925
0001b0 37 1d aa bd f2 6f 21 be 13 30 12 3e d1 fe 5e bd
       -0.083063535 -0.1576536 0.14276151 -0.05444223
0001c0 71 1e 04 3e 48 92 c8 bd 57 c0 84 bc 9a 4a a7 3d
       0.12902237 -0.09793526 -0.016204996 0.08168526
0001d0 48 0e c5 3d bd 26 37 3e 48 6e e5 3d d5 0c 31 bd
       0.096218646 0.17885871 0.11202675 -0.04322513
0001e0 39 84 8b 3b 23 4a e1 3c bd 45 ca 3d dd 20 23 bd
       0.0042577055 0.027501171 0.09876583 -0.039826263
0001f0 47 d5 0b 3d 04 74 2d 3d 70 68 ff bd 6d 5c 58 3e
       0.034138944 0.04234697 -0.12471092 0.21129008
000200 f5 dd 0c 3d 97 cd ce 3d a5 ca e4 bd a7 2d 4a 3e
       0.034391362 0.10097807 -0.11171464 0.19743977
000210 2e 78 d7 3d 75 2f 20 be 37 1b 12 be 43 0a 43 3e
       0.10520969 -0.15643103 -0.14268194 0.19046883
000220 15 04 95 bd 1c 8e 8a 3d d0 38 f7 3d 6a 58 df bc
       -0.07276169 0.067653865 0.12071383 -0.027263839
000230 08 60 7a 3d cb e0 45 bd 90 3f 90 bc 4a fb 08 bb
       0.06112674 -0.048310082 -0.017608434 -0.0020901733
000240 91 20 a2 bd c2 de 4e 3e b4 69 e6 bd 4f 70 80 bd
       -0.07916368 0.20202163 -0.1125063 -0.06271421
000250 0e 40 65 bd bb a8 04 3d bc c5 46 bd 36 2e a8 3d
       -0.05596929 0.032387476 -0.048528418 0.08211939
000260 9c 74 c9 3d 00 f2 1f 3d 1c 52 c1 3e 33 ca 1a 3e
       0.098366946 0.03904915 0.37757957 0.15116195

lstm_layer.bias_hh_l0 f4 [156]
000000 d9 b5 31 3e 7a 0f 03 3e ad f0 23 3e 71 a4 0a be
       0.17354526 0.12798873 0.1600978 -0.13539292
000010 5a 7a 16 3c 07 f0 de bd 9f d4 45 3d b9 48 24 3e
       0.009184444 -0.10885625 0.048298474 0.16043366
000020 a8 ec 44 3e ed aa f2 3d 7a a9 3c 3e 34 6a b3 3d
       0.19230902 0.11849008 0.18424025 0.08760491
000030 7a b5 87 3e 88 21 df ba 9c eb ec 3d 3f bd 95 3d
       0.26505643 -0.0017023543 0.115683764 0.073114865
000040 89 22 ff 3d 72 40 96 bc 65 f5 e4 3d c1 d5 03 3e
       0.12457759 -0.018341277 0.11179618 0.1287451
000050 5a 2c a1 bc 85 b1 03 3b f3 60 3e 3e 2f eb ad bd
       -0.019674469 0.0020094824 0.1859167 -0.08492123
000060 b7 c7 6e ba c0 b0 4b 3e 95 b4 12 bc 60 38 0d 3d
       -0.00091087393 0.19891644 -0.008954187 0.03447759
000070 9e 79 85 3e 85 c9 ea bd 23 c3 2e 3e 8e 73 1f bd
       0.2606935 -0.11464218 0.17066626 -0.03892856
000080 19 17 30 bd a3 de a9 3d 8a aa d5 3d 63 6c f0 3d
       -0.042990778 0.08294418 0.10432918 0.11739423
000090 ad 01 83 bd fb 32 b1 3e 76 1e 28 3e d2 84 96 3d
       -0.06396804 0.34609208 0.1641787 0.07349552
0000a0 49 89 74 bd 3f c6 aa bc 08 a2 56 3d ba 23 ad bd
       -0.059701238 -0.020846484 0.05240062 -0.0845408
0000b0 1f 59 99 bc f9 92 a4 3d a5 88 39 3c d1 b6 fd 3d
       -0.018719254 0.08035845 0.0113240825 0.12388385
0000c0 53 4c e2 bd 2b e1 2d 3e 63 8b 17 be 0e 02 61 3e
       -0.11049714 0.16980426 -0.14799266 0.2197344
0000d0 92 51 11 3c 41 fb cf bc 23 e3 1e bc 3a e8 d5 3d
       0.0088695455 -0.025388362 -0.009697708 0.10444684
0000e0 0a 4b 93 3d 45 4f d3 bd 4c 6d 08 3e ce af 42 3e
       0.07192047 -0.10317854 0.13322943 0.19012377
0000f0 0a 78 46 3e 2f f6 ac 3d 68 c0 55 bd 3d 0b 0c be
       0.19381729 0.08445393 -0.052185446 -0.13676162
000100 c7 5d 9c bd f8 bb 8d 3a 6e cd 8d 3d cc ed 45 bd
       -0.07635074 0.0010813465 0.06923948 -0.048322484
000110 96 d4 c3 3d 9f a9 24 3e c4 20 5a 3e 28 c1 4f bd
       0.09562032 0.1608033 0.21301562 -0.050721318
000120 27 44 0e be 2e 75 92 3d 1c 92 e3 3c 66 da ee bd
       -0.13893186 0.071512565 0.027779631 -0.1166275
000130 b6 86 4a 3e 19 c0 f8 bc a9 a4 d6 3d c1 64 15 3e
       0.1977795 -0.030365037 0.10480625 0.14589216
000140 60 e6 12 be 1b a8 a8 3d 6d 94 2d 3d 21 f0 c5 3d
       -0.14345694 0.082351886 0.042377878 0.096649416
000150 9d de b6 bd 6e 54 5b 3d c7 20 00 bc e9 1b 97 3d
       -0.08929179 0.053547315 -0.007820315 0.0737837
000160 50 3b b0 bc 13 59 aa 3d fa 39 13 be 44 63 1b be
       -0.021512657 0.08317771 -0.14377585 -0.15174586
000170 da 56 42 bd f2 ec 33 3e 9d 61 c1 3d ce fb 10 3a
       -0.04744611 0.17570856 0.094424464 0.0005530686
000180 76 6e be 3c b4 54 ee bd ec 3f 7d bd 83 45 5e bd
       0.023246031 -0.116372496 -0.06182854 -0.05426551
000190 9e d3 dc 3b af c9 b9 bd 1a e3 24 be 64 ac db 3d
       0.006739094 -0.09071671 -0.16102257 0.1072624
0001a0 a4 75 2f be 5a e9 57 39 0f 99 f0 bd 2c 85 26 be
       -0.1713472 0.00020590928 -0.117479436 -0.16261739
0001b0 51 0b 11 be 63 9c 3d 3d 92 6a 0e 3e cd 01 99 3d
       -0.14164473 0.04629172 0.13907841 0.074710466
0001c0 07 6d 3b be 33 ab d3 bd 4a b6 c1 3d 74 d6 87 3d
       -0.1830331 -0.10335388 0.09458597 0.066327006
0001d0 60 77 09 be 74 3a 86 bd fa 53 eb bc 57 fa 99 3d
       -0.13424444 -0.06554118 -0.028726567 0.07518452
0001e0 63 89 85 bd b9 43 52 bd 07 ae 0b bd 9b 42 24 be
       -0.06520345 -0.051334117 -0.034101512 -0.16041033
0001f0 e2 2f 1e 3e 95 26 72 3e c5 60 cd 3d 1f 17 80 bc
       0.15447953 0.2364753 0.10028223 -0.015636025
000200 32 60 27 be b1 d9 93 3e 95 58 1b 3e 56 bd 76 3d
       -0.1634529 0.28877023 0.1517051 0.06023916
000210 72 06 bb bd 5d b1 84 bd bb 3f 38 bd 79 6e 32 bd
       -0.09132089 -0.06479142 -0.044982653 -0.043562386
000220 fc 6f 11 3d 03 2c e0 3d 46 21 88 3d 9e 7e 58 bc
       0.035507187 0.109458946 0.066469714 -0.013213782
000230 3c 98 98 bd 08 b0 01 3e df d4 56 3d b8 8c 2b 3e
       -0.074509114 0.12664807 0.052449103 0.16752899
000240 74 29 4e 3d 6c 19 06 bd 6c 81 54 bd d1 70 62 bd
       0.0503325 -0.032739088 -0.05188124 -0.05528337
000250 dc ea 47 3e 2f 57 d5 3b 55 12 f3 bd 1b a1 c1 3d
       0.19523185 0.0065106372 -0.11868731 0.094545566
000260 dd b4 a2 3d 70 8a e1 3d 32 9d 8a 3e 16 a8 0b bd
       0.07944653 0.11012733 0.27073056 -0.034095846

output_layer.weight f4 [1, 39]
000000 f3 51 6f 3d 11 a2 a1 3d 4d ad 16 be 6b 3f 08 3e
       0.058427762 0.0789224 -0.14714547 0.13305442
000010 4f f7 19 3e 3d 43 a0 3d 47 8b 99 3d 31 34 ec bc
       0.15035747 0.07825325 0.07497268 -0.02883348
000020 5c 8c f9 3c b1 05 ae bd 24 c5 7a be c3 3c cb 3d
       0.030462436 -0.08497179 -0.24489266 0.09923699
000030 32 85 29 3e 1b ce 0b be 4a d8 2e 3d 90 b3 3e 3e
       0.16554716 -0.13652842 0.042686738 0.18623185
000040 cc db d0 bc 57 44 e7 3d 4e 7a 3a be ca e5 eb bd
       -0.025495432 0.11292332 -0.18210718 -0.11518438
000050 23 d8 32 be af 05 03 3e ad 1e ce bd 81 ec b2 bd
       -0.17465262 0.12795137 -0.10064445 -0.08736516
000060 b5 f3 b1 bd 39 72 38 3e ec 6a 0a be 99 e3 26 bd
       -0.086890616 0.18012322 -0.1351735 -0.040744398
000070 ff 4c 46 3e 05 bc 0d be db 2a 02 be 09 1a 04 be
       0.19365309 -0.13841255 -0.1271166 -0.12900557
000080 bb 70 2a 3e 74 0d 6d 3d c7 d5 13 bd 61 ae 00 3d
       0.16644566 0.057874158 -0.036092546 0.0314163
000090 38 1f 8d 3c 42 6c 66 be d4 ff 16 3e
       0.0172268 -0.22502235 0.14746028
